scripts/practical_rl_models/model_3500000.pth (torch, 41301 bytes, 10 tensors)

policy_model.0.weight f4 [64, 4]
00000000: a1bf c5be cf3f 863a c459 553e 8916 eebe
00000010: 4868 d0be 0062 cc3e 3d58 953e de18 9cbe
00000020: 9c67 b13e c4ff 62be 43f9 a93e b9f0 c03e
00000030: fa54 f13e b77b 4c3d ba3a 8b3e ede5 f13d
00000040: 38c6 f63c 470f a9be 5ad7 aabe 4da7 a5be
00000050: 791e de3e 01a1 b93d 70e8 f2bd c4c5 a93e
00000060: 46b8 8f3e 011b 8fbe 6c60 263e c90c ef3d
00000070: 6c62 b13e 8928 d93d 82cc eb3e b230 ab3e
00000080: 838f 16be d940 abbe aebc dbbd 9fb0 8e3e
00000090: 2df3 aa3e 0342 58be 19f6 f8be 4beb 883e
000000a0: ec91 eebc 750f 293e 3f44 d23e c579 633e
000000b0: f0c8 babe ba5f d43e 37bb 653e 5b54 013f
000000c0: 7513 9ebe cbd1 b93e 76cb 9fbe 782c ae3e
000000d0: 7b5e 9ebe 3c61 b2be 9b52 003f 1857 cd3e
000000e0: 6dd3 d6be d466 653d cdf7 af3c 651e a83c
000000f0: 981e f9be 8e63 95bd 28aa 68be 5f7d 2dbd
00000100: fb45 cebd 2dcd 8c3e a85a b7be 13a5 f5be
00000110: b424 e03c fc20 a4be d81f 5bbd 8755 e03d
00000120: 980b a7be 3b1e abbe 7853 e2bd d028 e03d
00000130: 02a3 f9be 0a11 ab3e 6a77 73be aa0a c3bd
00000140: 0681 f03e 9b4d b23e 9182 ec3d 3621 f6be
00000150: bba2 ae3e 3001 883d 28b6 04be d5f2 80bd
00000160: e395 abbe f660 813e 557d 30be 36fb f3be
00000170: 306c 03be ae87 823d 69c5 553a 6770 ee3e
00000180: 351c d33d d304 e5be b2cd b03e 2eac a9be
00000190: d71f 6a3e ff6a c2b9 8236 9f3e 41c6 8b3e
000001a0: 9271 debd 9fb4 f7be 50d3 0b3e 48c6 963e
000001b0: da3d b5be c414 4ebc 1756 b53e e968 e93e
000001c0: 6f7f 82be bb99 c63e 637e 7a3e 0482 2ebe
000001d0: 297d 7bbc 89bf f1bb 721c ae3e 7578 363d
000001e0: 36b3 0d3e 2bbc 6a3e 3c6d 253e 4702 953e
000001f0: de07 cf3e 5a3b de3e 5922 433e 001f 9cbe
00000200: 9415 c03c 1416 23be 5b2c 4b3c b996 6c3e
00000210: 4910 673e 2477 80bc c8fb 14bd 4103 aa3d
00000220: 9080 553b 30bc fbbd cd95 b63d 5805 debe
00000230: 3267 b83e 5987 87be 222f c5bd 4c8e 4ebe
00000240: d718 48bd a637 64bd e5c1 e7be 7058 913e
00000250: df82 353e e9fb be3e 8457 873e b003 13be
00000260: 52c5 82be d6fd b93e b02f 65be 14a6 efbe
00000270: 8b38 2fba 42db 80be 6fcf eabe d5b3 41bc
00000280: bd2e c9bd 4b86 f63e b26b a8be 9b19 c93d
00000290: 59dd b83e e131 09bc 5517 8ebe b0a0 c13e
000002a0: 17ac 8a3e b414 c0be c004 293e 1b6f c6be
000002b0: f69f aa3e 3b56 5cbe 67e4 c9be c5f0 a0be
000002c0: d62e c43e c8d8 cebc f921 e5be 43f6 efbe
000002d0: 3bc0 663e 46a1 a03d 0c6b e7bc 8942 54bd
000002e0: e5b8 e33c 74d7 213e 309d fbbd 4137 e13e
000002f0: 8932 63be 3a58 0abe 61ad 4abe b945 5ebe
00000300: 3ebf da3e 41e4 ffbe 5b91 aabe e179 91be
00000310: 3453 b63e 1655 84be b558 a83e 0149 40bd
00000320: 8f69 7a3e 9355 363e bed8 40be 8b94 e9be
00000330: 9283 cfbe d51b 513d 6fb7 b73e 6207 143e
00000340: db07 d83e 774a efbb e6f3 973e 853b 02be
00000350: e25d 90be 21c6 673e b1fd d83e 1417 87be
00000360: 3ee5 9abe a93e 9d3b a77b 86bd ef78 e5be
00000370: 43d0 8cbe 0b65 abbc 2e27 e33d 9dab b5be
00000380: 1edc c23e a2a1 2bbe 3d8d 79be 51b5 c1bb
00000390: 770e c1be 7459 f5bd 341b 60be 97d2 323e
000003a0: 16d2 973e 156a cbbe d737 b63d 176e 8e3e
000003b0: 75cf bc3e fa2f 02bf 79fe b3be 2deb 693d
000003c0: f776 8fbe 141f 943e f6a0 ccbe 4599 a13e
000003d0: 7466 463e 8cb6 ecbe 4ac2 a2be 6c92 92be
000003e0: 329c 5bbd 161b 6e3e 1e28 5cbd 3ab7 e9bc
000003f0: f0a7 803e 6abf 8d3e 001c cf3e a8d8 883e
-0.38622764 0.0010242405 0.20835024 -0.46501568 -0.4070456 0.39918518 0.29168883 -0.30487722
0.3464936 -0.2216788 0.33197984 0.37683657 0.47135144 0.04992267 0.27193242 0.11811433
0.030123815 -0.33019468 -0.33367425 -0.32354203 0.43382624 0.09063912 -0.1186074 0.33158696
0.28070277 -0.2795029 0.1624772 0.116723605 0.34645402 0.106034346 0.46054465 0.3343559
-0.14703183 -0.33447912 -0.10729347 0.27869126 0.33388653 -0.21118931 -0.48625258 0.26742014
-0.029122315 0.16509803 0.41067693 0.2221442 -0.36481428 0.41479284 0.22434698 0.5051934
-0.3087422 0.36292872 -0.31209916 0.34018302 -0.30931458 -0.3483981 0.50126046 0.4010551
-0.4195818 0.056006268 0.021480465 0.020522306 -0.48656154 -0.07294379 -0.2272116 -0.04235589
-0.100719415 0.27500287 -0.35811353 -0.47977504 0.027361251 -0.32056415 -0.053497165 0.10953813
-0.32626033 -0.33421502 -0.11051077 0.10945284 -0.48757178 0.33411437 -0.23776022 -0.095235184
0.46973437 0.34824833 0.11548341 -0.48072213 0.34108528 0.066408515 -0.12960112 -0.062963165
-0.33512792 0.25269288 -0.1723531 -0.47652596 -0.12834239 0.06373535 0.00081547216 0.4657013
0.103081144 -0.44730243 0.34531933 -0.33139175 0.22863708 -0.00037082282 0.31096274 0.27299693
-0.108615056 -0.4837999 0.13654828 0.29448152 -0.35398751 -0.012578193 0.35417244 0.45587853
-0.2548785 0.38789162 0.24462275 -0.17041785 -0.015349665 -0.007377569 0.34006077 0.04454847
0.13837895 0.22923343 0.16154951 0.291033 0.4043569 0.43404657 0.19056071 -0.304924
0.02344779 -0.15926391 0.012400712 0.23104371 0.22564806 -0.01568181 -0.03637293 0.08301402
0.003257785 -0.12291753 0.08915291 -0.43363452 0.36016232 -0.2647045 -0.096281305 -0.2017147
-0.048851814 -0.055717133 -0.45265117 0.28387785 0.17725705 0.37301567 0.26433957 -0.14356875
-0.25541168 0.36326474 -0.22381473 -0.46806395 -0.0006684146 -0.2516728 -0.45861384 -0.01182266
-0.09823368 0.48149332 -0.32894665 0.09819337 0.36106375 -0.008373708 -0.27752176 0.37817907
0.2708442 -0.37515795 0.16505718 -0.38756642 0.33325166 -0.2151727 -0.3943207 -0.31433693
0.38316983 -0.025249854 -0.44752482 -0.4686757 0.22534268 0.078432605 -0.028249286 -0.051821265
0.027798126 0.15804845 -0.122858405 0.43987468 -0.22187246 -0.13510218 -0.19792701 -0.21706285
0.4272403 -0.4997883 -0.33314022 -0.284133 0.35610354 -0.25846165 0.32880178 -0.046944622
0.2445433 0.17806081 -0.1883268 -0.45621142 -0.40530068 0.051051933 0.35882136 0.14455941
0.42193493 -0.007302578 0.29678267 -0.12718017 -0.28196627 0.22634174 0.4238105 -0.26384795
-0.30253023 0.0047987294 -0.065665536 -0.44818828 -0.2750264 -0.020922204 0.11091457 -0.35482493
0.3805856 -0.16760877 -0.24370284 -0.005911507 -0.37706348 -0.119799525 -0.21885377 0.17463146
0.2965247 -0.39729372 0.08897369 0.27818367 0.36877027 -0.50854456 -0.35155085 0.057109047
-0.2802045 0.2892996 -0.39966553 0.31562248 0.1937502 -0.46233022 -0.31788856 -0.28627336
-0.053615756 0.2325252 -0.053749196 -0.028529752 0.25128126 0.276851 0.4045105 0.26727796

policy_model.0.bias f4 [64]
00000000: c286 6bbe 04db eb3e fa98 efbe b95f 8d3e
00000010: 9d82 d93e bee3 53be acc1 a2be 298f fd3e
00000020: 84cd fa3e 742b c3bd 9f7c e13d afab 0a3e
00000030: 0aa3 fbbd c95d 5d3d e61b 113e 9829 03bf
00000040: 872f 47be 0e54 01bf 40d0 ed3d 69ba e5be
00000050: 11d7 86be e1df 8f3e ca56 96be 7b8d f93e
00000060: 5dc8 d53d 02bf 2d3a 505b 233e 005b 533e
00000070: 3341 d73e 3882 f03e 9978 dbbe 5169 8f3e
00000080: 2a5f 34be 65f5 8f3e b41a fa3d faa0 413e
00000090: 76b1 ecbe 130c 3e3e ec8a f63d 566e 033e
000000a0: 5aa6 7a3e ec51 f4bd cba8 553e 1bac ae3e
000000b0: e34d 50be 6959 df3e 1565 65bd 7c25 a5be
000000c0: 5dbf 233e 278e f53e f134 e93e 2fe2 cd3d
000000d0: 744e 99be 3700 633e 596d 37bd d064 81be
000000e0: f7b7 84be 4dfe adbe cf4c d1be 3153 85bd
000000f0: 33c9 08bd 3ffc 9f3e b6d3 fe3d 3e8b 61bd
-0.23000625 0.46065533 -0.467964 0.27612093 0.42482463 -0.20692345 -0.31788385 0.49523285
0.4898492 -0.095297724 0.11010098 0.13542055 -0.122869566 0.05404452 0.14170799 -0.5123534
-0.19451724 -0.5051888 0.11611986 -0.44868782 -0.26335958 0.28100494 -0.2936309 0.48740754
0.10438607 0.00066278887 0.15952802 0.20640182 0.4204193 0.4697435 -0.42865446 0.28010038
-0.17614427 0.2811691 0.122121245 0.18909064 -0.46229142 0.18559293 0.12038216 0.12835059
0.2447752 -0.11929688 0.2086517 0.3411568 -0.20342211 0.43622902 -0.056004602 -0.3225516
0.15990968 0.47960016 0.45548204 0.10052907 -0.29942667 0.2216805 -0.044782016 -0.25272226
-0.25921604 -0.3398308 -0.40878913 -0.06510008 -0.033395004 0.31247136 0.124427244 -0.055064432

policy_model.2.weight f4 [64, 64]
00000000: aaee a1bd 9219 c4bb 0095 993d e2a8 dcbd
00000010: ae6d f5bd a5b5 e4bc 7e21 e7bd e8b9 0abe
00000020: 14db a9bd c110 c53c 0d62 083d 6813 b6bc
00000030: fe92 10bd aeb0 febd 3339 b63d d7f0 5ebc
00000040: 7c76 bfbd 324b 833d 646c 4fbd 0d49 733d
00000050: 9343 02bd 8d8a 6f3d 08ed 8fbd b570 07be
00000060: ad7e 28bd e946 6abd a472 833d 1082 a1bd
00000070: 09b5 003d c9c6 93bd 4609 023e 472e 06bd
00000080: 57b9 99bd e3f4 73bc 75a0 82bb 7009 c9bd
00000090: d05f d13b 2cc0 22bd 358d 1d3d 9b6d b63d
000000a0: 9164 c9bd f8f5 993d 8abb bbbd 3356 e53d
000000b0: 7f86 89bd a9b3 133d fe3e 0ebd 27fa 0f3c
000000c0: 4a46 a8bc f459 c53d 79bb bb3d 2711 08be
000000d0: 10bf a93d 90b3 c3bd 9b1e 09bd 005e 3abd
000000e0: 3789 d8bd bb29 e5bd d81b 2b3c 0687 bbbc
000000f0: 0ba8 82bd b921 b33c fe73 94bb 4387 893c
00000100: 792a f23d 7922 323d e9b3 fc3d 0486 863d
00000110: 353c 0bbd 9432 24bd 5eb6 f83b fc2d d23d
00000120: d14c d4bd 891d cf3d 675e ccbc abff 05be
00000130: d2ce 343b 085b 743d ef7b 84bd dd1c e33d
00000140: 4242 babc 0514 dabd d3c4 983d 6d95 573d
00000150: 7f35 b73c cb5a 68bd 533d 073e 0fd2 313c
00000160: 39d4 7f3d 59e6 6bbd 99a5 d9bd 7a31 873c
00000170: b3f5 cf3c d226 113d 948b 6fbc 217f 803d
00000180: 5772 cbbd 66f2 5a3d b1a1 b83d 043d 24bd
00000190: f66d 8abd fa4c a3bd deaa 2abb 903e 643d
000001a0: fe08 1abd 7dc1 803d c86f 07bd 8aa4 013e
000001b0: 2021 08bd b67f 833d 75ef 083d 4c9f babd
000001c0: 4401 be3d fab7 14bd c084 fcbc 9e28 2a3d
000001d0: ebb6 78bd 9c57 65bd a180 89bc fee6 c1bb
000001e0: d081 e53d 531a 9dbd edcc eabd 79c9 c6bd
000001f0: e0d8 09be a5dc 8ebd cfdf f33d 75b6 e3bd
00000200: 0c81 bcbd 1279 9bbd 9a13 3fbb 4846 d2bc
00000210: 3fb8 8fbd ea95 8dbc 3d7c 8abd 1b39 b6bc
00000220: 835e f13d 16f5 013d efe4 563d 68c7 b7bd
00000230: 79ab 4e3d 713d 653d 771a 8abd 6c29 bc3d
00000240: f261 18be bb37 d03d aa57 0f3e d074 5cbc
00000250: acf4 eabd 08d2 db3d 532a 13be 51f5 9e3d
00000260: 8381 143d e8bd e73d 9c9b b83d 91be c8bd
00000270: 83b4 a53c 4149 55bc dab0 40bd c320 333c
00000280: 9cc4 31bc 1997 d8bc de12 66bd a36f 0b3c
00000290: 9735 bc3d 72cc e4bd b407 edbd 73f6 543d
000002a0: 4fd0 b3bd cfea 943c 17a1 883c 0c87 d43d
000002b0: b808 0ebe 42eb a4bd 79f0 b6bd 4410 d83d
000002c0: 706d 4dbc cd76 403d 34be 933d a43f 023e
000002d0: 1c69 6fbc f30c efbd 0c05 e13d b8cd 71bd
000002e0: 2b59 f1bd d154 babd 7313 bf3c b3c9 c8bd
000002f0: 7ca1 723d 746d 18bd 34a6 c53b 080c 7d3d
00000300: fa65 4abd 9cfc c43d d5b3 f0bd e939 2bbd
00000310: 8e7e cabd 0ba5 dc3c 8089 b83d ab46 363d
00000320: e5d0 643c f4f5 8e3d 4bed 8b3d abca ddbd
00000330: cf4e d83d 90e9 20bd 5a65 b73d 0636 ecbc
00000340: cb29 5f3d 26bc 93bc 387b 7cbd 93f7 853d
00000350: 2838 6b3d fc77 1bbd beb4 6dbd e26c 89bd
00000360: 3980 483b 261e e0bd 6533 213c 6c6a 08bc
00000370: c7da df3d 7146 b33d 9955 713d 9f4b 9ebd
00000380: 7993 d13c 6d85 62bd e70e a9bd 0089 c43d
00000390: 9ab7 cebd bd2f 973c a93a 89bd bbd3 633d
000003a0: 2740 d63c 2cc5 9abc a2fb 0cbd 2c24 b53d
000003b0: d584 173c faa5 e1bd 2576 39bd 4c79 9dbd
000003c0: 8108 d63d 0aa0 9dbd c1b3 8fbd c75f ca3d
000003d0: 7ea6 54bd 769a b83b 595d 2fbd 5d14 bb3d
000003e0: cbb8 9fbb 57bf 9d3d 81be f6bb 4347 23bd
000003f0: 24fb d1bc 7531 cbbd 286e 0a3d 0fb6 dc3d
-0.0790685 -0.0059844935 0.074991226 -0.10774399 -0.1198381 -0.027918646 -0.11285685 -0.1354748
-0.08293739 0.02405584 0.033296634 -0.02222605 -0.035296433 -0.12436043 0.08897629 -0.013607225
-0.09348771 0.06410827 -0.05064048 0.05939584 -0.031802725 0.05848174 -0.07027632 -0.13226588
-0.041136432 -0.05719653 0.0641835 -0.078861356 0.03142265 -0.0721565 0.1269885 -0.032758977
-0.07506054 -0.0148899285 -0.003986413 -0.09816253 0.0063895956 -0.03973405 0.038464744 0.08907624
-0.09833635 0.07517618 -0.091666296 0.11198082 -0.06715106 0.03606001 -0.034728043 0.008787668
-0.020541329 0.09636298 0.09166617 -0.13287793 0.082883954 -0.09555733 -0.033476453 -0.0454998
-0.10573047 -0.111896 0.01044365 -0.022891533 -0.06379708 0.021866666 -0.004530429 0.01678813
0.11824507 0.043489907 0.12339003 0.0656853 -0.033992965 -0.040087298 0.0075900992 0.10262677
-0.10366214 0.10113055 -0.024947358 -0.13085811 0.0027589095 0.059657127 -0.06468951 0.110894896
-0.022736672 -0.1064835 0.07459416 0.052632738 0.022364376 -0.056727212 0.13206987 0.0108533045
0.06245825 -0.057592724 -0.10627288 0.016503084 0.025385713 0.035437413 -0.01462068 0.06274248
-0.09933918 0.053453825 0.09015215 -0.04009725 -0.06759255 -0.079736665 -0.0026041786 0.055723727
-0.037606232 0.06286905 -0.033065587 0.12660423 -0.033234715 0.06420843 0.03343149 -0.09112415
0.09277585 -0.036308266 -0.030825019 0.04154264 -0.06072132 -0.055991754 -0.016784968 -0.005917429
0.112064004 -0.076710366 -0.11464868 -0.097063966 -0.13461637 -0.06975678 0.119079225 -0.11118785
-0.09204301 -0.07591452 -0.002915597 -0.025668278 -0.07017564 -0.017283399 -0.06761978 -0.022244027
0.11785605 0.031727873 0.05246442 -0.089735806 0.050456498 0.0559668 -0.06743329 0.09187588
-0.14881113 0.1016688 0.13998285 -0.013455585 -0.11472449 0.1073342 -0.14371614 0.07761634
0.036256324 0.113155186 0.09014055 -0.09801973 0.020227676 -0.013017953 -0.04704366 0.010933104
-0.010850098 -0.026439236 -0.056170337 0.008510503 0.09189909 -0.11171807 -0.11573735 0.051992845
-0.08779966 0.018178372 0.016678376 0.10377321 -0.13870513 -0.08052684 -0.08932585 0.105499774
-0.012538299 0.046988297 0.07214013 0.1271959 -0.014612462 -0.11672392 0.10987291 -0.05903408
-0.117845856 -0.09098209 0.023324704 -0.09804096 0.059236035 -0.037213758 0.006031776 0.061779052
-0.04941366 0.09618494 -0.1175305 -0.041803274 -0.0988742 0.026934167 0.09010601 0.044500988
0.01396582 0.069805056 0.068323694 -0.108296715 0.105619065 -0.039285243 0.08954878 -0.028834354
0.054483216 -0.018034052 -0.061640948 0.06541362 0.0574266 -0.037956223 -0.058033697 -0.06710221
0.0030594005 -0.1094325 0.009838914 -0.008326154 0.109304 0.0875367 0.058919523 -0.07729267
0.025583016 -0.055303026 -0.082547955 0.09596443 -0.10093613 0.01845538 -0.06700642 0.055621844
0.026153637 -0.018892847 -0.034419663 0.0884479 0.009247978 -0.11017986 -0.045278687 -0.07689151
0.10450841 -0.07696541 -0.07016707 0.09881549 -0.05191659 0.0056336476 -0.042813633 0.09134743
-0.004874324 0.07702511 -0.007530034 -0.039862882 -0.025632448 -0.099215426 0.03379646 0.107769124

policy_model.2.bias f4 [64]
00000000: 5f07 7dbd 7d83 4c3b 1528 d0bd 8277 f1bc
00000010: 7296 d63c 7f2c b93d 343c 2bbd 8119 003e
00000020: b6e6 283c ca6d 893d db91 843a 546f 0e3c
00000030: 1bbc 6c3c b03f c1bd 26da 99bd 20de 21bd
00000040: f20a 9a3d d1f7 aebd 79d5 d03c 607b 523d
00000050: 2df7 aa3d 5cc9 b93d d181 903d 489a 923d
00000060: b42b 053c 25da e6bd 7df1 1dbc f075 18bd
00000070: facb 2abd 6c1c 813d 6ff2 053e 404b 1c3d
00000080: 9bcb a4bd 7213 6f3c 4a3b 453a f27c 093d
00000090: 6d3a 533d 30ec 533d 3299 aebd 033a 46bd
000000a0: 8757 d5bd 489c ab3d 4ba0 56bd b842 25bc
000000b0: ad1f 08bd 0ee5 0ebc 5204 dbbd ab37 a7bd
000000c0: e36b 693c ef1c 053c c61d d0bd 70af d33c
000000d0: 38c7 2abd df97 a2bd c2b2 96bc cbf5 f73c
000000e0: 5ba7 ff3c d99b bb3a 29d6 c5bd 8fd1 d2bd
000000f0: a526 3cbd 50a4 06bc 844d 27bc eeae d03d
-0.061774608 0.0031206303 -0.10163895 -0.029475931 0.026194785 0.0904169 -0.04180546 0.12509729
0.010308912 0.06710394 0.0010114269 0.008693535 0.014449145 -0.094359756 -0.07512312 -0.039518476
0.07521619 -0.08543361 0.025492417 0.05138719 0.08347926 0.090716094 0.070560105 0.07158333
0.008128095 -0.112720765 -0.009640095 -0.03722185 -0.041698433 0.06304249 0.13080762 0.0381577
-0.08046647 0.0145920385 0.00075237884 0.033566423 0.05156939 0.051738918 -0.085253134 -0.048395168
-0.10417085 0.08379418 -0.05239896 -0.010086708 -0.033233333 -0.008721603 -0.106941834 -0.08164915
0.014246914 0.008124574 -0.10161929 0.025840491 -0.041693896 -0.07939123 -0.018395785 0.03026857
0.031207731 0.0014313414 -0.096599884 -0.102938764 -0.04593529 -0.008217886 -0.010211352 0.10189615

policy_model.4.weight f4 [1, 64]
00000000: c914 a2bd d73c 1dbd c035 073e 2fdd 9f3c
00000010: e349 a33d 7bc1 91b9 154b aa3d 6e4f 2d3d
00000020: d0d4 cbbd 96ad d63d b457 bcbc 9d42 95bd
00000030: 6b66 a83d d880 08be a045 693d 5fac 903c
00000040: 0edd fabb 871b 7abc 7ec2 2d3d 63ed 68bd
00000050: 9e44 ac3c 716b 67bd 12ac d8bb 8a6c f6bd
00000060: a238 b03d d69c 39bc d13b 2a3d 1b09 09bc
00000070: a4af bc3d bd25 db3d 7ee9 943d c8b4 70bc
00000080: 868d 04be f3ae 593d 0f13 a13d 6cb8 cabd
00000090: dabc 783c 4567 463c 9890 04be 35d1 f8bd
000000a0: 589b 05be 8d0e bebd 3a88 713d 1d26 6fbd
000000b0: 4939 6fbc 02ea 3abd 977b 88bd d926 a13d
000000c0: 45f1 2dbd b41b fc39 9220 473d 2b86 cdbd
000000d0: f9e3 ca3c 3081 d53d 3012 f53d d6de 3b3d
000000e0: 9437 813b 8891 4c3c 64f6 16bd a6af 843d
000000f0: cc89 c43d 67ae aebd 107c ef3d 92cf eabd
-0.07914121 -0.0383881 0.13204098 0.019514648 0.07973077 -0.0002780071 0.08315102 0.04231208
-0.099527 0.10482328 -0.022991039 -0.07288096 0.0822266 -0.133304 0.056951165 0.017660318
-0.0076557463 -0.015265352 0.04242181 -0.056867015 0.021028813 -0.05649895 -0.0066123093 -0.12032421
0.08604552 -0.0113288965 0.04156095 -0.008363987 0.09213188 0.107005574 0.072710976 -0.014691539
-0.12944612 0.05314536 0.07864963 -0.09898457 0.0151817445 0.012109582 -0.12945783 -0.12149278
-0.1304754 -0.09280119 0.058967806 -0.058385957 -0.01460106 -0.045633323 -0.06664198 0.07868738
-0.04246642 0.00048085826 0.048615046 -0.10035356 0.024766909 0.10425031 0.119663596 0.04586681
0.003943393 0.012485869 -0.03685607 0.06478815 0.09596595 -0.08529358 0.11693585 -0.11465372

value_model.0.weight f4 [64, 4]
00000000: 0cef 63be f6c9 e7be 86f1 a93e 225c e5be
00000010: ca8f 813e 0089 593e b0d5 d6be 8837 c23e
00000020: acf9 dd3e ecc1 b4be 646e 7f3e d669 d13e
00000030: dc23 863e b034 e9bd 54b3 92be 20fa 3f3d
00000040: d000 5ebe 60f2 4ebe f62d d0be a0ba 333d
00000050: 4033 fbbd 80a4 27be f816 dc3d 40e8 eebc
00000060: 0a54 9b3e 4072 3a3c 0c99 033e 04f4 a5be
00000070: 4282 c53e 5878 fcbd e01a 493e 0c92 253e
00000080: a0d1 8cbc 2095 cf3d 78aa f5be fabe 9a3e
00000090: 00c1 33bc 6e57 c63e 7838 4bbe 82a9 c0be
000000a0: b290 85be 3855 d03e 906a 023e 80f8 0ebd
000000b0: 6068 ae3d 962a afbe a05b 953c 3cd4 d33e
000000c0: d8c5 e1bd 30e0 673d 0058 af3d 8a01 d83e
000000d0: a626 90be 5057 6abd 1268 bf3e 5442 90be
000000e0: b40f 093e 5060 d3be f28f 98be 90c0 72bd
000000f0: 50c9 bf3e 9cff 21be 203d 293d 002c a43b
00000100: dc13 acbe d877 e43e 58b3 72be 10b6 8a3e
00000110: f467 e7be da28 dcbe 5414 62be ba26 fbbe
00000120: 424b c03e 508c 51be 5822 e7bd f000 ad3e
00000130: dc5a c63e 00c8 d639 1035 10be 36d2 a33e
00000140: 34d5 743e 88ae f33e 7ac5 f3be 78d3 86be
00000150: dc87 32be 9806 2a3e 1044 eebd 58ee eebe
00000160: 5cd1 433e 086a 173e 58bc d1bd a8cd 073e
00000170: 022b a73e 8421 4c3e 90db f33e 1866 613e
00000180: a861 10be e434 fc3e 66e6 c03e a07d 923c
00000190: 004e c7be 36a7 cfbe 5012 2fbe eef6 dfbe
000001a0: 20a4 c0bc 10a3 dcbe 88fc 1fbe 2cdb 853e
000001b0: 481d d9bd 50b3 a63d 0cc2 af3e d458 df3e
000001c0: 603d 663d 4058 75bd 90a0 bf3e f4fb 273e
000001d0: cc8a 783e 408e 953e a495 1fbe 8ca5 3f3e
000001e0: 509b 283d c0d7 53bd e29d f2be 74fd abbe
000001f0: 384e 1abe f48d acbe 68f8 efbd 047c c13e
00000200: 24df a0be 34dc a8be 20d5 50be c083 80bd
00000210: 90d9 57be d40a ef3e d4ac 5abe 78c9 edbe
00000220: a855 623e 9cf2 53be c4fd 1f3e 0cb0 7c3e
00000230: 40ee c1be 347d 0cbe 1296 a3be 2420 1bbe
00000240: 3cc5 bbbe 8a41 b6be 2a81 ddbe 3814 283e
00000250: 74d8 59be 0063 a4be f00e 7dbd 7c56 14be
00000260: f0e5 b23e 30b0 33bd 8cce b1be f2ce c4be
00000270: ea29 bd3e 0c80 493e e00c f1be c87c 8cbe
00000280: 4245 ed3e b8a9 833e 8033 70bd f0f5 1d3d
00000290: bc12 20be 9693 92be c0a3 50bc 141a a2be
000002a0: 7c9a 2ebe ca00 c43e fa8b ef3e cc45 e9be
000002b0: 2cb1 723e d0b5 2cbd 00fb a0bb 48dd 5c3e
000002c0: 14b5 0fbe c049 233d 5c00 843e 941f d8be
000002d0: 18ef c43e 82ff f4be 7078 abbe be18 873e
000002e0: 8c49 e7be c0ae 96bd 6481 5cbe 0851 103e
000002f0: 80f1 53be 3eaa 8cbe f20f e53e 58eb 37be
00000300: 60a6 893e 1860 70be 58e0 443e dac4 f4be
00000310: 0084 393a c6fb f0be bc51 eb3e a494 163e
00000320: 38ea e03e b4fa 5c3e e6ab f63e 50ac 4c3d
00000330: e844 f43d f0f8 f8bd 1225 f63e c680 e13e
00000340: cc7e 46be 1872 38be 9009 8d3e e02d 513d
00000350: f83d ba3e 7c30 643e c452 cbbe 549c debe
00000360: b48e 303e a050 ecbc 040f 653e 74c0 4dbe
00000370: 58d0 fabd 16a1 b1be ac4a 07be 0004 5fba
00000380: 3c9a 5cbe 9440 b83e 5cb6 763e 846c 3dbe
00000390: a05f 083d cc8d 173e 5e49 cabe 9813 fcbd
000003a0: bc1a d5be ba64 dabe be98 b93e 4006 2cbc
000003b0: c8d1 a2be 1008 343d 68c9 543e a8d9 bcbd
000003c0: 342d ebbe 56af b03e 4821 92be 44f7 27be
000003d0: 22bc 973e 905e 723d beed 98be 70d8 733e
000003e0: 66fb af3e c231 873e 32bc cf3e 509b 033e
000003f0: b4ce 9d3e 1e5b e53e 1ec7 a23e 4085 0a3c
-0.22259158 -0.4527127 0.3319208 -0.44796854 0.25305015 0.21243668 -0.41959906 0.37932992
0.43354547 -0.353042 0.24944454 0.4090106 0.26199234 -0.113870025 -0.28652442 0.046869397
-0.21679997 -0.20209646 -0.40660065 0.04387915 -0.122656345 -0.16371346 0.107465684 -0.02916348
0.30337554 0.011379778 0.12851351 -0.32412732 0.3857594 -0.12327641 0.19639158 0.16168994
-0.0171898 0.10135865 -0.4798162 0.3022383 -0.010971308 0.3873858 -0.1984576 -0.37629324
-0.26086956 0.40690017 0.12735963 -0.034904957 0.08516002 -0.34212178 0.018232167 0.4137286
-0.11024064 0.056610286 0.085617065 0.42188674 -0.28154486 -0.057212174 0.37384087 -0.28175604
0.13384897 -0.41284418 -0.29797322 -0.059265673 0.37458277 -0.15820163 0.04131806 0.005010128
-0.33608902 0.44622684 -0.23701227 0.27092028 -0.45196497 -0.42999917 -0.22078067 -0.49052984
0.37557417 -0.20463681 -0.112858474 0.33789778 0.38741195 0.00040966272 -0.14082742 0.31996316
0.23909456 0.47594094 -0.476116 -0.26333213 -0.17434639 0.16604078 -0.11634076 -0.46666217
0.19122833 0.14786541 -0.10241002 0.13262045 0.3265 0.1993466 0.4762845 0.22011602
-0.14099753 0.49259102 0.3767578 0.017882168 -0.38926697 -0.4055726 -0.1709683 -0.4374308
-0.02351576 -0.43093157 -0.15623677 0.26143777 -0.10601288 0.0813967 0.34327734 0.43622458
0.056210876 -0.059898615 0.37427187 0.16404706 0.24271697 0.2921009 -0.15584427 0.18715495
0.041163743 -0.051719427 -0.4738608 -0.33591807 -0.150689 -0.33702052 -0.117173016 0.3778993
-0.31420243 -0.32980502 -0.203938 -0.06275129 -0.21079087 0.4668795 -0.21354991 -0.4644277
0.22102988 -0.20698017 0.15624148 0.24676532 -0.37877083 -0.13719636 -0.31950432 -0.1514898
-0.36673915 -0.35596877 -0.43262607 0.16413963 -0.21273977 -0.3210678 -0.061781824 -0.14486116
0.34941053 -0.043869197 -0.34727895 -0.38439137 0.3694604 0.19677752 -0.47080135 -0.2743895
0.46341902 0.25715423 -0.058642864 0.038564622 -0.15632147 -0.28628224 -0.012734354 -0.3166052
-0.17051119 0.38281852 0.4678648 -0.45561063 0.23700398 -0.042165577 -0.004912734 0.21568787
-0.1403392 0.039865255 0.25781524 -0.42211592 0.38463664 -0.47851187 -0.33490324 0.26386064
-0.451733 -0.0735755 -0.21533734 0.14093411 -0.20697594 -0.27473634 0.44738728 -0.1796087
0.26884747 -0.23474157 0.19226205 -0.47806436 0.00070768595 -0.47067088 0.45960796 0.1470514
0.43928695 0.2158001 0.48178023 0.049969018 0.11927205 -0.12156856 0.48075157 0.4404356
-0.19384307 -0.18012273 0.27546358 0.05106914 0.36375403 0.2228412 -0.39711583 -0.43478644
0.17241937 -0.028847039 0.2236901 -0.20092946 -0.1224677 -0.3469321 -0.13212079 -0.0008507371
-0.2154321 0.3598677 0.24093002 -0.18498427 0.03329432 0.14800185 -0.395091 -0.12308425
-0.4162196 -0.42654973 0.36249346 -0.010499537 -0.31800675 0.043953 0.20779955 -0.09221202
-0.45932925 0.3450877 -0.28541017 -0.16402918 0.2963572 0.059172213 -0.29868883 0.23813033
0.3437149 0.2640515 0.4057327 0.12852216 0.30821764 0.4479608 0.3179254 0.008454621

value_model.0.bias f4 [64]
00000000: 60da a0bd 90d8 7d3d 0065 993c 7485 a63e
00000010: 082c 803e c2e7 b73e b0a4 af3d 44db 933e
00000020: 92a3 843e e071 d93e c013 4c3c 4078 7c3d
00000030: a01d a0bd acd4 bdbe 0868 13be 541a 903e
00000040: 601b 863c d83a f83e 7238 c4be 6a13 90be
00000050: f0da b5bd c077 bbbd 605c f4be 60f8 95be
00000060: 3479 6dbe ac34 61be acb7 e73e 50b9 f13d
00000070: b06c 0fbd c051 663e 5a13 b7be 6409 983e
00000080: f6c5 a1be a881 633e 1067 2a3d 6221 cb3e
00000090: 4c26 783e 58f0 1a3e 1cea fbbe 205f 0f3e
000000a0: c45e 44be 8e2c debe 00c7 053e daa7 aa3e
000000b0: 9c40 b7be a0e2 f6bd c0de 9d3d 7086 0e3d
000000c0: b095 25bd 7850 073e 12a6 a8be 80ae f53e
000000d0: b4f3 6e3e 8054 36be f6ee c6be 58d2 b13d
000000e0: 8473 483e bc20 2abe a8d1 d73d da8f a0be
000000f0: a81e 0f3e 963c fd3e da15 bcbe 805e c2bb
-0.07854152 0.06197411 0.018724918 0.32523692 0.25033593 0.35919005 0.085763335 0.28878224
0.25906044 0.42469692 0.012455881 0.061638117 -0.078181505 -0.37076318 -0.14395154 0.28145087
0.016370475 0.48482394 -0.38324314 -0.28139812 -0.0887965 -0.091537 -0.47726727 -0.29291058
-0.23190767 -0.21992749 0.45257318 0.11802924 -0.03501576 0.22492123 -0.35756952 0.29694664
-0.31596345 0.22217429 0.041602194 0.39673907 0.24233359 0.15130746 -0.4920205 0.14001131
-0.19176775 -0.43393368 0.13064194 0.33331186 -0.3579148 -0.12054944 0.07708502 0.03479618
-0.040425956 0.1321429 -0.32939202 0.47984695 0.23335153 -0.17805672 -0.38854188 0.08682698
0.19575316 -0.1661405 0.10538036 -0.3135975 0.13976538 0.49460286 -0.3673542 -0.0059316754

value_model.2.weight f4 [64, 64]
00000000: 68ff 18bd d239 d43d 4ebb eabd 2aff df3d
00000010: 5c01 7abd 8070 2abd 1ee0 fdbd 087a 08bd
00000020: 00a5 4bbc 1222 b4bd 3e19 b53d 4e29 d13d
00000030: 5854 dd3d 80da ab3b f4f2 753d 1057 473d
00000040: 4a50 b83d 30da b43d d0a2 8ebd 0080 e2b6
00000050: a605 dfbd 3cba 07bd fc07 4dbd bcd7 0fbd
00000060: a0c3 853d 8478 b6bd 5427 da3d 009a 373d
00000070: 02a1 9c3d c6ee 82bd f499 ff3d 2049 123c
00000080: 06a2 d33d 6e93 cf3d 4472 6f3d ccce 78bd
00000090: 646a 9ebd 30e6 33bd 1cef 263d 6e13 b33d
000000a0: ac66 cebd f209 c5bd eefd cb3d 8630 cebd
000000b0: 3c55 2fbd 34e1 41bd 6cf2 b53d 6805 72bd
000000c0: e412 963d 0a6b ee3d ca4e 913d eaa2 873d
000000d0: 4c55 38bd 0671 913d b277 c23d 06ca e93d
000000e0: 901f 123c 1aee d1bd b4df 4f3d 3a3e c83d
000000f0: 18c6 863d c890 b7bc 70e1 cf3d 00ee fabc
00000100: 907b 41bc e0b0 723d a8ef e1bc a069 c03b
00000110: 2e45 b33d 3c15 6f3d 48c9 0dbd e012 e8bd
00000120: 58d7 95bc a845 2b3d 8e07 ecbd acbc 6b3d
00000130: a01b c93c b05d a0bc ce20 de3d 3e1f 93bd
00000140: e04f 55bc 582e 5b3d 88b6 d53d 488b bebc
00000150: 1c87 d4bd 9838 95bd 247b 90bd 00de babb
00000160: e004 f23d 10c1 eb3d 341f 663d 3423 41bd
00000170: b06c 66bc a03b b5bc 7456 403d 3c0b 02bd
00000180: d4ef 2bbd e0c1 fa3d 002b 8bbc 989f df3d
00000190: b0fb 81bd c6ff e3bd 80dc 25bb 3ebd b1bd
000001a0: 5eba f3bd 70cc bcbc 4c17 d9bd d021 803d
000001b0: d0bd b03c 702f 65bd f42f 8bbd f0a0 a9bd
000001c0: fe5b d53d ecc5 2c3d d8f4 983c d0df 16bc
000001d0: 303f ca3d 548e 1a3d d0bb 4cbc 9003 6b3c
000001e0: aca8 0bbd e094 1fbd 50f5 82bd 2000 c4bc
000001f0: b014 dbbd 3cea 433d a0cb 57bc f6fc b03d
00000200: ae3f 9f3d 62c5 f23d 4068 b53d f0b7 bdbd
00000210: e455 b33d 70ef d93c be4a 8ebd 24a2 73bd
00000220: 822a 8dbd ea76 a0bd 9089 4abd 8aed c1bd
00000230: fcb6 a53d fe20 ae3d c4cc 723d 4865 743d
00000240: 2e0b 993d a087 fbbd 08df 873c b8b5 cebd
00000250: 40c6 423b 785a 983c 109e ab3c a40b 5bbd
00000260: aced b43d 2e88 f4bd eae4 983d 487b fc3c
00000270: 32ca fcbd 40a5 92bc bc73 043d 8668 d63d
00000280: a8e6 9abc c269 abbd 66b5 8cbd 406b ccbd
00000290: 803b 853c 6207 f03d 405a 0dbb d07c 843d
000002a0: 7021 653c c861 a33c 402d 193c 2021 d03d
000002b0: 7edb 813d 380f 0d3d f85d c3bc 94be 2fbd
000002c0: b62a df3d 040c dabd e0a6 6c3d 96e7 9f3d
000002d0: 3ef0 abbd 80af f6bd f243 d83d 80e5 1f3c
000002e0: 58ea 8d3c 041d b7bd 98ce 363d e6e1 a43d
000002f0: 28ba 0abd 0472 bbbd 806a ab3b 545b 0e3d
00000300: fe9e bd3d 5c85 45bd 701a 3cbd f82c 363d
00000310: 400b 183d 50b9 adbc 9041 c8bd 5050 47bc
00000320: c8fc e6bc c8b5 42bd e4c0 38bd 60f0 89bc
00000330: fa49 d3bd 20ea fc3b ecfe 183d 30de 71bd
00000340: 2858 943c 8cbb c7bd 0837 35bd 2010 c5bc
00000350: d83a ef3c 1452 fabd fa2e ed3d 105a bfbc
00000360: 308d f53c 540e 71bd 0890 e93d d0aa aebc
00000370: 7a40 b73d 50e7 05bc 48e7 953c 70f8 313c
00000380: 64b5 e83d 169e ac3d 7c95 c3bd e8c9 8cbd
00000390: bcce c3bd b8da 763d 00be 6aba 0c28 f63d
000003a0: 2041 ddbd c8a9 f5bd 089d e8bc 8cf9 75bd
000003b0: 9cf0 4bbd 84d9 983d 8c2a fe3d ec7a d83d
000003c0: 2644 a4bd 241d 863d bc1d 033d 6645 b2bd
000003d0: 7c30 1c3d 066b c8bd 689c 93bd f88c dcbd
000003e0: 8ce5 9a3d 5a09 f83d 0485 fc3d 2017 15bd
000003f0: 982d 7dbd d496 a5bd b871 0c3d e86d c23c
-0.03735295 0.10362591 -0.11461507 0.109373406 -0.061036453 -0.041611195 -0.123962626 -0.033319503
-0.012429476 -0.08795561 0.08842705 0.10212956 0.10807103 0.005244553 0.06004615 0.048667014
0.08999689 0.088306785 -0.06964648 -6.750226e-06 -0.10889749 -0.03313659 -0.050056443 -0.03511785
0.06531453 -0.08909705 0.106520325 0.0448246 0.07647897 -0.06393199 0.12480536 0.008928567
0.10333638 0.10135542 0.05845858 -0.060744092 -0.07735136 -0.043920696 0.040755376 0.0874394
-0.10078177 -0.096210375 0.099605426 -0.10067849 -0.042805895 -0.04733391 0.08884129 -0.059087187
0.07327822 0.1164151 0.07095106 0.0662287 -0.04500322 0.07101636 0.09495486 0.11415486
0.008918658 -0.102504924 0.05075045 0.09777494 0.06580752 -0.022407904 0.10150421 -0.030631065
-0.011809245 0.059250712 -0.027580097 0.0058719665 0.08753429 0.05836986 -0.034615785 -0.11331725
-0.01829116 0.041814476 -0.115248784 0.05755298 0.024549305 -0.019575924 0.10846101 -0.07183693
-0.013019532 0.053510994 0.10435206 -0.023259774 -0.103773326 -0.07286185 -0.07054737 -0.005702734
0.11817336 0.11511433 0.0561821 -0.047152713 -0.014063999 -0.022123158 0.046957448 -0.031748995
-0.041976765 0.1224401 -0.016988277 0.10919112 -0.06346834 -0.11132769 -0.002530843 -0.08678673
-0.11900781 -0.023046702 -0.10600147 0.06256449 0.021574885 -0.055953443 -0.06796256 -0.082826495
0.10417937 0.04218094 0.018671438 -0.0092086345 0.09875333 0.03773339 -0.01249595 0.014344111
-0.034096405 -0.038960338 -0.06394446 -0.02392584 -0.10697305 0.047830805 -0.013171107 0.086419985
0.07775818 0.11854054 0.08857775 -0.09263599 0.08756617 0.02660343 -0.0694785 -0.0594808
-0.06892873 -0.07835181 -0.049447596 -0.09469135 0.08091542 0.085023865 0.05927731 0.0596669
0.074728355 -0.12281728 0.016585842 -0.10093254 0.0029720217 0.018597826 0.020949394 -0.0534779
0.08834395 -0.11940037 0.07465537 0.030820504 -0.12343253 -0.017901063 0.032336935 0.10469155
-0.018908814 -0.08369781 -0.068705365 -0.09981394 0.016263723 0.11720158 -0.0021568686 0.064691186
0.013985023 0.019944087 0.009349167 0.10162568 0.06340693 0.03443834 -0.023848519 -0.04290636
0.10896818 -0.10646823 0.057776332 0.078078434 -0.08395432 -0.12045193 0.105598345 0.009759307
0.017323658 -0.08941081 0.044630617 0.08050899 -0.03386894 -0.09152606 0.0052312016 0.034755066
0.09258841 -0.048222885 -0.04592365 0.04447648 0.037120104 -0.021206528 -0.0977813 -0.012165144
-0.028196707 -0.04753664 -0.04510583 -0.016838253 -0.10316844 0.0077183396 0.037352487 -0.059049785
0.018108442 -0.097525686 -0.044241935 -0.02405554 0.029202864 -0.122226864 0.11581226 -0.023358375
0.02997455 -0.058851555 0.11404425 -0.021321684 0.08947845 -0.008172825 0.01829876 0.010862455
0.113627225 0.0842859 -0.09549996 -0.06874448 -0.09560916 0.06026718 -0.0008954704 0.12019357
-0.10803437 -0.11995274 -0.02839519 -0.06005244 -0.04979001 0.07463363 0.12410459 0.105703205
-0.08020811 0.06548527 0.03201078 -0.08704643 0.038132176 -0.09786038 -0.072075665 -0.10769075
0.07563314 0.12111159 0.12330058 -0.036399007 -0.06181106 -0.08085409 0.03428814 0.023734048

value_model.2.bias f4 [64]
00000000: d41e 4c3d 4c08 9c3d 1417 383d 9049 71bc
00000010: 7465 76bd 4a6b e0bd 96b2 8ebd a885 d9bc
00000020: 2af2 ae3d 4e1e f6bd 72d7 b13d f685 dbbd
00000030: 0035 403b 8841 48bd e85a 8fbd 36c8 f33d
00000040: 5c8b 4f3d e8ff ce3d 40e5 6dbb 705a 973d
00000050: 3491 a53d 6c66 0fbd 7c9d 103d 4432 7f3d
00000060: cc31 0dbd 4c1f 4a3d 00d8 9abd 96a6 b4bd
00000070: e005 ebbc 58f3 26bd 3e4f 8b3d 2aa0 8f3d
00000080: c0c9 6abc 562e c43d 08ef bdbc aa82 d53d
00000090: 1006 4abd ec34 f43d 3820 a7bc e0cb b93b
000000a0: 4437 e3bd 3c0a 263d f85d 56bd d4f3 a83d
000000b0: 20e5 073d 001f 4ebd 0c70 85bd 9889 a83d
000000c0: 8844 cc3c 6a70 e23d a08b dabb f8d2 313d
000000d0: 289f eb3d 00a2 52bd 3c06 333d 983f 5ebd
000000e0: b29b e33d 1254 fd3d 549b 0abd 943e 15bd
000000f0: e03b c03d c874 bcbc fc7a ca3d 94a8 f63d
0.049834087 0.0761877 0.044943884 -0.014727011 -0.060155347 -0.10957964 -0.06967656 -0.02655299
0.08542283 -0.12017499 0.08683671 -0.107189104 0.0029328465 -0.04889062 -0.06999761 0.119034216
0.050670013 0.10107404 -0.0036299974 0.073902965 0.08084336 -0.035009786 0.03530644 0.062303796
-0.034471318 0.049346253 -0.0756073 -0.08820836 -0.028689325 -0.040759414 0.068022236 0.07012971
-0.0143303275 0.095791504 -0.023185268 0.10425313 -0.049322188 0.119241565 -0.020401105 0.0056700557
-0.110945255 0.040537104 -0.05233571 0.082496315 0.033177495 -0.050322533 -0.06515512 0.08229369
0.024935022 0.110565975 -0.0066694766 0.043414086 0.11504966 -0.051424026 0.043707117 -0.054259866
0.11113681 0.12369551 -0.03383954 -0.036436632 0.0938642 -0.023004904 0.09886739 0.120438725

value_model.4.weight f4 [1, 64]
00000000: 0887 083d 62a6 dfbd e8b2 a73d 1202 df3d
00000010: 702b 15bd fc5c ebbd 264c d73d 2c55 dd3d
00000020: 048c a73d 5472 0a3d 4634 8c3d ccce 27bd
00000030: 00a6 e83a 5c29 193d a472 69bd 5e00 f03d
00000040: f6f3 ed3d bedb 81bd e814 ef3d f0e5 4f3c
00000050: 5a23 b93d 2edb c43d 7c6d b53d cc88 5f3d
00000060: 16c4 fc3d c492 bf3d 929d a4bd 18e8 4c3d
00000070: b8f0 dcbd e815 9a3d 88a7 37bd b2cf 83bd
00000080: 401d de3b e4a1 31bd 5650 f63d a06f 2cbc
00000090: 40ab 843d 00ce 443a ae5d e8bd 5025 183d
000000a0: 48ec ae3d 9063 223d e811 c7bd 3c1d e33d
000000b0: f6c3 82bd fabc bdbd e0fa 6abd 583f 0bbd
000000c0: 80b7 5bbb bcb6 973d 4a38 abbd c0ab 953c
000000d0: 4889 a2bd daf8 90bd 98f4 813d e006 71bc
000000e0: 54cf cc3d a83c e63c 6881 fbbd a04f 633c
000000f0: 482a dfbc 909e 49bd f86a 213d 4c90 2b3d
0.0333319 -0.10920407 0.081884205 0.10889067 -0.03641838 -0.11492345 0.10512571 0.10807261
0.08181003 0.033800438 0.06845908 -0.0409687 0.0017749667 0.03739296 -0.056994095 0.1171882
0.116187975 -0.063407406 0.116739094 0.012689099 0.09039946 0.09612118 0.08858773 0.05457382
0.12342088 0.09354165 -0.08037867 0.05002603 -0.10788101 0.075237095 -0.044837505 -0.06436099
0.006778389 -0.04336728 0.120270416 -0.01052466 0.06477976 0.0007507503 -0.11345993 0.03714496
0.08541161 0.03964573 -0.09720212 0.110895604 -0.06385033 -0.0926456 -0.05736816 -0.033995956
-0.0033526123 0.07407901 -0.08360346 0.018270373 -0.079363406 -0.07078715 0.06345481 -0.014711112
0.10000482 0.028105095 -0.12280542 0.013873965 -0.027241841 -0.049223483 0.039408654 0.04188566
