scripts/practical_rl_models/model_1500000.pth (torch, 41301 bytes, 10 tensors)

policy_model.0.weight f4 [64, 4]
0.23593946 -0.20372583 0.15897617 -0.36745128 0.098671824 -0.057176042 -0.4215859 0.1932799
-0.0957217 0.21603395 -0.49023554 0.28580886 0.00763171 -0.14026764 0.17334774 -0.11543683
0.3633559 0.43740404 -0.013398817 -0.16593504 -0.22109047 -0.3259562 0.104083195 0.2703215
0.37637398 0.27285233 0.031417824 -0.19828612 0.48176298 -0.45161757 0.112357125 0.06656592
0.07655515 -0.11462058 0.14926226 0.3559179 -0.13994622 0.4452914 -0.4639658 -0.44653875
-0.30081016 -0.042836975 0.36728126 0.06209053 -0.102539144 -0.15552507 0.13656703 -0.1864052
0.20627415 0.13569519 0.4697305 0.23070705 -0.4945695 0.08649905 -0.28726605 -0.24436012
-0.3540576 -0.31061473 -0.095436394 -0.114222705 -0.32248044 0.24336477 -0.4836168 -0.41561478
0.21964626 0.4760472 -0.13083474 -0.38240463 0.22573678 0.06985469 0.2745789 -0.19734888
-0.34476826 -0.41620088 -0.25596702 -0.36873788 -0.088672034 -0.012106727 -0.36028475 0.037928343
-0.3208677 0.076946385 -0.38410655 0.2292898 -0.26444262 -0.35373387 0.25094584 0.09476908
0.3755044 0.037654832 -0.11978941 0.47726998 -0.46440908 0.16493733 0.22752796 -0.3642564
-0.25831145 0.13197954 0.33638602 0.04109105 0.01668634 -0.108580515 -0.17833564 -0.15533717
0.05820421 -0.08458633 0.13840309 0.2715158 0.08384759 -0.44916576 0.10299959 0.09178732
-0.10696947 0.008087619 -0.45949292 -0.21416534 -0.42546433 0.076467775 -0.09833202 0.059726886
-0.21942715 0.34637168 -0.06445781 -0.22696447 0.09555224 -0.049028747 0.4203747 0.2630078
0.094744466 -0.11174146 -0.15558934 -0.10248881 -0.08783331 0.4535388 0.27050686 -0.17135341
0.45446923 0.47141016 0.48469952 0.11270151 -0.21916354 0.3627358 0.4976629 -0.1194815
0.17507792 0.18175007 -0.075997636 0.2949609 -0.32267058 -0.2303847 0.12065255 0.052029766
-0.03728043 0.2577267 -0.29399204 -0.38491282 -0.4046185 -0.15298371 0.2469244 0.48955765
0.067590885 0.44995317 -0.31660005 0.46296346 0.31444445 0.35764587 0.37728435 -0.16658139
-0.4454943 -0.2017475 0.4376489 -0.2075822 0.41006333 -0.04870513 0.07609858 -0.44401553
0.34130716 -0.20579353 -0.14253756 -0.23614764 -0.18703389 0.26803228 -0.3403415 -0.43930307
0.23960255 -0.15111908 -0.35635793 -0.46943635 0.32239428 0.4200571 0.3200053 0.0028189404
-0.3982581 -0.102806486 -0.43806157 0.42308387 -0.28114918 0.34705448 -0.07613651 0.11226744
0.17424516 0.34131724 -0.38364464 0.101249754 -0.38830203 -0.19480485 0.29302564 0.1594038
0.45003846 0.37910986 -0.24290822 -0.1559272 0.39859813 0.0158773 -0.35707325 0.17853834
0.24379177 -0.33206183 -0.0022125544 -0.32275808 -0.48131698 -0.23711404 -0.16650066 -0.43916005
-0.3740523 -0.4012875 -0.44047272 0.17668748 0.16827697 -0.29686078 -0.4985222 -0.114345
0.47720978 -0.35570717 0.091226116 -0.07574593 0.26065883 0.31539774 -0.37477165 0.028476095
-0.26300207 0.431278 0.42429397 0.0060858056 0.3490215 0.49685818 -0.28060392 0.15538068
0.24388957 0.22838335 0.2168615 -0.036288157 0.28410473 0.1826743 -0.024110334 -0.39327198
00000000: 1d9a 713e 819d 50be a6ca 223e 9322 bcbe
00000010: 7414 ca3d 6d31 6abd 1bda d7be 2beb 453e
00000020: bd09 c4bd 0138 5d3e 2700 fbbe 8a55 923e
00000030: 6c13 fa3b 52a2 0fbe 1282 313e 256a ecbd
00000040: c909 ba3e 6cf3 df3e b686 5bbc e0ea 29be
00000050: 8a65 62be bbe3 a6be 9229 d53d 9467 8a3e
00000060: 17b4 c03e 4db3 8b3e faaf 003d 840b 4bbe
00000070: a3a9 f63e 6b3a e7be 7e1b e63d b753 883d
00000080: f2c8 9c3d 32be eabd 35d8 183e df3a b63e
00000090: 104e 0fbe 3cfd e33e ed8c edbe baa0 e4be
000000a0: ca03 9abe d375 2fbd 4a0c bc3e a452 7e3d
000000b0: 0b00 d2bd f741 1fbe 3ad8 0b3e 01e1 3ebe
000000c0: 8839 533e aef3 0a3e 8480 f03e 783e 6c3e
000000d0: 3738 fdbe 6a26 b13d 8914 93be 8a39 7abe
000000e0: 0a47 b5be e508 9fbe 2874 c3bd 98ed e9bd
000000f0: 281c a5be 9d34 793e 9f9c f7be 76cb d4be
00000100: f3ea 603e 75bc f33e 8bf9 05be 8aca c3be
00000110: 8b27 673e fa0f 8f3d 9b95 8c3e d315 4abe
00000120: 7785 b0be 4818 d5be 1c0e 83be 36cb bcbe
00000130: af99 b5bd 4b5b 46bc 3e77 b8be c05a 1b3d
00000140: c548 a4be 1196 9d3d 9da9 c4be f2ca 6a3e
00000150: 0665 87be 9b1c b5be f97b 803e 4b16 c23d
00000160: 1d42 c03e f43b 1a3d 2654 f5bd bb5c f43e
00000170: 07c7 edbe 55e5 283e 17fd 683e d17f babe
00000180: 6641 84be a525 073e ca3a ac3e 174f 283d
00000190: cbb1 883c 765f debd 9e9d 36be b510 1fbe
000001a0: 8a67 6e3d 993b adbd 8ab9 0d3e 1e04 8b3e
000001b0: 49b8 ab3d 0ef9 e5be 73f1 d23d fefa bb3d
000001c0: cf12 dbbd ef81 043c a842 ebbe 294e 5bbe
000001d0: 76d6 d9be 239b 9c3d 4c62 c9bd 2ea4 743d
000001e0: 83b1 60be a157 b13e 7502 84bd 6069 68be
000001f0: e5b0 c33d 5ed2 48bd 5a3b d73e f5a8 863e
00000200: 6309 c23d b5d8 e4bd d052 1fbe a7e5 d1bd
00000210: f3e1 b3bd 3d36 e83e e07f 8a3e 4577 2fbe
00000220: 31b0 e83e ac5c f13e 892a f83e 0dd0 e63d
00000230: 686c 60be 82b8 b93e accd fe3e b7b2 f4bd
00000240: a047 333e b11c 3a3e a6a4 9bbd 1d05 973e
00000250: 1435 a5be f7e9 6bbe af18 f73d 2a1d 553d
00000260: 5db3 18bd c1f4 833e 2086 96be 4b13 c5be
00000270: 282a cfbe c3a7 1cbe c0d9 7c3e 4da7 fa3e
00000280: 176d 8a3d 4360 e63e 6719 a2be 8c09 ed3e
00000290: ddfe a03e 5c1d b73e 6a2b c13e 5094 2abe
000002a0: d417 e4be e696 4ebe 8413 e03e 6e90 54be
000002b0: d2f3 d13e 087f 47bd 93d9 9b3d 0156 e3be
000002c0: d0bf ae3e 8abb 52be 5ef5 11be b0d0 71be
000002d0: d085 3fbe 873b 893e 3e41 aebe 55ec e0be
000002e0: 5f5a 753e f6be 1abe 8c74 b6be f659 f0be
000002f0: dd10 a53e b911 d73e bcd7 a33e f9bd 383b
00000300: 7ce8 cbbe 358c d2bd 9b49 e0be 739e d83e
00000310: c9f2 8fbe 20b1 b13e 75ed 9bbd 79ec e53d
00000320: 536d 323e 22c1 ae3e 126d c4be 085c cf3d
00000330: 86cf c6be ec7a 47be 7507 963e c03a 233e
00000340: 716b e63e b01a c23e efbc 78be 61ab 1fbe
00000350: 0e15 cc3e 1d11 823c 4ed2 b6be c1d2 363e
00000360: 8da4 793e 0204 aabe 8100 11bb 8c40 a5be
00000370: 2e6f f6be 06ce 72be 267f 2abe 96d9 e0be
00000380: c883 bfbe 8e75 cdbe a485 e1be 90ed 343e
00000390: cc50 2c3e 23fe 97be 4d3e ffbe b62d eabd
000003a0: d754 f43e 401f b6be c2d4 ba3d af20 9bbd
000003b0: 1375 853e d07b a13e 12e2 bfbe b346 e93c
000003c0: 35a8 86be 78d0 dc3e 0f3d d93e 706b c73b
000003d0: f2b2 b23e 3264 fe3e 51ab 8fbe 1d1c 1f3e
000003e0: 30be 793e 53dd 693e f110 5e3e e4a2 14bd
000003f0: 2d76 913e f90e 3b3e 0983 c5bc f25a c9be

policy_model.0.bias f4 [64]
-0.46749422 0.116837844 0.46974435 -0.30094647 0.42578703 -0.11503185 -0.18446316 -0.38092646
-0.21400549 0.46452823 -0.42029166 -0.0064642117 -0.17938489 -0.4704498 0.3010665 0.4967959
0.036585834 -0.22708495 -0.17909853 -0.40631306 -0.31303605 -0.27277598 0.38571766 -0.2722925
0.341277 -0.45468545 0.45970532 -0.27917844 -0.43976757 0.11169753 -0.34513056 -0.06736035
0.012790979 0.03107104 0.11365929 0.34553137 0.024968732 0.24913433 -0.037673507 0.2939526
0.35877192 0.09374918 -0.112157434 0.054795694 0.48863876 0.35412565 -0.08904826 0.014139915
-0.44162765 -0.19762824 0.43334442 -0.051380675 0.07785398 0.16821092 0.1832136 0.3185896
-0.49711385 0.32540336 0.18563491 -0.4306932 -0.25108296 0.3080746 0.4422894 0.34381577
00000000: 675b efbe ae48 ef3d 5582 f03e a815 9abe
00000010: c200 da3e d295 ebbd e9e3 3cbe cb08 c3be
00000020: 4124 5bbe a5d6 ed3e 7830 d7be bdd1 d3bb
00000030: acb0 37be ccde f0be 6325 9a3e 085c fe3e
00000040: 07db 153d f588 68be 9b65 37be 4408 d0be
00000050: 4346 a0be 4ba9 8bbe c97c c53e ec69 8bbe
00000060: dcbb ae3e 88cc e8be 7f5e eb3e 7af0 8ebe
00000070: 3729 e1be adc1 e43d f4b4 b0be 39f4 89bd
00000080: 4191 513c b288 fe3c 34c6 e83d 7de9 b03e
00000090: 3a8b cc3c 121d 7f3e 894f 1abd f580 963e
000000a0: f4b0 b73e 92ff bf3d ccb2 e5bd 7371 603d
000000b0: dc2e fa3e f54f b53e ef5e b6bd 1aab 673c
000000c0: 051d e2be 0f5f 4abe 52df dd3e 8b74 52bd
000000d0: e871 9f3d 7c3f 2c3e 599c 3b3e 2d1e a33e
000000e0: b585 febe 459b a63e 1417 3e3e d283 dcbe
000000f0: f28d 80be f4bb 9d3e c273 e23e 9f08 b03e

policy_model.2.weight f4 [64, 64]
-0.041298464 0.117748246 -0.016168097 -0.01622183 0.004392412 0.030708393 0.11325672 0.0651452
-0.013480113 0.022470666 0.09796738 -0.06889013 0.040613852 -0.07753791 0.102034695 -0.056185134
0.043456286 0.07104494 -0.017928157 -0.011653593 -0.073290415 -0.07696163 -0.11510067 -0.026444936
0.01785393 -0.11928443 0.024152733 -0.10506807 -0.09838186 0.010852702 -0.034703147 -0.12881793
-0.064527385 -0.06534947 -0.041189663 -0.05758206 -0.11118278 -0.004680828 0.057149302 0.11891129
-0.041462194 -0.0050164578 -0.11568887 -0.099773765 0.10480062 0.115131766 0.029186223 0.02363017
0.030912528 -0.02945895 0.060413107 0.012172888 0.091876045 0.10610512 0.08037438 -0.049173225
0.09806756 0.022231473 0.10714048 0.11742171 -0.07640613 -0.08371172 0.021758351 0.12552069
0.055185735 0.069390826 -0.036986947 -0.017845934 0.0490544 -0.11258949 0.103372 0.09898151
0.08277889 -0.00527376 0.06950384 0.08642742 0.09926438 0.0016678742 0.08314391 -0.050125416
-0.042664193 0.008959318 -0.04827667 -0.042293645 0.083146796 0.021078916 0.038597595 -0.072137386
-0.04144126 -0.021944514 -0.032548573 -0.081326135 -0.018022971 -0.043424137 -0.08381783 0.042161267
-0.09638836 0.12024041 0.050542615 0.11711573 -0.016529668 0.08884293 0.094399795 -0.0050737625
0.09887966 0.055252712 0.06982995 -0.113898076 -0.023453826 0.1127034 -0.033033602 0.07672369
0.03687154 -0.00034704898 -0.043654334 0.101699345 -0.04821017 0.0331754 -0.052183762 0.04554778
-0.12363043 0.0963799 0.09404967 -0.1226153 -0.12794968 -0.019539881 0.015324704 -0.029206032
0.104916364 -0.026154691 -0.118059814 -0.08344274 -0.0018773691 -0.098899275 0.014923208 0.020161672
0.01199285 -0.038820162 0.04958519 0.089778244 0.105457366 -0.10214646 0.08538674 0.046016466
-0.00075742934 -0.1006076 -0.055523455 -0.023258267 0.087111406 -0.023667566 -0.07721042 0.045957908
-0.11532349 -0.077782474 -0.03953309 0.06761706 -0.08999601 -0.0636402 0.030777125 0.017969724
0.10826187 -0.10860836 -0.10012239 0.110675745 0.12072755 0.12535803 -0.070320696 -0.12076811
-0.072047144 0.062204096 0.006682828 0.02237318 -0.054064415 -0.0035112859 -0.06610747 0.011518146
0.04220576 -0.012233243 -0.067316726 0.11711685 0.056554187 -0.07959512 0.07297843 -0.115243964
-0.07769122 0.030758891 -0.019387003 0.06718609 -0.056713652 -0.061167587 -0.07928724 0.09744163
0.058197435 -0.11610578 -0.031161731 -0.10334537 -0.038414612 0.010903016 -0.09544189 -0.01677404
0.048244134 -0.009075313 -0.109438464 -0.049905676 0.073433146 0.039107293 0.013690996 -0.052885614
-0.07806543 0.099403165 0.08860903 -0.09569069 -0.12286859 0.11686854 0.07510483 -0.109375596
-0.11465618 -0.10127843 -0.08454104 0.11979845 0.04214041 0.074504204 0.06855731 -0.06695358
0.06281215 -0.022984982 0.1018411 -0.016516363 -0.12002167 -0.029787946 0.022335349 0.03510081
0.07471173 -0.008683934 0.035389062 -0.07569783 -0.03785931 -0.10900578 -0.094128795 0.06553898
-0.10812137 0.07657394 -0.010255586 -0.078627445 -0.10189513 -0.12491107 -0.1199195 0.07350524
-0.06306621 -0.111152224 -0.08724687 -0.03005687 0.01323042 0.102663994 0.07336777 -0.069837704
00000000: 9428 29bd fe25 f13d f572 84bc a5e3 84bc
00000010: 39ee 8f3b 2b90 fb3c 24f3 e73d d96a 853d
00000020: b1db 5cbc 6714 b83c 1fa3 c83d 4516 8dbd
00000030: b65a 263d 32cc 9ebd 91f7 d03d 6222 66bd
00000040: 38ff 313d 0280 913d 12de 92bc b6ee 3ebc
00000050: 4919 96bd 0f9e 9dbd e6b9 ebbd 0da3 d8bc
00000060: 6842 923c 654b f4bd f4db c53c ee2d d7bd
00000070: 6e7c c9bd 88cf 313c e324 0ebd d9e8 03be
00000080: ef26 84bd f1d5 85bd 7eb6 28bd 2bdb 6bbd
00000090: ccb3 e3bd a261 99bb 6315 6a3d c387 f33d
000000a0: 43d4 29bd 1961 a4bb 49ee ecbd 3056 ccbd
000000b0: b5a1 d63d 34ca eb3d f217 ef3c 0f94 c13c
000000c0: 453c fd3c e553 f1bc bc73 773d cb70 473c
000000d0: 8229 bc3d a44d d93d 539b a43d dd69 49bd
000000e0: a5d7 c83d c71e b63c 786c db3d cb7a f03d
000000f0: d17a 9cbd 0d71 abbd 923e b23c 7f88 003e
00000100: 700a 623d c71c 8e3d a07f 17bd a331 92bc
00000110: 44ed 483d 5295 e6bd b3b4 d33d d1b6 ca3d
00000120: fb87 a93d 81cf acbb 0758 8e3d dc00 b13d
00000130: 204b cb3d 929c da3a 5b47 aa3d 4f50 4dbd
00000140: a6c0 2ebd 1aca 123c c2bd 45bd 1a3c 2dbd
00000150: de48 aa3d b1ad ac3c 8318 1e3d c4bc 93bd
00000160: 50be 29bd fbc4 b3bc a751 05bd 518e a6bd
00000170: e9a4 93bc 82dd 31bd afa8 abbd 4bb1 2c3d
00000180: 4367 c5bd 9b40 f63d c605 4f3d 5fda ef3d
00000190: 3a69 87bc 48f3 b53d ae54 c13d ce41 a6bb
000001a0: 6b81 ca3d ab50 623d 0103 8f3d 6543 e9bd
000001b0: 3d22 c0bc 0ad1 e63d 3e4e 07bd 4f21 9d3d
000001c0: 9d06 173d 20f4 b5b9 e3ce 32bd bf47 d03d
000001d0: 0778 45bd eee2 073d a4be 55bd 4f90 3a3d
000001e0: f331 fdbd d362 c53d 1d9d c03d bb1d fbbd
000001f0: 3e05 03be 1a12 a0bc 7814 7b3c 7d41 efbc
00000200: 64de d63d 5d42 d6bc 58c9 f1bd 07e4 aabd
00000210: 0e12 f6ba b48b cabd 7980 743c 172a a53c
00000220: a97d 443c e401 1fbd d719 4b3d a8dd b73d
00000230: 08fa d73d 2a32 d1bd 3edf ae3d c37b 3c3d
00000240: 398e 46ba 5b0b cebd 906c 63bd 1f88 bebc
00000250: 7767 b23d 7ce2 c1bc 7f20 9ebd 5c3e 3c3d
00000260: b92e ecbd 6b4c 9fbd 73ed 21bd d07a 8a3d
00000270: d44f b8bd cb55 82bd 4f20 fc3c 3e35 933c
00000280: 66b8 dd3d 0f6e debd f80c cdbd f7a9 e23d
00000290: 0140 f73d db5d 003e 4c04 90bd 4555 f7bd
000002a0: 748d 93bd b9c9 7e3d a0fb da3b f647 b73c
000002b0: a672 5dbd 9a1d 66bb 5a63 87bd 9bb6 3c3c
000002c0: f2df 2c3d f16d 48bc 5add 89bd f6da ef3d
000002d0: 5da5 673d c402 a3bd b775 953d 0705 ecbd
000002e0: 931c 9fbd 12fa fb3c 7ed1 9ebc dc98 893d
000002f0: 934c 68bd dd8a 7abd 5961 a2bd 7a8f c73d
00000300: 6f60 6e3d dec8 edbd e346 ffbc bda6 d3bd
00000310: a458 1dbd 90a2 323c 0a77 c3bd b669 89bc
00000320: a49b 453d 9fb0 14bc 4621 e0bd e569 4cbd
00000330: 1e64 963d f82e 203d 3350 603c 969e 58bd
00000340: c5e0 9fbd e393 cb3d a778 b53d 7bf9 c3bd
00000350: 87a2 fbbd c658 ef3d 90d0 993d 5000 e0bd
00000360: dcd0 eabd 116b cfbd da23 adbd e458 f53d
00000370: 6c9b 2c3d a995 983d c667 8c3d f51e 89bd
00000380: a8a3 803d 004b bcbc 1192 d03d 534d 87bc
00000390: eccd f5bd da05 f4bc 9ff8 b63c dec5 0f3d
000003a0: 7702 993d 0f47 0ebc 1ff4 103d 7707 9bbd
000003b0: 5d12 1bbd 6c3e dfbd 99c6 c0bd 4d39 863d
000003c0: bd6e ddbd ccd2 9c3d 0c07 28bc 6d07 a1bd
000003d0: 65ae d0bd 60d1 ffbd 5b98 f5bd ea89 963d
000003e0: db28 81bd c7a3 e3bd 7dae b2bd d339 f6bc
000003f0: 67c4 583c 8041 d23d d741 963d 1207 8fbd

policy_model.2.bias f4 [64]
0.047638413 0.12365227 0.0871143 -0.0614692 -0.09544153 -0.09050173 0.029637873 -0.087905474
-0.10036145 0.012834055 -0.104988165 -0.062809676 -0.0033974377 0.02986645 -0.06682367 0.12132257
-0.08296616 -0.020008417 0.04403415 0.12024161 0.013466617 0.027851332 0.020137612 -0.0824262
0.049913332 -0.08720782 -0.08907184 -0.10883823 -0.06389277 -0.0147019755 -0.020913845 0.08799908
0.057750337 -0.100031815 0.1167638 -0.0054611415 -0.10994733 -0.103039265 0.04560578 -0.04855936
0.014437627 0.05946071 -0.014556798 0.097605884 0.062106784 0.007279952 -0.1088505 -0.06544616
-0.10548705 -0.08660427 0.025474608 0.042531405 -0.113220565 0.05763288 -0.07447412 -0.03711235
-0.10937667 0.09940625 0.11036738 -0.11585096 0.06078206 -0.037813667 -0.104373634 0.00080049824
00000000: 7f20 433d 673d fd3d fb68 b23d 21c7 7bbd
00000010: d976 c3bd f958 b9bd 20cb f23c c907 b4bd
00000020: 4e8a cdbd ee45 523c 0904 d7bd 5ca2 80bd
00000030: 8ca7 5ebb 7caa f43c d9da 88bd f877 f83d
00000040: 29ea a9bd b1e8 a3bc 275d 343d 3c41 f63d
00000050: 16a3 5c3c 7a28 e43c a2f7 a43c 11cf a8bd
00000060: ec71 4c3d 039a b2bd 4c6b b6bd 94e6 debd
00000070: 36da 82bd 8ee0 70bc 8353 abbc dd38 b43d
00000080: 9e8b 6c3d 7bdd ccbd dc21 ef3d 60f3 b2bb
00000090: 112c e1bd 4006 d3bd 20cd 3a3d 2ee6 46bd
000000a0: cc8b 6c3c 138d 733d a37f 6ebc 98e5 c73d
000000b0: af63 7e3d aa8c ee3b 03ed debd a308 86bd
000000c0: 9809 d8bd 945d b1bd 20b0 d03c 6935 2e3d
000000d0: 2fe0 e7bd 7410 6c3d e385 98bd 1f03 18bd
000000e0: e000 e0bd 8195 cb3d 4b08 e23d 4543 edbd
000000f0: 9cf6 783d 81e2 1abd d8c1 d5bd 87d8 513a

policy_model.4.weight f4 [1, 64]
-0.044019125 -0.07079098 0.0057575903 0.06705818 0.08251779 0.0060110386 -0.02511906 -0.113345586
-0.0742613 0.07483596 0.017545782 0.040945508 -0.0036142878 0.07430523 0.1085343 -0.015957028
0.07966255 -0.058967657 -0.03135116 -0.072745696 0.081417486 0.05428997 0.037691906 -0.08538615
-0.033955883 -0.108878955 -0.016085245 0.070597455 0.117208585 0.07210561 0.08151501 0.11434601
0.027402716 -0.049892273 0.016967561 0.113407865 -0.10704132 -0.11461854 0.028033579 0.056759402
-0.051563855 -0.0891499 -0.07411431 -0.051272612 0.0703328 -0.12416714 -0.0525503 -0.101921156
0.05308444 0.02563609 0.053432032 -0.040904604 0.041865595 0.11750595 -0.040197905 0.09324916
-0.047869418 -0.08954803 -0.029469257 -0.08308583 0.076716766 0.031737268 0.008698361 0.07035179
00000000: 664d 34bd dcfa 90bd 2baa bc3b cd55 893d
00000010: 16ff a83d 3ff8 c43b 7dc6 cdbc bb21 e8bd
00000020: 4f16 98bd 9943 993d 2cbc 8f3c 7ab6 273d
00000030: b0dd 6cbb 572d 983d 3b47 de3d 50b8 82bc
00000040: 1e26 a33d 1288 71bd 136a 00bd b2fb 94bd
00000050: 36be a63d 295f 5e3d d462 1a3d efde aebd
00000060: 5315 0bbd eefb debd 34c5 83bc 6695 903d
00000070: 0e0b f03d 1bac 933d 57f1 a63d 3e2e ea3d
00000080: a97b e03c d75b 4cbd 8eff 8a3c 6242 e83d
00000090: 7b38 dbbd 20bd eabd ada6 e53c 8c7c 683d
000000a0: 9f34 53bd 3994 b6bd 3ec9 97bd 3b03 52bd
000000b0: a50a 903d 574b febd fc3e 57bd 0abc d0bd
000000c0: 126f 593d c702 d23c 8cdb 5a3d 968b 27bd
000000d0: 427b 2b3d f6a6 f03d 8fa6 24bd 6af9 be3d
000000e0: b912 44bd f564 b7bd 8369 f1bc e728 aabd
000000f0: ae1d 9d3d f0fe 013d 9283 0e3c 9914 903d

value_model.0.weight f4 [64, 4]
-0.4740165 -0.13527894 -0.3210079 -0.26128274 0.3112206 -0.16146606 -0.4728666 -0.242796
0.15946263 -0.37626225 0.28530186 -0.35145414 -0.16202438 0.2708766 -0.3302396 -0.25630784
-0.17951244 -0.20992148 0.05566156 -0.42164677 -0.10366553 -0.124795616 0.073201895 -0.35047966
0.3037972 0.4434181 -0.049565494 0.13309145 -0.34202212 -0.09108704 0.3556775 0.3001343
-0.43452823 -0.43523097 -0.17463416 0.49978673 0.06529629 0.1456849 0.036022007 0.44670004
0.06605834 -0.3373183 -0.29802597 0.14022315 0.40551978 -0.38552666 0.3510279 0.25983393
-0.26098543 0.24779594 0.2023741 0.05824846 0.23822397 -0.33901602 -0.11406547 0.1781286
0.498403 -0.06265873 0.051291108 -0.19803065 -0.019141853 -0.1911326 0.17019033 -0.33821875
0.19621414 -0.27032012 -0.44681466 -0.085960805 -0.12248194 -0.19917196 0.26263225 -0.3363161
0.21708441 -0.0784775 0.20887923 0.11336708 -0.051926613 0.06623018 -0.2982658 -0.027176201
0.4000715 -0.12771136 -0.34198147 -0.34669322 0.09657854 0.004602492 0.19075298 -0.4989193
0.3830573 -0.35736638 0.33299935 -0.25607264 -0.03981948 -0.01681155 0.43416792 -0.1965797
-0.23730993 0.48675042 0.20066929 -0.39758348 -0.003929198 -0.05389875 0.22149634 0.40957296
-0.14038259 -0.19037789 0.33721727 0.38952088 -0.06284773 -0.23921847 -0.3605523 0.33454633
-0.17153889 0.44772124 -0.4388076 -0.4119777 0.34907198 0.34916544 0.06936127 -0.24836457
0.26109368 0.15331167 -0.28539145 -0.15751714 0.28940386 -0.2399767 0.412193 0.14089686
0.1848067 -0.22732145 0.41866452 -0.41326183 -0.06700283 -0.04633969 0.3144002 0.046416998
0.19457865 0.0009391308 0.34962147 -0.45222312 -0.020119965 0.034862995 -0.38716298 0.45164222
-0.44274515 -0.10913819 -0.10752851 0.2145778 0.45680565 -0.43209076 0.18284047 0.41131634
-0.23259926 0.37667066 0.45593852 0.102389276 0.29751623 -0.10419536 -0.15449786 -0.041049898
0.37536013 -0.050315678 0.12407607 -0.3838337 -0.17637676 0.34282506 0.3267305 -0.17219448
-0.22960961 -0.1262945 0.22500867 -0.078876555 0.4541769 0.39307457 0.3889262 -0.08410931
0.16001427 0.22772682 0.18226069 0.45916694 0.013684809 -0.41487402 -0.42718846 0.18163973
0.22494543 -0.10883623 -0.41175324 -0.13384378 0.053309083 0.19178599 0.44710684 -0.10350436
-0.12159145 -0.48709106 0.049280763 -0.45552325 0.41331965 0.40817815 -0.39446366 0.22999907
-0.3616032 0.106470704 -0.14165622 0.418132 -0.2036727 0.33316427 0.05960512 0.21263629
-0.33799165 -0.052069902 -0.27764398 -0.4473424 -0.080011725 -0.14256579 -0.47133386 0.090663314
0.4731319 0.29501426 -0.09168762 0.4761787 0.24493653 0.25053293 -0.45515585 0.09836942
-0.4223358 -0.38596153 -0.13257712 0.21270293 0.294379 0.28787374 -0.012258053 0.4274624
-0.31436032 0.46475434 0.13304257 -0.4250216 0.32942885 -0.14809233 0.26456302 -0.065881014
0.03506863 -0.09012103 0.31891698 -0.08646715 0.35766894 0.39920104 -0.36762756 0.15791357
-0.19256622 -0.008699238 0.41477406 -0.4164713 -0.45379776 -0.44644302 -0.26929456 0.18786645
00000000: 4ab2 f2be 9086 0abe 265b a4be dac6 85be
00000010: 4e58 9f3e 5c57 25be 921b f2be 849f 78be
00000020: 2c4a 233e 72a5 c0be 1613 923e ccf1 b3be
00000030: b8e9 25be 56b0 8a3e 2a15 a9be c83a 83be
00000040: 1cd2 37be a8f5 56be 60fd 633d 16e2 d7be
00000050: 984e d4bd d894 ffbd e0ea 953d 1272 b3be
00000060: 4e8b 9b3e b207 e33e 3005 4bbd 2049 083e
00000070: 861d afbe d88b babd 5c1b b63e 34ab 993e
00000080: 7c7a debe 98d6 debe 4cd3 32be 0ce4 ff3e
00000090: 10ba 853d 6c2e 153e d08b 133d deb5 e43e
000000a0: 9849 873d fcb4 acbe dc96 98be a896 0f3e
000000b0: 4aa0 cf3e c063 c5be eeb9 b33e f408 853e
000000c0: e29f 85be 38be 7d3e 283b 4f3e f095 6e3d
000000d0: fcf0 733e 8293 adbe 289b e9bd 5867 363e
000000e0: ae2e ff3e 3853 80bd a016 523d 8cc8 4abe
000000f0: 60cf 9cbc 44b8 43be 6046 2e3e 022b adbe
00000100: 5cec 483e 6667 8abe e4c4 e4be 380c b0bd
00000110: d0d7 fabd bcf3 4bbe bc77 863e a031 acbe
00000120: 604b 5e3e d0b8 a0bd 70e4 553e 002d e83d
00000130: 00b1 54bd b0a3 873d 4cb6 98be a0a0 debc
00000140: 2cd6 cc3e c4c6 02be 3218 afbe c681 b1be
00000150: f8ca c53d 80d0 963b c054 433e 5a72 ffbe
00000160: 1620 c43e baf8 b6be e47e aa3e f41b 83be
00000170: c019 23bd 60b8 89bc 424b de3e 304c 49be
00000180: 6001 73be 5a37 f93e 407c 4d3e 1090 cbbe
00000190: 80c0 80bb f0c4 5cbd f0cf 623e 8cb3 d13e
000001a0: 74c0 0fbe 6cf2 42be bea7 ac3e 486f c73e
000001b0: 50b6 80bd b0f5 74be 509a b8be a849 ab3e
000001c0: e4a7 2fbe b83b e53e 64ab e0be beee d2be
000001d0: 90b9 b23e d0c5 b23e 480d 8e3d 4853 7ebe
000001e0: 12ae 853e bcfd 1c3e d41e 92be 2c4c 21be
000001f0: be2c 943e 74bc 75be f60a d33e 4447 103e
00000200: f83d 3d3e f4c6 68be 325b d63e 0e97 d3be
00000210: c838 89bd b0ce 3dbd 10f9 a03e c01f 3e3d
00000220: a03f 473e 0030 763a 9601 b33e ca89 e7be
00000230: a0d2 a4bc 80cc 0e3d 3a3a c6be a63d e73e
00000240: 7eaf e2be d883 dfbd e837 dcbd 48ba 5b3e
00000250: 6ee2 e93e 003b ddbe 883a 3b3e 0e98 d23e
00000260: 802e 6ebe fada c03e c670 e93e 78b1 d13d
00000270: 0c54 983e 6064 d5bd b034 1ebe f023 28bd
00000280: 342f c03e d017 4ebd 981b fe3d da85 c4be
00000290: 1c9c 34be c486 af3e 3849 a73e c053 30be
000002a0: c81e 6bbe 5853 01be ac68 663e 088a a1bd
000002b0: e089 e83e 1241 c93e 5621 c73e 8041 acbd
000002c0: c8da 233e 3831 693e 8ca2 3a3e ee17 eb3e
000002d0: 4036 603c 5e6a d4be 72b8 dabe c4ff 393e
000002e0: 1858 663e 88e5 debd 52d1 d2be 580e 09be
000002f0: a05a 5a3d 8c63 443e 30eb e43e 18fa d3bd
00000300: f004 f9bd 0064 f9be a0da 493d 583a e9be
00000310: a29e d33e bafc d03e 24f7 c9be e084 6b3e
00000320: 0e24 b9be 500d da3d 540e 11be 6615 d63e
00000330: 948f 50be 8294 aa3e 8024 743d 54bd 593e
00000340: 3e0d adbe 4047 55bd 5a27 8ebe 100a e5be
00000350: 30dd a3bd c4fc 11be ac52 f1be b0ad b93d
00000360: 583e f23e 1c0c 973e b8c6 bbbd b2cd f33e
00000370: a4d0 7a3e da45 803e 300a e9be e875 c93d
00000380: 663c d8be c09c c5be 4cc2 07be ccce 593e
00000390: d8b8 963e 3064 933e 00d6 48bc 5adc da3e
000003a0: d6f3 a0be 48f4 ed3e 503c 083e 6e9c d9be
000003b0: e6aa a83e 84a5 17be ce74 873e a0ec 86bd
000003c0: 20a4 0f3d 6091 b8bd 1649 a33e b015 b1bd
000003d0: 6220 b73e 1464 cc3e ae39 bcbe 18b4 213e
000003e0: 1430 45be 4087 0ebc 445d d43e ba3b d5be
000003f0: 2e58 e8be 2e94 e4be fae0 89be 1060 403e

value_model.0.bias f4 [64]
-0.43163097 -0.4156595 0.07043755 0.25692433 0.045912385 0.20783734 0.23392421 -0.4134047
-0.2055437 -0.17836821 -0.4346285 -0.35471237 0.14149952 0.36841673 0.30825448 -0.094964325
-0.36819297 0.23308319 -0.032188058 0.34265292 -0.21354675 0.025859952 0.46397722 0.22860378
-0.07189882 -0.32702333 -0.08203453 -0.0043114424 -0.10970408 -0.029265225 -0.31722558 0.33037525
0.04122311 0.47608894 0.24327773 0.045751512 0.2504375 -0.3473652 0.07399517 0.49029094
-0.38573885 -0.3798915 -0.2160297 0.3197232 -0.44348192 0.39185053 0.1944232 0.39271152
0.42036146 -0.4368034 -0.3448183 0.20737427 0.11065489 0.018210232 0.119347155 -0.0046101213
0.19027781 -0.34281653 -0.3064261 -0.11562085 -0.3434254 0.1582048 0.44733542 -0.19714552
00000000: bcfe dcbe 52d1 d4be 9041 903d 968b 833e
00000010: a00e 3c3d 50d3 543e d489 6f3e c8a9 d3be
00000020: 0c7a 52be 28a6 36be a087 debe dc9c b5be
00000030: 40e5 103e 1ea1 bc3e 88d3 9d3e a87c c2bd
00000040: ca83 bcbe 5cad 6e3e a0d7 03bd 3470 af3e
00000050: 00ac 5abe 40d8 d33c 6c8e ed3e 1c17 6a3e
00000060: b03f 93bd 9a6f a7be b801 a8bd 0047 8dbb
00000070: 88ac e0bd a0bd efbc 646b a2be f226 a93e
00000080: 90d9 283d eec1 f33e cc1d 793e f065 3b3d
00000090: 5839 803e dad9 b1be c88a 973d 6a07 fb3e
000000a0: 907f c5be 2481 c2be e436 5dbe c2b2 a33e
000000b0: 1010 e3be a2a0 c83e e016 473e 7c11 c93e
000000c0: 9e39 d73e b2a4 dfbe 068c b0be ec59 543e
000000d0: 089f e23d a02d 953c 486c f43d 8010 97bb
000000e0: 30d8 423e a685 afbe e2e3 9cbe a0ca ecbd
000000f0: 74d5 afbe 7000 223e 2609 e53e 84e0 49be

value_model.2.weight f4 [64, 64]
-0.10709526 0.07704559 0.09366992 -0.09885119 0.0957579 -0.112983644 0.06028609 -0.09085129
-0.03771159 0.005597979 0.11200321 -0.09749131 0.10821688 0.107328 -0.06898704 -0.120068386
-0.0820321 -0.0070855916 0.02574052 0.050553337 0.111319795 0.11451408 -0.037684157 -0.06031631
0.11930318 0.07677451 0.0043644905 -0.017442405 -0.051458254 0.07100788 0.010599583 -0.10750595
0.0110384375 0.051592857 -0.0767027 0.09295902 0.09957057 0.080235034 0.12352952 0.08248687
0.07175277 0.04744032 -0.04606545 -0.04688251 0.10110706 0.082303375 -0.011169508 0.08034308
-0.082190365 0.09695208 0.036192298 -5.735457e-05 0.11264272 -0.12490998 -0.07410261 -0.09795497
0.0046112537 -0.10363075 -0.09494011 -0.111720756 -0.034718975 -0.029856876 -0.058554873 0.039027065
-0.016967744 -0.038856387 -0.0574224 -0.067500085 0.12178849 -0.031085387 0.09913638 0.099631324
0.038196653 0.06581475 -0.11573915 0.0014458746 -0.06484811 -0.06967507 0.06820147 0.11464469
0.0880878 -0.039944217 -0.114475474 -0.10403302 0.097589016 0.07066493 -0.04753451 0.030675516
0.068395 -0.09271142 0.10729936 -0.11990118 0.11179164 0.10982603 0.04988125 -0.08926883
0.11156602 0.07801409 -0.017470822 0.035785973 -0.031104147 0.10915238 0.039245844 -0.053971067
0.02143468 -0.05333367 -0.03910686 0.08371042 0.000684306 0.074996024 0.048074633 0.05719468
0.030706272 -0.01205048 -0.07129301 0.024702236 0.019128978 -0.039669663 -0.050024018 0.018926963
0.021933526 0.057694077 0.124132335 -0.016259119 0.1089682 -0.041139662 0.09925553 -0.02773945
0.05180943 0.054115176 -0.11332932 -0.06157419 0.013460219 -0.11559677 -0.008998498 0.07805319
0.045882955 0.03159678 0.053282484 0.005008191 -0.07692699 0.117041394 -0.05396539 0.007768318
-0.11679281 0.04918529 0.111369684 0.075381994 -0.058551624 -0.032931358 0.036270425 -0.112932876
-0.06806144 -0.097290665 0.096683994 0.06365743 -0.02952376 0.07062237 -0.12401573 -0.004941985
-0.08765948 -0.013694316 0.0191641 -0.09809989 -0.12350145 -0.05151172 -0.015772805 0.095856264
0.05355753 -0.09390843 -0.07587834 0.1239087 -0.08393131 -0.11862564 0.025603041 0.093014255
-0.073696494 -0.108687714 0.10439095 -0.099017575 -0.049976125 0.019006804 -0.059961498 0.023336664
-0.09017345 -0.09314929 0.0743729 0.08490257 0.007556781 0.07489969 0.021224976 0.020814508
0.07226968 -0.101718396 -0.0772374 0.047686934 -0.041639805 -0.084278986 0.07584597 -0.01983513
-0.093061045 0.09254363 0.08144668 0.04444559 -0.040613562 0.11750324 0.06903134 -0.05711481
-0.017190725 -0.005415827 0.022686377 0.12391639 -0.11337964 -0.01963371 0.0869139 -0.033311427
-0.12027253 0.040222093 -0.06869544 -0.106167555 -0.017541006 0.043247864 -0.038114026 -0.029558063
-0.029518127 0.026797637 0.02905488 -0.015310302 -0.010482743 0.05016868 -0.013578564 -0.028046697
0.10133718 -0.09843297 0.03466776 -0.059974313 -0.09370066 0.0059339404 -0.036026552 -0.060172573
-0.04240088 -0.0026175827 0.09005004 0.05766335 -0.0011496693 0.05955352 0.03344883 0.08070612
0.122694835 0.060177296 -0.03537573 0.014466062 -0.019526929 -0.04190415 0.009657994 -0.05487965
00000000: c254 dbbd 14ca 9d3d 04d6 bf3d 7e72 cabd
00000010: b81c c43d f863 e7bd 8cee 763d 3e10 babd
00000020: 7877 1abd 406f b73b f061 e53d 86a9 c7bd
00000030: d0a0 dd3d c8ce db3d 1449 8dbd 6ae6 f5bd
00000040: 7200 a8bd 402e e8bb c8dd d23c 0411 4f3d
00000050: a2fb e33d 5c86 ea3d b45a 1abd 3c0e 77bd
00000060: 3a55 f43d f43b 9d3d 0004 8f3b 60e3 8ebc
00000070: e4c5 52bd 946c 913d e0a9 2d3c 142c dcbd
00000080: 90da 343c 0853 533d 4e16 9dbd 4c61 be3d
00000090: a8eb cb3d 4452 a43d 0cfd fc3d e0ee a83d
000000a0: 1ef3 923d c850 423d 20af 3cbd e007 40bd
000000b0: 3811 cf3d ac8e a83d 5000 37bc ea8a a43d
000000c0: 6c53 a8bd d08e c63d 603e 143d 0090 70b8
000000d0: 3ab1 e63d ced0 ffbd 1cc3 97bd 9e9c c8bd
000000e0: 001a 973b 5c3c d4bd f66f c2bd dacd e4bd
000000f0: 7c35 0ebd 6896 f4bc 3cd7 6fbd d8da 1f3d
00000100: f0ff 8abc e027 1fbd c033 6bbd 7c3d 8abd
00000110: 3e6c f93d c8a6 febc 0408 cb3d 820b cc3d
00000120: 1874 1c3d e2c9 863d a608 edbd 8083 bd3a
00000130: 16cf 84bd ceb1 8ebd 36ad 8b3d d6ca ea3d
00000140: 6067 b43d 8c9c 23bd 1e72 eabd 440f d5bd
00000150: c0dc c73d c6b8 903d 8cb3 42bd 384b fb3c
00000160: ae12 8c3d 7cdf bdbd c4bf db3d c08e f5bd
00000170: 04f3 e43d 78ec e03d 4850 4c3d 94d2 b6bd
00000180: ba7c e43d dac5 9f3d f81e 8fbc 5094 123d
00000190: 20ce febc 488b df3d 40c0 203d c410 5dbd
000001a0: c897 af3c 6874 5abd 842e 20bd 5e70 ab3d
000001b0: 0063 333a 8497 993d e8e9 443d f844 6a3d
000001c0: b88b fb3c 606f 45bc 1202 92bd 585c ca3c
000001d0: 60b4 9c3c a87c 22bd fce5 4cbd b80c 9b3c
000001e0: f0ad b33c a050 6c3d 1839 fe3d d831 85bc
000001f0: b82a df3d 1082 28bd 7c46 cb3d d83d e3bc
00000200: 2036 543d e0a7 5d3d 3419 e8bd 3835 7cbd
00000210: 4088 5c3c 00be ecbd 706e 13bc 5ada 9f3d
00000220: c4ef 3b3d a06b 013d bc3e 5a3d c01b a43b
00000230: e68b 9dbd 66b3 ef3d d00a 5dbd 608d fe3b
00000240: 1231 efbd 8476 493d ca15 e43d e061 9a3d
00000250: d4d3 6fbd 08e3 06bd 4c90 143d 5a49 e7bd
00000260: cc63 8bbd 5440 c7bd 4202 c63d d45e 823d
00000270: d0db f1bc 76a2 903d f6fb fdbd 60f0 a1bb
00000280: d086 b3bd 205e 60bc 08fe 9c3c 98e8 c8bd
00000290: 54ee fcbd f4fd 52bd f835 81bc 4a50 c43d
000002a0: 245f 5b3d 1053 c0bd 1a66 9bbd d8c3 fd3d
000002b0: 2ee4 abbd 00f2 f2bd 78bd d13c 427e be3d
000002c0: 30ee 96bd aa97 debd ecca d53d bac9 cabd
000002d0: c4b3 4cbd 28b4 9b3c 309a 75bd 882c bf3c
000002e0: dcac b8bd 0ec5 bebd d250 983d 66e1 ad3d
000002f0: e09e f73b 0265 993d 00e0 ad3c 3083 aa3c
00000300: 2002 943d bc51 d0bd a42e 9ebd 6053 433d
00000310: 808e 2abd 769a acbd 2255 9b3d 487d a2bc
00000320: ca96 bebd 8487 bd3d 84cd a63d 940c 363d
00000330: 685a 26bd 8aa5 f03d 4e60 8d3d 38f1 69bd
00000340: 90d3 8cbc 4077 b1bb c8d8 b93c e0c7 fd3d
00000350: 9633 e8bd e0d6 a0bc eaff b13d 9071 08bd
00000360: 7251 f6bd ecbf 243d 32b0 8cbd 606e d9bd
00000370: 28b2 8fbc ac24 313d 741d 1cbd c023 f2bc
00000380: 00d0 f1bc b886 db3c 8004 ee3c 10d8 7abc
00000390: d0bf 2bbc ac7d 4d3d a078 5ebc 30c2 e5bc
000003a0: de89 cf3d 3a97 c9bd c8ff 0d3d a0a7 75bd
000003b0: 22e6 bfbd 8071 c23b 9490 13bd 8477 76bd
000003c0: 8cac 2dbd c08b 2bbb 286c b83d 6830 6c3d
000003d0: 80b0 96ba 64ee 733d a401 093d 4049 a53d
000003e0: 6e47 fb3d 787c 763d 24e6 10bd 1003 6d3c
000003f0: f0f6 9fbc b0a3 2bbd 903c 1e3c 7cc9 60bd

value_model.2.bias f4 [64]
0.01937884 -0.033130303 0.028993368 0.085473314 0.037433445 0.01045835 0.0520519 -0.036008537
-0.10626572 0.040283993 0.05535738 0.10668297 -0.069691926 -0.0755191 -0.09490533 0.00796102
-0.10977416 0.11153065 0.055011794 0.08074625 0.043994144 0.04293415 -0.09352377 -0.10214864
-0.075690106 -0.076063514 -0.092666015 0.060302556 -0.016746953 0.054773986 -0.094941914 0.09040335
-0.057082444 -0.06066017 0.022857174 0.035976663 -0.092096135 0.11764999 0.07427661 -0.03779106
0.07722211 0.11506151 -0.07471587 -0.028070047 0.10588747 0.036161244 0.08408083 -0.087716475
0.014490932 -0.04966408 -0.10772434 -0.04828933 0.0032868981 -0.055546373 0.049993888 0.067343816
-0.0911798 -0.055110216 -0.02214329 0.094671145 -0.048621804 0.06832549 -0.060973853 -0.0026987642
00000000: 60c0 9e3c a4b3 07bd 8083 ed3c a20c af3d
00000010: d053 193d 8059 2b3c 6034 553d b07d 13bd
00000020: d8a1 d9bd d400 253d 6cbe 623d 9a7c da3d
00000030: a4ba 8ebd c2a9 9abd ba5d c2bd f06e 023c
00000040: 46d1 e0bd 2e6a e43d 0c54 613d 4a5e a53d
00000050: 3433 343d b8db 2f3d 6489 bfbd 4e33 d1bd
00000060: 6a03 9bbd 30c7 9bbd aec7 bdbd d0ff 763d
00000070: e830 89bc b05a 603d e870 c2bd 6425 b93d
00000080: 48cf 69bd cc76 78bd f83e bb3c 445c 133d
00000090: e69c bcbd 7af2 f03d 561e 983d ccca 1abd
000000a0: a026 9e3d 5ea5 eb3d a204 99bd 28f3 e5bc
000000b0: 88db d83d d01d 143d 9232 ac3d b2a4 b3bd
000000c0: 606b 6d3c 906c 4bbd 949e dcbd 08cb 45bd
000000d0: 0069 573b 9884 63bd 64c6 4c3d 8eeb 893d
000000e0: 7abc babd 40bb 61bd d865 b5bc f2e2 c13d
000000f0: a827 47bd 3cee 8b3d b8bf 79bd c0dd 30bb

value_model.4.weight f4 [1, 64]
-0.06759074 0.087829426 0.1195526 0.026876077 0.035034254 0.00051790476 0.105005845 0.04253055
0.020351097 0.053823233 -0.062536746 0.08960861 0.045593068 0.06568174 0.09116675 0.015049398
-0.016847655 0.11344619 -0.10417113 -0.041706935 0.083315834 -0.034943968 0.04688452 0.005551651
0.11298281 -0.018637687 -0.07422525 -0.0887813 0.08817229 0.081268415 -0.009353772 0.11860958
0.028925851 -0.030552432 -0.07651852 -0.10643493 -0.070366785 -0.025474787 0.010746643 -0.052540645
-0.10694623 -0.05759707 0.022645667 0.10518913 0.07923353 0.08515905 -0.029726937 0.07019842
-0.062190175 -0.09879361 -0.08751789 0.011517599 -0.1011235 -0.023700148 -0.05044593 0.12026094
0.08398947 0.019974038 -0.05097057 0.08185251 0.10415302 -0.028642088 0.10387145 0.06077163
00000000: 046d 8abd eadf b33d fed7 f43d 382b dc3c
00000010: 1480 0f3d 00c4 073a 4e0d d73d 8434 2e3d
00000020: 58b7 a63c c075 5c3d 4413 80bd b884 b73d
00000030: ccbf 3a3d 2684 863d a2b5 ba3d c091 763c
00000040: 1804 8abc 7a56 e83d ac57 d5bd e4d4 2abd
00000050: 7ea1 aa3d 6821 0fbd fc09 403d a0ea b53b
00000060: 8863 e73d 10ae 98bc 6803 98bd f8d2 b5bd
00000070: ac93 b43d 0e70 a63d 9040 19bc 94e9 f23d
00000080: e8f5 ec3c 1849 fabc beb5 9cbd 8efa d9bd
00000090: 761c 90bd 80b0 d0bc b012 303c dc34 57bd
000000a0: a006 dbbd e8ea 6bbd 6883 b93c 666d d73d
000000b0: 3045 a23d de67 ae3d e885 f3bc 30c4 8f3d
000000c0: 20bb 7ebd 4e54 cabd 943c b3bd 50b4 3c3c
000000d0: d619 cfbd d026 c2bc 64a0 4ebd 5e4b f63d
000000e0: ac02 ac3d 98a0 a33c 84c6 50bd 4aa2 a73d
000000f0: 2e4e d53d d0a2 eabc 8eba d43d aceb 783d
