scripts/practical_rl_models/model_1700000.pth (torch, 41301 bytes, 10 tensors)

policy_model.0.weight f4 [64, 4]
00000000: 4c06 733e 3e2c 4fbe dd6d 213e 5d6d bcbe
00000010: 335f c73d 7a0c 71bd a637 d7be eb52 463e
00000020: aad7 c5bd 751f 5c3e 4ca3 fabe 8d9a 923e
00000030: 0b2d d43b 981a 11be 6310 333e 002a ebbd
00000040: 0d2f ba3e a56a e03e d668 74bc dc08 2abe
00000050: 9cf6 62be 14e3 a6be 2905 d83d 1a96 8a3e
00000060: 0e00 c13e 7e47 8c3e 660a f83c 6a45 4bbe
00000070: 00f6 f53e 29d9 e7be 37d0 e83d e24c 8a3d
00000080: 7709 9b3d 3c09 eebd 4d53 1a3e 8f62 b63e
00000090: 896c 0ebe 5d97 e43e e6f8 edbe dab6 e4be
000000a0: a88e 99be 0822 2bbd 5777 bb3e 2a9f 7d3d
000000b0: 28bb d1bd 8227 1fbe 78af 0c3e 454a 3fbe
000000c0: 803f 543e 026c 0c3e 40e4 ef3e 61ab 6b3e
000000d0: b16d fdbe dfd0 ae3d 2776 92be 7b24 7abe
000000e0: a042 b5be 11ff 9ebe 59d7 c3bd e2b7 e9bd
000000f0: 6497 a5be 481f 783e f960 f7be b996 d4be
00000100: 6986 613e 7bf9 f33e f6c8 07be c8bf c3be
00000110: 0bbc 673e c6a0 903d 2a32 8c3e f425 4abe
00000120: 3eb1 b0be 556a d5be 3c4d 83be 157a bcbe
00000130: 2666 b6bd 87ac 5abc 9ffe b7be ad16 1b3d
00000140: fe22 a4be 956c 9d3d 0ea8 c4be 90a1 6a3e
00000150: bdb0 87be 8ca7 b5be eb33 813e bbc4 c23d
00000160: 3e7d c03e 6458 1c3d d54d f8bd d618 f43e
00000170: af28 eebe 93ac 273e dfd1 6a3e 4537 babe
00000180: 69c7 83be 06b9 083e f77d ab3e ec04 263d
00000190: ff53 833c 38e8 e0bd e04d 35be 38a6 1ebe
000001a0: 7c49 6b3d 1922 afbd c625 0e3e 9a08 8b3e
000001b0: ff1d ad3d eb9f e5be af73 d23d 9845 bb3d
000001c0: ac46 d9bd 53f6 1c3c 1eb6 ebbe 4880 5bbe
000001d0: 684b d9be 84ad 9f3d 2451 ccbd 1503 723d
000001e0: bb6a 61be a1f3 b03e f40a 82bd 875a 68be
000001f0: b211 c63d 89f1 41bd 2cb2 d63e 8c6d 863e
00000200: 951b c33d 90cd e1bd 52f4 20be c555 d2bd
00000210: ada5 b1bd 99ad e83e 50e6 893e 18d0 2fbe
00000220: 61a3 e83e 561f f13e 9a3e f83e d32a e73d
00000230: c744 5fbe 7d7f ba3e a71a fe3e 9dc6 f5bd
00000240: 6c8d 323e 8f22 393e e83a 9bbd 6701 973e
00000250: bba5 a5be 6c1c 6dbe 6309 fa3d 24fd 563d
00000260: 6e6a 14bd 408d 843e f334 97be a82d c5be
00000270: c7b9 cebe 6964 1bbe 4399 7b3e 8c92 fa3e
00000280: 6409 893d 19df e53e 5769 a1be 5868 ed3e
00000290: ce5a a13e 37c5 b73e 7379 c03e 9d9f 2abe
000002a0: 871f e4be eb7a 4fbe d246 e03e 3c40 54be
000002b0: f458 d23e 6968 42bd 561f 993d 2279 e3be
000002c0: 9a3f ae3e 96c9 53be 3717 10be 4da7 71be
000002d0: 8574 40be ae7b 883e f6aa adbe f0c6 e0be
000002e0: 2d3e 763e dd8a 19be 58a1 b6be 4e7d f0be
000002f0: b996 a43e d976 d63e c999 a43e 5615 4f3b
00000300: 6c83 cbbe cb2d d2bd 4fc2 e0be a94a d83e
00000310: d15c 8fbe 2e10 b23e af5c 9fbd 57ee e43d
00000320: b386 333e 1e44 af3e 6307 c5be ea47 ce3d
00000330: e10a c7be 29ca 48be cca2 963e 837d 233e
00000340: 69b4 e63e 718d c23e ed4a 7abe 5bf2 1fbe
00000350: d48d cb3e 0ee7 6c3c af0f b6be 046a 373e
00000360: 894e 783e c286 aabe 681b e9b9 2703 a5be
00000370: 7000 f6be f139 71be bdf0 2bbe 7738 e1be
00000380: c685 bfbe e1fa ccbe cdef e1be 0b00 353e
00000390: d8d4 2a3e 7b9a 98be 0189 febe a127 e9bd
000003a0: 3297 f33e 8ea4 b6be 7099 be3d b9f3 99bd
000003b0: 4aae 853e 9fe6 a13e 5f93 c0be 1ec0 e53c
000003c0: 04cf 85be 388d dd3e 536f d83e 589c b43b
000003d0: 0563 b23e 6bed fd3e 14ef 8ebe 12c4 1f3e
000003e0: 4856 7a3e 0767 6b3e aa69 5c3e 20e2 15bd
000003f0: d2b0 913e 492d 3c3e f2bd d1bc f45c c9be
0.23732871 -0.20231721 0.15764566 -0.36802188 0.09734955 -0.05884979 -0.42034644 0.19367568
-0.09660275 0.21496375 -0.4895271 0.28633538 0.006475096 -0.14170301 0.1748672 -0.1148262
0.36364022 0.43831363 -0.014917573 -0.16604942 -0.22164387 -0.32595122 0.10547859 0.27067643
0.37695354 0.27398294 0.030278396 -0.19850698 0.48039246 -0.45282868 0.11367839 0.067529455
0.07570165 -0.11622855 0.15070839 0.3562207 -0.1390859 0.4464673 -0.46478957 -0.44670755
-0.2999165 -0.0417805 0.36614487 0.06191937 -0.10240775 -0.15542415 0.13738811 -0.18680675
0.20727348 0.13713077 0.46853828 0.23014595 -0.4949775 0.08535933 -0.28605768 -0.24427979
-0.35402393 -0.31053975 -0.09562559 -0.11412026 -0.32342064 0.24230683 -0.48316172 -0.41521242
0.2202393 0.47651276 -0.13260254 -0.38232255 0.22630326 0.07061915 0.27382022 -0.1974104
-0.34510225 -0.41682687 -0.25644863 -0.3681189 -0.08906202 -0.013346798 -0.35936448 0.037863422
-0.32057947 0.07686726 -0.38409466 0.22913194 -0.26502028 -0.3547939 0.25234923 0.095101796
0.37595552 0.038170233 -0.1212422 0.47675198 -0.46515414 0.16374426 0.22931622 -0.36370292
-0.25738075 0.13351831 0.3349454 0.040532038 0.016031263 -0.10981792 -0.17705488 -0.15493095
0.057443127 -0.085514255 0.13881597 0.27155 0.08452987 -0.4484857 0.10275971 0.09144133
-0.10609183 0.009580213 -0.46037382 -0.21435654 -0.42440343 0.07796767 -0.09976414 0.05908497
-0.2201337 0.34560874 -0.063497454 -0.22690783 0.09671344 -0.047349487 0.4193281 0.26255453
0.09526745 -0.11025536 -0.15718201 -0.102702655 -0.08674178 0.45444945 0.26933527 -0.17169225
0.45437148 0.4709422 0.4848526 0.11287465 -0.2180358 0.3642539 0.4962971 -0.12000773
0.1743676 0.1807959 -0.07579595 0.29493257 -0.32353005 -0.23155373 0.122088216 0.052487507
-0.03623431 0.25889015 -0.29532585 -0.38511395 -0.40376112 -0.15175022 0.24570183 0.4893993
0.06691244 0.44896773 -0.3152568 0.4636867 0.3151459 0.3589265 0.37592658 -0.1666245
-0.44555303 -0.20261733 0.43804032 -0.20727628 0.4108349 -0.047462855 0.0747668 -0.44428355
0.340329 -0.20682368 -0.14071356 -0.23598976 -0.18794449 0.2665686 -0.33919495 -0.43901777
0.24047156 -0.14994378 -0.3566997 -0.469706 0.32146242 0.4188755 0.3214858 0.003159841
-0.39748704 -0.102626406 -0.43898246 0.4224446 -0.280005 0.3477797 -0.0778135 0.11178272
0.17531852 0.34231657 -0.38482198 0.1007231 -0.38875487 -0.19608368 0.2942108 0.15965848
0.45059517 0.37998536 -0.24442644 -0.15619795 0.39756644 0.014459385 -0.3555884 0.17911536
0.24248709 -0.33305937 -0.00044461642 -0.32228968 -0.4804721 -0.23557259 -0.16791053 -0.43988392
-0.3740675 -0.40035155 -0.44128266 0.17675798 0.16682756 -0.2980536 -0.497139 -0.11384512
0.4757629 -0.3567242 0.0930661 -0.075171895 0.26109535 0.31621262 -0.37612435 0.02804571
-0.26134503 0.43271804 0.42272434 0.0055118017 0.3484117 0.49595198 -0.27916777 0.15602139
0.24446976 0.2298852 0.21524683 -0.036592603 0.28455216 0.1837665 -0.025603268 -0.3932873

policy_model.0.bias f4 [64]
00000000: 5971 efbe 0010 ef3d 0fc8 f03e 5e13 9abe
00000010: 9fd7 d93e 6036 ecbd 03a4 3cbe 8f39 c3be
00000020: cf29 5bbe 76c1 ed3e 6051 d7be b06c ddbb
00000030: 3f97 37be 94d2 f0be 2b11 9a3e bb50 fe3e
00000040: 4e0e 173d 69dd 68be b760 37be d0ff cfbe
00000050: 394b a0be 7a9b 8bbe 4196 c53e 1498 8bbe
00000060: d70f af3e 6fec e8be cd1b eb3e ea10 8fbe
00000070: d406 e1be 00be e43d 78da b0be 77ab 89bd
00000080: c5e1 4e3c b2b4 003d 1514 ea3d 7319 b13e
00000090: 665e cb3c fc88 7e3e 27dc 18bd 25af 963e
000000a0: 5ee6 b73e 0fd9 bf3d 59be e6bd 529a 5f3d
000000b0: 1d4f fa3e ca65 b53e c478 b6bd 8f80 653c
000000c0: 8834 e2be 9455 4abe e79d dd3e 9350 52bd
000000d0: 15a5 9f3d b538 2c3e 378c 3b3e 5142 a33e
000000e0: cc8e febe 0ba0 a63e 7a09 3e3e c105 dcbe
000000f0: 8276 80be 60e2 9d3e 5259 e23e 0ae2 af3e
-0.46766165 0.11672974 0.47027633 -0.300929 0.42547318 -0.11533809 -0.1842194 -0.3812985
-0.21402667 0.4643666 -0.42054272 -0.0067573413 -0.1792879 -0.47035658 0.30091223 0.49670967
0.036878876 -0.22740711 -0.17907988 -0.40624857 -0.3130739 -0.27267057 0.38591197 -0.27264464
0.34191772 -0.45492885 0.45919648 -0.27942592 -0.43950522 0.11169052 -0.34541678 -0.067221574
0.01262707 0.031422324 0.114296116 0.3458973 0.024825286 0.24856943 -0.03731933 0.294305
0.35917944 0.093675725 -0.11266775 0.05459053 0.48888484 0.3542922 -0.08909753 0.014007702
-0.44180703 -0.19759208 0.43284532 -0.051346373 0.07795159 0.16818507 0.18315206 0.31886533
-0.4971832 0.32543978 0.18558303 -0.4297314 -0.25090414 0.30836773 0.4420877 0.34352142

policy_model.2.weight f4 [64, 64]
00000000: 95f1 28bd c5dd ee3d 7dcd 8bbc 1e54 7bbc
00000010: 684d 453b 0fe5 043d a662 e53d a62c 863d
00000020: 7a98 4dbc c661 ab3c 00c7 cb3d 2a13 8abd
00000030: f637 283d 1e76 9fbd 60fd d23d 5d62 6abd
00000040: 37ef 2a3d 7964 913d aede 8ebc 8fdc 4abc
00000050: da41 97bd 390e 99bd 3ae8 ecbd 2744 d2bc
00000060: 7546 993c 5308 f5bd aa32 cb3c 65a5 d4bd
00000070: df34 cbbd b58a 373c a51e 11bd f7b5 02be
00000080: e86f 85bd 8555 86bd b28e 2abd 3108 6abd
00000090: 18cc e5bd 4935 4cbb 9785 633d fa8f f63d
000000a0: a3bd 2ebd ab5e b3bb e97a e8bd e856 cdbd
000000b0: 72a5 d53d bd3c e93d 484e e73c 6426 bc3c
000000c0: a2b0 fb3c 64f3 f4bc 90f4 6f3d cd9e 693c
000000d0: f68f b73d 2ccf d53d 33c0 a43d b09d 47bd
000000e0: 996d c93d 4e1a b03c 00a5 db3d 610c ed3d
000000f0: 7954 9bbd e0e2 afbd 47ee af3c a219 ff3d
00000100: 210b 633d 3c06 8c3d e080 1bbd e93b 89bc
00000110: 8b11 423d a1a8 e2bd 7c06 d13d cc07 cc3d
00000120: 48b3 ab3d 5872 e4bb 5d45 913d cb4c b43d
00000130: 0918 cc3d 6702 c43a 7540 ac3d 7e02 52bd
00000140: 3678 36bd 95cc 113c 9fb5 42bd 50aa 2fbd
00000150: 5c6b a93d c6d6 bf3c cb1e 1b3d eb2b 92bd
00000160: cbbd 26bd 4ee8 b4bc 8126 03bd b451 a3bd
00000170: d0e5 99bc 77a3 30bd 7b03 adbd fb74 313d
00000180: cd86 c6bd 4554 f53d 4835 4c3d 6145 f03d
00000190: 1ac9 90bc 1742 b93d 4fd6 bd3d e86a 6abb
000001a0: 42a0 c73d 9689 5f3d 715c 933d b65e eabd
000001b0: 16c1 c4bc f9fc e33d 72f3 0abd 6058 9b3d
000001c0: ff10 173d 19dd 45ba 0ba9 3abd 9997 d43d
000001d0: 0706 4fbd cb50 013d 9585 55bd 8b35 3c3d
000001e0: 9103 fcbd 1d08 c43d dbcd c03d 04b2 febd
000001f0: 8987 02be ae73 b3bc 8506 713c 9898 f8bc
00000200: 7ab6 d63d eebb d2bc 99d5 f0bd 49aa abbd
00000210: 70b0 a0ba 000b ccbd 214c 7d3c f4ff a23c
00000220: 235e 3d3c 74a6 1bbd b771 483d 5cf5 b63d
00000230: f97e d73d dbe9 d0bd ca13 ae3d e1db 3e3d
00000240: cdb8 3038 9809 cebd 5d59 64bd 7359 bcbc
00000250: 81dd b23d 2c4b c9bc c39a 9dbd 92f9 3a3d
00000260: 6edc ecbd 2e18 9fbd b6ef 22bd 6d3d 893d
00000270: 1893 b7bd 1b8f 82bd 928f fe3c 16f8 8e3c
00000280: 0123 de3d 1525 debd b799 ccbd 535d e23d
00000290: 68f2 f73d 0177 ff3d cb8f 8ebd fbc7 f8bd
000002a0: 4458 92bd 2eb1 7f3d de06 be3b 3951 b93c
000002b0: d15f 5cbd 45d2 3bbb 5e74 86bd bd9b 413c
000002c0: 170c 2d3d b4a1 45bc d72e 88bd 2f1d ee3d
000002d0: f88b 6b3d 93a8 a1bd 8974 953d 054f ecbd
000002e0: 9378 9fbd dcf7 fe3c b83b 9fbc 7c17 8b3d
000002f0: b16c 69bd d2b1 76bd 1009 a2bd c386 c83d
00000300: 69ec 6d3d d9b0 ebbd 97c7 f7bc 43ab d5bd
00000310: 30e7 16bd 7647 133c 3e96 c0bd 3b46 8dbc
00000320: d757 413d 95ea f1bb 8d39 e3bd 25ee 52bd
00000330: 4ba8 953d 7ad6 203d 37d4 4d3c b008 54bd
00000340: 1d04 9cbd 65e6 cb3d 0ffc b33d 56da c2bd
00000350: ffd9 fabd 9783 ea3d 592f 9b3d 1992 e1bd
00000360: f255 ecbd 0b00 cfbd 0349 aebd f765 f23d
00000370: 5f7c 2f3d ffbf 973d 5ece 8d3d b889 8bbd
00000380: 9dca 813d 2696 b8bc 4404 d23d 3d27 89bc
00000390: 976d f3bd 76f0 00bd 33d3 c43c 4c76 093d
000003a0: 2bae 9b3d 13af 02bc b40c 083d 88da 99bd
000003b0: 2ef0 18bd d771 dcbd 4ee2 bebd ec1a 883d
000003c0: 2575 ddbd 71a8 9d3d 5eae 08bc b077 a5bd
000003d0: a9d2 cbbd 206d fcbd a2b8 f5bd a771 953d
000003e0: 0a43 82bd a747 e2bd 74ce b2bd e257 e8bc
000003f0: a72e 513c 43fd d63d 7e53 973d 20c9 8cbd
-0.041246016 0.11663393 -0.017065758 -0.015339879 0.0030105952 0.03244501 0.11200456 0.06551485
-0.01254856 0.020920645 0.099500656 -0.067419365 0.041068994 -0.07786201 0.10302234 -0.057222713
0.04173204 0.07099242 -0.017440166 -0.012381687 -0.07385607 -0.07473416 -0.11567731 -0.025667263
0.018710354 -0.11964478 0.024804432 -0.10383109 -0.09922194 0.011202504 -0.035429616 -0.12764727
-0.06515485 -0.0655928 -0.04163999 -0.05713672 -0.112205684 -0.003115969 0.055547323 0.1203918
-0.04266132 -0.005473932 -0.11351568 -0.10026342 0.10431947 0.11388538 0.02823557 0.022967525
0.030723874 -0.029901214 0.058582842 0.014259052 0.08963005 0.104399055 0.080444716 -0.048734367
0.09835357 0.021496918 0.107248306 0.11574627 -0.07584471 -0.08588195 0.021475924 0.12456061
0.055430535 0.068371266 -0.0379647 -0.0167522 0.04738001 -0.1106732 0.10206315 0.09962425
0.083838046 -0.0069716386 0.07093308 0.088037096 0.09965522 0.0014954329 0.08410732 -0.051271908
-0.044548236 0.008898874 -0.04753649 -0.042887032 0.0827243 0.023417842 0.037871163 -0.07137283
-0.040708344 -0.022083428 -0.032019142 -0.07974568 -0.018786341 -0.043124642 -0.084479295 0.043324452
-0.0969368 0.11978964 0.0498555 0.11731983 -0.017674018 0.09045809 0.09269392 -0.0035769287
0.097473636 0.05457457 0.07195366 -0.11443846 -0.024017852 0.11132235 -0.033923574 0.075852156
0.036881443 -0.00075479 -0.04557137 0.103804775 -0.050542857 0.03157119 -0.052129347 0.0459495
-0.12305368 0.0957186 0.09414264 -0.124362975 -0.12747015 -0.021905746 0.014711027 -0.0303462
0.104840234 -0.025724377 -0.117594905 -0.08382089 -0.0012259614 -0.099630356 0.015460045 0.019897439
0.0115580885 -0.03800054 0.048936572 0.08933517 0.10522265 -0.102008544 0.08499868 0.04659641
4.213378e-05 -0.100604236 -0.055749286 -0.022991871 0.08733655 -0.024571978 -0.07695534 0.045648165
-0.11565481 -0.07768284 -0.039779387 0.06701169 -0.08963603 -0.063749515 0.031074319 0.017452281
0.1084652 -0.108469166 -0.09990256 0.110529564 0.12106782 0.1247387 -0.0696102 -0.12147518
-0.071457416 0.06242483 0.0057991585 0.022621738 -0.053802315 -0.0028659266 -0.06565164 0.011816916
0.042247858 -0.012062479 -0.06649559 0.1162666 0.05750653 -0.07893481 0.07297618 -0.11538509
-0.077866696 0.031124048 -0.019437656 0.06791589 -0.05698842 -0.060228176 -0.07911885 0.09791329
0.058086786 -0.115083404 -0.030246539 -0.10433056 -0.03684157 0.008989206 -0.094036564 -0.017245403
0.04720291 -0.0073827007 -0.11094961 -0.051496644 0.0730749 0.03926704 0.012562803 -0.051766098
-0.07617972 0.09956054 0.08788311 -0.095143005 -0.12248611 0.1145088 0.0757739 -0.11014194
-0.1153983 -0.1010743 -0.0851002 0.118358545 0.04284322 0.07409667 0.06924127 -0.06813377
0.063374735 -0.022532534 0.1025472 -0.016742343 -0.11886137 -0.03147932 0.024026489 0.033560082
0.07601579 -0.007976311 0.03321524 -0.07512385 -0.03733843 -0.10763901 -0.09320508 0.0664576
-0.10813359 0.07698143 -0.008342354 -0.08079469 -0.099522896 -0.123255014 -0.119981065 0.07297068
-0.06360443 -0.11048823 -0.08730784 -0.028362218 0.01276747 0.104975246 0.07388972 -0.06874299

policy_model.2.bias f4 [64]
00000000: 9395 433d f6ef fc3d dc80 b23d 12b6 7bbd
00000010: 7f20 c3bd 2715 b9bd 2016 f23c 1a29 b4bd
00000020: 6fc2 cdbd 353d 513c 9ece d6bd c995 80bd
00000030: 4a37 65bb 8677 f53c 07a1 88bd f55d f83d
00000040: 5279 a9bd 78d3 a4bc e297 343d b19f f53d
00000050: 9927 613c 98fd e43c 0907 a63c c5f3 a8bd
00000060: 58ec 4c3d 3b58 b2bd 60a2 b6bd 924e debd
00000070: e379 82bd 2e7c 6ebc b159 aabc a588 b43d
00000080: 5d0d 6d3d df0a cdbd 482c ef3d cec5 acbb
00000090: 283d e1bd df4a d3bd 9d5d 3b3d 5690 45bd
000000a0: 5dea 6a3c e594 723d c2a9 70bc 6bb9 c73d
000000b0: 62a3 7e3d eef0 f23b 9447 dfbd 0d60 86bd
000000c0: 67a8 d7bd 661c b1bd ec16 d13c 0e7d 2d3d
000000d0: 1098 e7bd f390 6c3d 9258 98bd 7030 17bd
000000e0: 0f3a e0bd ef6f cb3d 8741 e23d c53e edbd
000000f0: 869a 793d 8db1 1abd ecb2 d5bd a9bc 743a
0.047750067 0.123504564 0.08715984 -0.061452933 -0.095276825 -0.090372376 0.029551566 -0.08796902
-0.10046851 0.012770941 -0.10488628 -0.06278569 -0.0034975582 0.02996422 -0.066713385 0.12127296
-0.08275093 -0.020120367 0.04409016 0.11993349 0.013742351 0.027952954 0.020267026 -0.0824962
0.050030082 -0.08708235 -0.08917689 -0.1085483 -0.06370904 -0.014555974 -0.020794721 0.088151254
0.057874072 -0.10011839 0.11678368 -0.0052726036 -0.10997993 -0.10317015 0.045743573 -0.048233353
0.014338103 0.05922403 -0.014688911 0.097521625 0.062167533 0.007413975 -0.10902324 -0.06561289
-0.10530167 -0.08647995 0.025523625 0.04235559 -0.113083005 0.05775542 -0.074387684 -0.036911428
-0.10948574 0.09933459 0.110476546 -0.11584238 0.06093838 -0.037766982 -0.10434517 0.0009335974

policy_model.4.weight f4 [1, 64]
00000000: 555a 2ebd 31f1 91bd e509 843b 79e8 853d
00000010: df4d ac3d ed35 093c e4c7 c4bc 242d e9bd
00000020: 239f 9abd 4cd1 973d 7696 8d3c 35fa 253d
00000030: af18 afbb 648e 963d b7b2 de3d ceeb 6abc
00000040: 5c7e a33d 0757 71bd c300 f9bc 82c7 99bd
00000050: f806 ab3d e96b 5e3d 9876 103d 4aa7 b0bd
00000060: 8761 01bd 99c2 e0bd e080 67bc 82c7 943d
00000070: dfe6 ef3d d044 953d eef6 a73d aeb8 e93d
00000080: 9b59 d63c df7a 4ebd fec9 9b3c c363 e63d
00000090: af9a ddbd 275e ecbd daa0 d13c 5516 653d
000000a0: a6aa 4fbd 9ae0 bbbd 2501 95bd adc4 5cbd
000000b0: 6878 933d dea2 fabd a502 53bd 17b8 cdbd
000000c0: 5a75 5d3d c55a cf3c 2437 4e3d b23c 21bd
000000d0: 6350 323d ac08 f03d 0142 27bd fc04 c03d
000000e0: 8d5f 44bd af4e b9bd a59f efbc d60f a9bd
000000f0: bf57 9b3d 69f9 fe3c 2802 d93b 2b46 903d
-0.042566616 -0.07126082 0.0040295 0.06538481 0.0841329 0.008374673 -0.024021097 -0.11385563
-0.07549884 0.07412967 0.01728366 0.04052182 -0.0053435187 0.073513776 0.10873931 -0.014338447
0.079830855 -0.058920886 -0.030395871 -0.07508756 0.083509386 0.05430213 0.03526935 -0.08625658
-0.03158715 -0.109746166 -0.014129847 0.072646156 0.11713957 0.072885156 0.08201395 0.11412178
0.026165774 -0.050410148 0.019017216 0.11249497 -0.10820519 -0.11541396 0.025589395 0.0559295
-0.050699852 -0.09173699 -0.07275609 -0.053898502 0.072007 -0.12238096 -0.051516194 -0.10044878
0.054066993 0.025311837 0.050345555 -0.039364524 0.043533694 0.11720404 -0.04083443 0.09375951
-0.047942687 -0.09048211 -0.02925093 -0.082549736 0.075850956 0.031124787 0.0066225715 0.070446335

value_model.0.weight f4 [64, 4]
00000000: 4ab2 f2be 9086 0abe 265b a4be dac6 85be
00000010: 4e58 9f3e 5c57 25be 921b f2be 849f 78be
00000020: 2c4a 233e 72a5 c0be 1613 923e ccf1 b3be
00000030: b8e9 25be 56b0 8a3e 2a15 a9be c83a 83be
00000040: 1cd2 37be a8f5 56be 60fd 633d 16e2 d7be
00000050: 984e d4bd d894 ffbd e0ea 953d 1272 b3be
00000060: 4e8b 9b3e b207 e33e 3005 4bbd 2049 083e
00000070: 861d afbe d88b babd 5c1b b63e 34ab 993e
00000080: 7c7a debe 98d6 debe 4cd3 32be 0ce4 ff3e
00000090: 10ba 853d 6c2e 153e d08b 133d deb5 e43e
000000a0: 9849 873d fcb4 acbe dc96 98be a896 0f3e
000000b0: 4aa0 cf3e c063 c5be eeb9 b33e f408 853e
000000c0: e29f 85be 38be 7d3e 283b 4f3e f095 6e3d
000000d0: fcf0 733e 8293 adbe 289b e9bd 5867 363e
000000e0: ae2e ff3e 3853 80bd a016 523d 8cc8 4abe
000000f0: 60cf 9cbc 44b8 43be 6046 2e3e 022b adbe
00000100: 5cec 483e 6667 8abe e4c4 e4be 380c b0bd
00000110: d0d7 fabd bcf3 4bbe bc77 863e a031 acbe
00000120: 604b 5e3e d0b8 a0bd 70e4 553e 002d e83d
00000130: 00b1 54bd b0a3 873d 4cb6 98be a0a0 debc
00000140: 2cd6 cc3e c4c6 02be 3218 afbe c681 b1be
00000150: f8ca c53d 80d0 963b c054 433e 5a72 ffbe
00000160: 1620 c43e baf8 b6be e47e aa3e f41b 83be
00000170: c019 23bd 60b8 89bc 424b de3e 304c 49be
00000180: 6001 73be 5a37 f93e 407c 4d3e 1090 cbbe
00000190: 80c0 80bb f0c4 5cbd f0cf 623e 8cb3 d13e
000001a0: 74c0 0fbe 6cf2 42be bea7 ac3e 486f c73e
000001b0: 50b6 80bd b0f5 74be 509a b8be a849 ab3e
000001c0: e4a7 2fbe b83b e53e 64ab e0be beee d2be
000001d0: 90b9 b23e d0c5 b23e 480d 8e3d 4853 7ebe
000001e0: 12ae 853e bcfd 1c3e d41e 92be 2c4c 21be
000001f0: be2c 943e 74bc 75be f60a d33e 4447 103e
00000200: f83d 3d3e f4c6 68be 325b d63e 0e97 d3be
00000210: c838 89bd b0ce 3dbd 10f9 a03e c01f 3e3d
00000220: a03f 473e 0030 763a 9601 b33e ca89 e7be
00000230: a0d2 a4bc 80cc 0e3d 3a3a c6be a63d e73e
00000240: 7eaf e2be d883 dfbd e837 dcbd 48ba 5b3e
00000250: 6ee2 e93e 003b ddbe 883a 3b3e 0e98 d23e
00000260: 802e 6ebe fada c03e c670 e93e 78b1 d13d
00000270: 0c54 983e 6064 d5bd b034 1ebe f023 28bd
00000280: 342f c03e d017 4ebd 981b fe3d da85 c4be
00000290: 1c9c 34be c486 af3e 3849 a73e c053 30be
000002a0: c81e 6bbe 5853 01be ac68 663e 088a a1bd
000002b0: e089 e83e 1241 c93e 5621 c73e 8041 acbd
000002c0: c8da 233e 3831 693e 8ca2 3a3e ee17 eb3e
000002d0: 4036 603c 5e6a d4be 72b8 dabe c4ff 393e
000002e0: 1858 663e 88e5 debd 52d1 d2be 580e 09be
000002f0: a05a 5a3d 8c63 443e 30eb e43e 18fa d3bd
00000300: f004 f9bd 0064 f9be a0da 493d 583a e9be
00000310: a29e d33e bafc d03e 24f7 c9be e084 6b3e
00000320: 0e24 b9be 500d da3d 540e 11be 6615 d63e
00000330: 948f 50be 8294 aa3e 8024 743d 54bd 593e
00000340: 3e0d adbe 4047 55bd 5a27 8ebe 100a e5be
00000350: 30dd a3bd c4fc 11be ac52 f1be b0ad b93d
00000360: 583e f23e 1c0c 973e b8c6 bbbd b2cd f33e
00000370: a4d0 7a3e da45 803e 300a e9be e875 c93d
00000380: 663c d8be c09c c5be 4cc2 07be ccce 593e
00000390: d8b8 963e 3064 933e 00d6 48bc 5adc da3e
000003a0: d6f3 a0be 48f4 ed3e 503c 083e 6e9c d9be
000003b0: e6aa a83e 84a5 17be ce74 873e a0ec 86bd
000003c0: 20a4 0f3d 6091 b8bd 1649 a33e b015 b1bd
000003d0: 6220 b73e 1464 cc3e ae39 bcbe 18b4 213e
000003e0: 1430 45be 4087 0ebc 445d d43e ba3b d5be
000003f0: 2e58 e8be 2e94 e4be fae0 89be 1060 403e
-0.4740165 -0.13527894 -0.3210079 -0.26128274 0.3112206 -0.16146606 -0.4728666 -0.242796
0.15946263 -0.37626225 0.28530186 -0.35145414 -0.16202438 0.2708766 -0.3302396 -0.25630784
-0.17951244 -0.20992148 0.05566156 -0.42164677 -0.10366553 -0.124795616 0.073201895 -0.35047966
0.3037972 0.4434181 -0.049565494 0.13309145 -0.34202212 -0.09108704 0.3556775 0.3001343
-0.43452823 -0.43523097 -0.17463416 0.49978673 0.06529629 0.1456849 0.036022007 0.44670004
0.06605834 -0.3373183 -0.29802597 0.14022315 0.40551978 -0.38552666 0.3510279 0.25983393
-0.26098543 0.24779594 0.2023741 0.05824846 0.23822397 -0.33901602 -0.11406547 0.1781286
0.498403 -0.06265873 0.051291108 -0.19803065 -0.019141853 -0.1911326 0.17019033 -0.33821875
0.19621414 -0.27032012 -0.44681466 -0.085960805 -0.12248194 -0.19917196 0.26263225 -0.3363161
0.21708441 -0.0784775 0.20887923 0.11336708 -0.051926613 0.06623018 -0.2982658 -0.027176201
0.4000715 -0.12771136 -0.34198147 -0.34669322 0.09657854 0.004602492 0.19075298 -0.4989193
0.3830573 -0.35736638 0.33299935 -0.25607264 -0.03981948 -0.01681155 0.43416792 -0.1965797
-0.23730993 0.48675042 0.20066929 -0.39758348 -0.003929198 -0.05389875 0.22149634 0.40957296
-0.14038259 -0.19037789 0.33721727 0.38952088 -0.06284773 -0.23921847 -0.3605523 0.33454633
-0.17153889 0.44772124 -0.4388076 -0.4119777 0.34907198 0.34916544 0.06936127 -0.24836457
0.26109368 0.15331167 -0.28539145 -0.15751714 0.28940386 -0.2399767 0.412193 0.14089686
0.1848067 -0.22732145 0.41866452 -0.41326183 -0.06700283 -0.04633969 0.3144002 0.046416998
0.19457865 0.0009391308 0.34962147 -0.45222312 -0.020119965 0.034862995 -0.38716298 0.45164222
-0.44274515 -0.10913819 -0.10752851 0.2145778 0.45680565 -0.43209076 0.18284047 0.41131634
-0.23259926 0.37667066 0.45593852 0.102389276 0.29751623 -0.10419536 -0.15449786 -0.041049898
0.37536013 -0.050315678 0.12407607 -0.3838337 -0.17637676 0.34282506 0.3267305 -0.17219448
-0.22960961 -0.1262945 0.22500867 -0.078876555 0.4541769 0.39307457 0.3889262 -0.08410931
0.16001427 0.22772682 0.18226069 0.45916694 0.013684809 -0.41487402 -0.42718846 0.18163973
0.22494543 -0.10883623 -0.41175324 -0.13384378 0.053309083 0.19178599 0.44710684 -0.10350436
-0.12159145 -0.48709106 0.049280763 -0.45552325 0.41331965 0.40817815 -0.39446366 0.22999907
-0.3616032 0.106470704 -0.14165622 0.418132 -0.2036727 0.33316427 0.05960512 0.21263629
-0.33799165 -0.052069902 -0.27764398 -0.4473424 -0.080011725 -0.14256579 -0.47133386 0.090663314
0.4731319 0.29501426 -0.09168762 0.4761787 0.24493653 0.25053293 -0.45515585 0.09836942
-0.4223358 -0.38596153 -0.13257712 0.21270293 0.294379 0.28787374 -0.012258053 0.4274624
-0.31436032 0.46475434 0.13304257 -0.4250216 0.32942885 -0.14809233 0.26456302 -0.065881014
0.03506863 -0.09012103 0.31891698 -0.08646715 0.35766894 0.39920104 -0.36762756 0.15791357
-0.19256622 -0.008699238 0.41477406 -0.4164713 -0.45379776 -0.44644302 -0.26929456 0.18786645

value_model.0.bias f4 [64]
00000000: bcfe dcbe 52d1 d4be 9041 903d 968b 833e
00000010: a00e 3c3d 50d3 543e d489 6f3e c8a9 d3be
00000020: 0c7a 52be 28a6 36be a087 debe dc9c b5be
00000030: 40e5 103e 1ea1 bc3e 88d3 9d3e a87c c2bd
00000040: ca83 bcbe 5cad 6e3e a0d7 03bd 3470 af3e
00000050: 00ac 5abe 40d8 d33c 6c8e ed3e 1c17 6a3e
00000060: b03f 93bd 9a6f a7be b801 a8bd 0047 8dbb
00000070: 88ac e0bd a0bd efbc 646b a2be f226 a93e
00000080: 90d9 283d eec1 f33e cc1d 793e f065 3b3d
00000090: 5839 803e dad9 b1be c88a 973d 6a07 fb3e
000000a0: 907f c5be 2481 c2be e436 5dbe c2b2 a33e
000000b0: 1010 e3be a2a0 c83e e016 473e 7c11 c93e
000000c0: 9e39 d73e b2a4 dfbe 068c b0be ec59 543e
000000d0: 089f e23d a02d 953c 486c f43d 8010 97bb
000000e0: 30d8 423e a685 afbe e2e3 9cbe a0ca ecbd
000000f0: 74d5 afbe 7000 223e 2609 e53e 84e0 49be
-0.43163097 -0.4156595 0.07043755 0.25692433 0.045912385 0.20783734 0.23392421 -0.4134047
-0.2055437 -0.17836821 -0.4346285 -0.35471237 0.14149952 0.36841673 0.30825448 -0.094964325
-0.36819297 0.23308319 -0.032188058 0.34265292 -0.21354675 0.025859952 0.46397722 0.22860378
-0.07189882 -0.32702333 -0.08203453 -0.0043114424 -0.10970408 -0.029265225 -0.31722558 0.33037525
0.04122311 0.47608894 0.24327773 0.045751512 0.2504375 -0.3473652 0.07399517 0.49029094
-0.38573885 -0.3798915 -0.2160297 0.3197232 -0.44348192 0.39185053 0.1944232 0.39271152
0.42036146 -0.4368034 -0.3448183 0.20737427 0.11065489 0.018210232 0.119347155 -0.0046101213
0.19027781 -0.34281653 -0.3064261 -0.11562085 -0.3434254 0.1582048 0.44733542 -0.19714552

value_model.2.weight f4 [64, 64]
00000000: c254 dbbd 14ca 9d3d 04d6 bf3d 7e72 cabd
00000010: b81c c43d f863 e7bd 8cee 763d 3e10 babd
00000020: 7877 1abd 406f b73b f061 e53d 86a9 c7bd
00000030: d0a0 dd3d c8ce db3d 1449 8dbd 6ae6 f5bd
00000040: 7200 a8bd 402e e8bb c8dd d23c 0411 4f3d
00000050: a2fb e33d 5c86 ea3d b45a 1abd 3c0e 77bd
00000060: 3a55 f43d f43b 9d3d 0004 8f3b 60e3 8ebc
00000070: e4c5 52bd 946c 913d e0a9 2d3c 142c dcbd
00000080: 90da 343c 0853 533d 4e16 9dbd 4c61 be3d
00000090: a8eb cb3d 4452 a43d 0cfd fc3d e0ee a83d
000000a0: 1ef3 923d c850 423d 20af 3cbd e007 40bd
000000b0: 3811 cf3d ac8e a83d 5000 37bc ea8a a43d
000000c0: 6c53 a8bd d08e c63d 603e 143d 0090 70b8
000000d0: 3ab1 e63d ced0 ffbd 1cc3 97bd 9e9c c8bd
000000e0: 001a 973b 5c3c d4bd f66f c2bd dacd e4bd
000000f0: 7c35 0ebd 6896 f4bc 3cd7 6fbd d8da 1f3d
00000100: f0ff 8abc e027 1fbd c033 6bbd 7c3d 8abd
00000110: 3e6c f93d c8a6 febc 0408 cb3d 820b cc3d
00000120: 1874 1c3d e2c9 863d a608 edbd 8083 bd3a
00000130: 16cf 84bd ceb1 8ebd 36ad 8b3d d6ca ea3d
00000140: 6067 b43d 8c9c 23bd 1e72 eabd 440f d5bd
00000150: c0dc c73d c6b8 903d 8cb3 42bd 384b fb3c
00000160: ae12 8c3d 7cdf bdbd c4bf db3d c08e f5bd
00000170: 04f3 e43d 78ec e03d 4850 4c3d 94d2 b6bd
00000180: ba7c e43d dac5 9f3d f81e 8fbc 5094 123d
00000190: 20ce febc 488b df3d 40c0 203d c410 5dbd
000001a0: c897 af3c 6874 5abd 842e 20bd 5e70 ab3d
000001b0: 0063 333a 8497 993d e8e9 443d f844 6a3d
000001c0: b88b fb3c 606f 45bc 1202 92bd 585c ca3c
000001d0: 60b4 9c3c a87c 22bd fce5 4cbd b80c 9b3c
000001e0: f0ad b33c a050 6c3d 1839 fe3d d831 85bc
000001f0: b82a df3d 1082 28bd 7c46 cb3d d83d e3bc
00000200: 2036 543d e0a7 5d3d 3419 e8bd 3835 7cbd
00000210: 4088 5c3c 00be ecbd 706e 13bc 5ada 9f3d
00000220: c4ef 3b3d a06b 013d bc3e 5a3d c01b a43b
00000230: e68b 9dbd 66b3 ef3d d00a 5dbd 608d fe3b
00000240: 1231 efbd 8476 493d ca15 e43d e061 9a3d
00000250: d4d3 6fbd 08e3 06bd 4c90 143d 5a49 e7bd
00000260: cc63 8bbd 5440 c7bd 4202 c63d d45e 823d
00000270: d0db f1bc 76a2 903d f6fb fdbd 60f0 a1bb
00000280: d086 b3bd 205e 60bc 08fe 9c3c 98e8 c8bd
00000290: 54ee fcbd f4fd 52bd f835 81bc 4a50 c43d
000002a0: 245f 5b3d 1053 c0bd 1a66 9bbd d8c3 fd3d
000002b0: 2ee4 abbd 00f2 f2bd 78bd d13c 427e be3d
000002c0: 30ee 96bd aa97 debd ecca d53d bac9 cabd
000002d0: c4b3 4cbd 28b4 9b3c 309a 75bd 882c bf3c
000002e0: dcac b8bd 0ec5 bebd d250 983d 66e1 ad3d
000002f0: e09e f73b 0265 993d 00e0 ad3c 3083 aa3c
00000300: 2002 943d bc51 d0bd a42e 9ebd 6053 433d
00000310: 808e 2abd 769a acbd 2255 9b3d 487d a2bc
00000320: ca96 bebd 8487 bd3d 84cd a63d 940c 363d
00000330: 685a 26bd 8aa5 f03d 4e60 8d3d 38f1 69bd
00000340: 90d3 8cbc 4077 b1bb c8d8 b93c e0c7 fd3d
00000350: 9633 e8bd e0d6 a0bc eaff b13d 9071 08bd
00000360: 7251 f6bd ecbf 243d 32b0 8cbd 606e d9bd
00000370: 28b2 8fbc ac24 313d 741d 1cbd c023 f2bc
00000380: 00d0 f1bc b886 db3c 8004 ee3c 10d8 7abc
00000390: d0bf 2bbc ac7d 4d3d a078 5ebc 30c2 e5bc
000003a0: de89 cf3d 3a97 c9bd c8ff 0d3d a0a7 75bd
000003b0: 22e6 bfbd 8071 c23b 9490 13bd 8477 76bd
000003c0: 8cac 2dbd c08b 2bbb 286c b83d 6830 6c3d
000003d0: 80b0 96ba 64ee 733d a401 093d 4049 a53d
000003e0: 6e47 fb3d 787c 763d 24e6 10bd 1003 6d3c
000003f0: f0f6 9fbc b0a3 2bbd 903c 1e3c 7cc9 60bd
-0.10709526 0.07704559 0.09366992 -0.09885119 0.0957579 -0.112983644 0.06028609 -0.09085129
-0.03771159 0.005597979 0.11200321 -0.09749131 0.10821688 0.107328 -0.06898704 -0.120068386
-0.0820321 -0.0070855916 0.02574052 0.050553337 0.111319795 0.11451408 -0.037684157 -0.06031631
0.11930318 0.07677451 0.0043644905 -0.017442405 -0.051458254 0.07100788 0.010599583 -0.10750595
0.0110384375 0.051592857 -0.0767027 0.09295902 0.09957057 0.080235034 0.12352952 0.08248687
0.07175277 0.04744032 -0.04606545 -0.04688251 0.10110706 0.082303375 -0.011169508 0.08034308
-0.082190365 0.09695208 0.036192298 -5.735457e-05 0.11264272 -0.12490998 -0.07410261 -0.09795497
0.0046112537 -0.10363075 -0.09494011 -0.111720756 -0.034718975 -0.029856876 -0.058554873 0.039027065
-0.016967744 -0.038856387 -0.0574224 -0.067500085 0.12178849 -0.031085387 0.09913638 0.099631324
0.038196653 0.06581475 -0.11573915 0.0014458746 -0.06484811 -0.06967507 0.06820147 0.11464469
0.0880878 -0.039944217 -0.114475474 -0.10403302 0.097589016 0.07066493 -0.04753451 0.030675516
0.068395 -0.09271142 0.10729936 -0.11990118 0.11179164 0.10982603 0.04988125 -0.08926883
0.11156602 0.07801409 -0.017470822 0.035785973 -0.031104147 0.10915238 0.039245844 -0.053971067
0.02143468 -0.05333367 -0.03910686 0.08371042 0.000684306 0.074996024 0.048074633 0.05719468
0.030706272 -0.01205048 -0.07129301 0.024702236 0.019128978 -0.039669663 -0.050024018 0.018926963
0.021933526 0.057694077 0.124132335 -0.016259119 0.1089682 -0.041139662 0.09925553 -0.02773945
0.05180943 0.054115176 -0.11332932 -0.06157419 0.013460219 -0.11559677 -0.008998498 0.07805319
0.045882955 0.03159678 0.053282484 0.005008191 -0.07692699 0.117041394 -0.05396539 0.007768318
-0.11679281 0.04918529 0.111369684 0.075381994 -0.058551624 -0.032931358 0.036270425 -0.112932876
-0.06806144 -0.097290665 0.096683994 0.06365743 -0.02952376 0.07062237 -0.12401573 -0.004941985
-0.08765948 -0.013694316 0.0191641 -0.09809989 -0.12350145 -0.05151172 -0.015772805 0.095856264
0.05355753 -0.09390843 -0.07587834 0.1239087 -0.08393131 -0.11862564 0.025603041 0.093014255
-0.073696494 -0.108687714 0.10439095 -0.099017575 -0.049976125 0.019006804 -0.059961498 0.023336664
-0.09017345 -0.09314929 0.0743729 0.08490257 0.007556781 0.07489969 0.021224976 0.020814508
0.07226968 -0.101718396 -0.0772374 0.047686934 -0.041639805 -0.084278986 0.07584597 -0.01983513
-0.093061045 0.09254363 0.08144668 0.04444559 -0.040613562 0.11750324 0.06903134 -0.05711481
-0.017190725 -0.005415827 0.022686377 0.12391639 -0.11337964 -0.01963371 0.0869139 -0.033311427
-0.12027253 0.040222093 -0.06869544 -0.106167555 -0.017541006 0.043247864 -0.038114026 -0.029558063
-0.029518127 0.026797637 0.02905488 -0.015310302 -0.010482743 0.05016868 -0.013578564 -0.028046697
0.10133718 -0.09843297 0.03466776 -0.059974313 -0.09370066 0.0059339404 -0.036026552 -0.060172573
-0.04240088 -0.0026175827 0.09005004 0.05766335 -0.0011496693 0.05955352 0.03344883 0.08070612
0.122694835 0.060177296 -0.03537573 0.014466062 -0.019526929 -0.04190415 0.009657994 -0.05487965

value_model.2.bias f4 [64]
00000000: 60c0 9e3c a4b3 07bd 8083 ed3c a20c af3d
00000010: d053 193d 8059 2b3c 6034 553d b07d 13bd
00000020: d8a1 d9bd d400 253d 6cbe 623d 9a7c da3d
00000030: a4ba 8ebd c2a9 9abd ba5d c2bd f06e 023c
00000040: 46d1 e0bd 2e6a e43d 0c54 613d 4a5e a53d
00000050: 3433 343d b8db 2f3d 6489 bfbd 4e33 d1bd
00000060: 6a03 9bbd 30c7 9bbd aec7 bdbd d0ff 763d
00000070: e830 89bc b05a 603d e870 c2bd 6425 b93d
00000080: 48cf 69bd cc76 78bd f83e bb3c 445c 133d
00000090: e69c bcbd 7af2 f03d 561e 983d ccca 1abd
000000a0: a026 9e3d 5ea5 eb3d a204 99bd 28f3 e5bc
000000b0: 88db d83d d01d 143d 9232 ac3d b2a4 b3bd
000000c0: 606b 6d3c 906c 4bbd 949e dcbd 08cb 45bd
000000d0: 0069 573b 9884 63bd 64c6 4c3d 8eeb 893d
000000e0: 7abc babd 40bb 61bd d865 b5bc f2e2 c13d
000000f0: a827 47bd 3cee 8b3d b8bf 79bd c0dd 30bb
0.01937884 -0.033130303 0.028993368 0.085473314 0.037433445 0.01045835 0.0520519 -0.036008537
-0.10626572 0.040283993 0.05535738 0.10668297 -0.069691926 -0.0755191 -0.09490533 0.00796102
-0.10977416 0.11153065 0.055011794 0.08074625 0.043994144 0.04293415 -0.09352377 -0.10214864
-0.075690106 -0.076063514 -0.092666015 0.060302556 -0.016746953 0.054773986 -0.094941914 0.09040335
-0.057082444 -0.06066017 0.022857174 0.035976663 -0.092096135 0.11764999 0.07427661 -0.03779106
0.07722211 0.11506151 -0.07471587 -0.028070047 0.10588747 0.036161244 0.08408083 -0.087716475
0.014490932 -0.04966408 -0.10772434 -0.04828933 0.0032868981 -0.055546373 0.049993888 0.067343816
-0.0911798 -0.055110216 -0.02214329 0.094671145 -0.048621804 0.06832549 -0.060973853 -0.0026987642

value_model.4.weight f4 [1, 64]
00000000: 046d 8abd eadf b33d fed7 f43d 382b dc3c
00000010: 1480 0f3d 00c4 073a 4e0d d73d 8434 2e3d
00000020: 58b7 a63c c075 5c3d 4413 80bd b884 b73d
00000030: ccbf 3a3d 2684 863d a2b5 ba3d c091 763c
00000040: 1804 8abc 7a56 e83d ac57 d5bd e4d4 2abd
00000050: 7ea1 aa3d 6821 0fbd fc09 403d a0ea b53b
00000060: 8863 e73d 10ae 98bc 6803 98bd f8d2 b5bd
00000070: ac93 b43d 0e70 a63d 9040 19bc 94e9 f23d
00000080: e8f5 ec3c 1849 fabc beb5 9cbd 8efa d9bd
00000090: 761c 90bd 80b0 d0bc b012 303c dc34 57bd
000000a0: a006 dbbd e8ea 6bbd 6883 b93c 666d d73d
000000b0: 3045 a23d de67 ae3d e885 f3bc 30c4 8f3d
000000c0: 20bb 7ebd 4e54 cabd 943c b3bd 50b4 3c3c
000000d0: d619 cfbd d026 c2bc 64a0 4ebd 5e4b f63d
000000e0: ac02 ac3d 98a0 a33c 84c6 50bd 4aa2 a73d
000000f0: 2e4e d53d d0a2 eabc 8eba d43d aceb 783d
-0.06759074 0.087829426 0.1195526 0.026876077 0.035034254 0.00051790476 0.105005845 0.04253055
0.020351097 0.053823233 -0.062536746 0.08960861 0.045593068 0.06568174 0.09116675 0.015049398
-0.016847655 0.11344619 -0.10417113 -0.041706935 0.083315834 -0.034943968 0.04688452 0.005551651
0.11298281 -0.018637687 -0.07422525 -0.0887813 0.08817229 0.081268415 -0.009353772 0.11860958
0.028925851 -0.030552432 -0.07651852 -0.10643493 -0.070366785 -0.025474787 0.010746643 -0.052540645
-0.10694623 -0.05759707 0.022645667 0.10518913 0.07923353 0.08515905 -0.029726937 0.07019842
-0.062190175 -0.09879361 -0.08751789 0.011517599 -0.1011235 -0.023700148 -0.05044593 0.12026094
0.08398947 0.019974038 -0.05097057 0.08185251 0.10415302 -0.028642088 0.10387145 0.06077163
