scripts/practical_rl_models/model_4800000.pth (torch, 41301 bytes, 10 tensors)

policy_model.0.weight f4 [64, 4]
000000 8a 84 c5 be 03 d5 25 3b 5d 3a 54 3e b4 5c ee be
       -0.38577682 0.0025303967 0.20725389 -0.46555102
000010 f7 bc d0 be 41 ad cb 3e c8 de 94 3e e8 8e 9c be
       -0.4076917 0.3978062 0.2907622 -0.3057778
000020 31 55 b1 3e 50 4a 62 be 5f 9b a9 3e 7c 23 c1 3e
       0.34635308 -0.2209866 0.3312635 0.37722385
000030 0d 26 f1 3e c6 a1 41 3d 87 69 8b 3e cf b7 f4 3d
       0.47099343 0.04727342 0.27228948 0.11949121
000040 90 24 f8 3c 88 8b a8 be 52 df ab be 84 98 a5 be
       0.030290872 -0.32918954 -0.33568817 -0.32342923
000050 8f 79 dd 3e a0 8d bb 3d 2e 15 f3 bd 18 99 a9 3e
       0.43256804 0.09157872 -0.11869274 0.33124614
000060 c1 6f 8f 3e 4d 10 90 be d5 c6 26 3e 63 66 f0 3d
       0.2801495 -0.28137437 0.16286786 0.11738279
000070 fd 08 b1 3e 5a 38 d5 3d 04 06 ec 3e ee ec ab 3e
       0.3457717 0.10411139 0.4609834 0.335792
000080 b6 74 16 be cc 0c ac be 08 4c d6 bd f1 e5 8e 3e
       -0.14692959 -0.33603513 -0.104637206 0.27909806
000090 b3 b0 aa 3e a3 90 59 be 87 3f f8 be 29 50 89 3e
       0.33337936 -0.21246581 -0.48485968 0.2681897
0000a0 61 9b ef bc f5 0e 27 3e 6c 11 d3 3e da 1a 64 3e
       -0.029248895 0.163143 0.4122423 0.22275868
0000b0 ec c3 ba be af 5d d3 3e f5 fb 66 3e ea 6d 01 3f
       -0.36477602 0.41282412 0.22557051 0.5055834
0000c0 86 5f 9e be 39 90 b8 3e 27 ce 9f be 60 ab ae 3e
       -0.30932254 0.36047533 -0.3121197 0.34115124
0000d0 d0 1b 9e be f1 97 b3 be 99 4f 00 3f 85 7f cd 3e
       -0.30880594 -0.3507686 0.50121456 0.40136352
0000e0 b1 c9 d6 be 5d 3c 5c 3d 03 7c b3 3c 28 4b b0 3c
       -0.41950753 0.053768504 0.02190972 0.021520212
0000f0 2d d6 f8 be 2e e6 8e bd 43 c8 68 be 24 4d 33 bd
       -0.48600903 -0.06977497 -0.22732644 -0.04377474
000100 52 40 cd bd 90 e8 8d 3e 26 b1 b7 be 91 80 f5 be
       -0.10022034 0.27716494 -0.3587734 -0.4794965
000110 bd ad e4 3c 28 0c a3 be 17 36 5a bd f3 b1 dd 3d
       0.027914876 -0.31845212 -0.05327424 0.10824957
000120 a4 b7 a6 be 29 d5 ab be 7a d4 de bd b7 ce e2 3d
       -0.32561982 -0.33561066 -0.108803704 0.11074584
000130 cf 3d f9 be 35 40 ac 3e 66 00 74 be fa bf c3 bd
       -0.4867997 0.33642736 -0.23828277 -0.09558101
000140 62 21 f0 3e 48 eb b2 3e c8 e3 e7 3d a0 a6 f6 be
       0.4690047 0.3494513 0.11322743 -0.48174
000150 e7 7f ae 3e 24 5d 8a 3d fc 1b 04 be bb 76 81 bd
       0.34081957 0.067560464 -0.129013 -0.06321474
000160 e3 25 ab be eb 55 82 3e d8 bc 31 be c6 e2 f3 be
       -0.33427343 0.25456175 -0.17357194 -0.47633952
000170 e6 be 03 be 0f 0f 7d 3d d2 c0 e8 3a 84 ff ee 3e
       -0.1286579 0.06178194 0.001775766 0.46679318
000180 66 fa d2 3d 95 fe e5 be 6f e1 b0 3e b0 13 a9 be
       0.10301666 -0.44920793 0.34546992 -0.33022833
000190 09 03 6a 3e 4d 9d 2f bb 35 c5 9f 3e 59 fe 8b 3e
       0.2285272 -0.002679664 0.31205145 0.2734249
0001a0 62 bc de bd f7 60 f8 be ec 26 0d 3e ce f4 96 3e
       -0.10875775 -0.48511478 0.13784379 0.29483646
0001b0 9e 0c b5 be 6c 7e 78 bc 10 55 b5 3e 3d de e9 3e
       -0.3536119 -0.01516686 0.3541646 0.45677367
0001c0 34 9f 82 be e1 18 c6 3e 46 f8 7a 3e 2b df 2d be
       -0.25512087 0.38690856 0.24508771 -0.16979663
0001d0 43 1c 7b bc d4 e6 25 bc b2 df ad 3e 1a b5 3d 3d
       -0.015326562 -0.0101258345 0.33959728 0.04631529
0001e0 6d 53 0e 3e 3f fe 68 3e 2f 25 27 3e 33 07 95 3e
       0.13899012 0.22753237 0.16322778 0.29107055
0001f0 c5 cc ce 3e 50 81 de 3e 7d 10 43 3e d1 71 9c be
       0.40390602 0.43458033 0.19049259 -0.30555585
000200 b8 d1 bb 3c f5 a0 25 be 5b 66 51 3c b6 0b 6d 3e
       0.02292715 -0.16174681 0.012780751 0.23148999
000210 d1 94 66 3e 77 99 92 bc df f9 11 bd c3 af aa 3d
       0.22517706 -0.017895443 -0.035638686 0.08334305
000220 c7 3a 65 3b 23 1a f6 bd 99 21 b6 3d df 64 de be
       0.003497766 -0.12016704 0.08893127 -0.43436334
000230 74 a3 b8 3e 09 6f 86 be 28 ee c7 bd 24 ab 4e be
       0.36062205 -0.26256588 -0.097622216 -0.20182472
000240 c7 eb 48 bd c8 79 6e bd 6b f4 e7 be 0d 13 92 3e
       -0.04905298 -0.05822161 -0.45303664 0.2853016
000250 33 d6 35 3e 2b ad bf 3e ba 85 86 3e aa 7b 14 be
       0.17757492 0.37436804 0.262739 -0.14500299
000260 16 70 82 be 6a dd ba 3e b0 e8 65 be 49 83 ef be
       -0.2547614 0.3649705 -0.22452044 -0.4677985
000270 5e bd 1a ba 8f 09 80 be 27 bf eb be d5 b8 48 bc
       -0.00059028517 -0.25007293 -0.46044275 -0.012251099
000280 4f ee c8 bd 4a a1 f5 3e 09 49 a8 be 40 71 cb 3d
       -0.09811079 0.47974616 -0.3286822 0.0993371
000290 69 c3 b8 3e 06 9c 26 bc 3d 0c 8e be 48 21 c2 3e
       0.36086586 -0.010169035 -0.27743712 0.37916017
0002a0 9c e9 8a 3e 66 df be be c9 8b 28 3e dc d6 c6 be
       0.27131355 -0.37279814 0.16459574 -0.388358
0002b0 32 d3 aa 3e fd 7c 5a be 0f 1c cb be 85 b1 a0 be
       0.33364254 -0.21336742 -0.39669845 -0.31385437
0002c0 b1 04 c4 3e 53 55 bc bc 63 3f e5 be 10 47 f0 be
       0.3828483 -0.022989905 -0.44774923 -0.46929216
0002d0 55 ca 66 3e 00 5d 9b 3d 6f 5a e9 bc 4d 1e 51 bd
       0.22538121 0.07586098 -0.028485505 -0.051054288
0002e0 15 51 e3 3c f8 1a 1f 3e 05 90 fb bd d6 b0 e1 3e
       0.027748624 0.15537632 -0.12283329 0.44080228
0002f0 bf be 62 be 4e 02 08 be a0 2a 4b be 94 76 5f be
       -0.22143076 -0.13282129 -0.19840479 -0.21822578
000300 f8 05 db 3e aa 30 ff be f0 04 ab be 1c 40 91 be
       0.4277799 -0.49841815 -0.33402205 -0.28369224
000310 77 08 b6 3e 13 19 86 be 25 4f a8 3e 02 5b 3c bd
       0.35553333 -0.26191005 0.32872882 -0.04598523
000320 7a 53 7a 3e 53 ef 38 3e 19 f6 3f be f8 62 e9 be
       0.24445906 0.18060045 -0.18746223 -0.4558332
000330 af 66 cf be 1d 64 49 3d 5c 0d b8 3e a7 8f 14 3e
       -0.4050803 0.04916774 0.35947692 0.14507924
000340 20 17 d8 3e c6 6c b7 bb 90 f3 96 3e 34 1b 03 be
       0.42205143 -0.0055976836 0.29482698 -0.12803346
000350 53 11 90 be c1 43 69 3e f9 9f d8 3e aa b3 87 be
       -0.28138217 0.22779752 0.4230955 -0.2650426
000360 3f d5 9a be 0e f6 e5 3b cc 1d 88 bd 7f c8 e5 be
       -0.3024082 0.0070178574 -0.06646308 -0.4487953
000370 01 82 8c be 6e 2e 9a bc 72 93 e1 3d 64 f1 b5 be
       -0.27442935 -0.018820968 0.11014451 -0.3553573
000380 4c 10 c3 3e 7e ce 29 be 69 ac 79 be ed fb d0 bb
       0.3809837 -0.16582677 -0.24382176 -0.006377688
000390 7a f4 c0 be d8 64 fa bd 2e 20 60 be 74 2a 34 3e
       -0.3768652 -0.12226266 -0.21887276 0.1759432
0003a0 72 7e 97 3e 98 4e cc be f2 88 b6 3d 6c 9f 8e 3e
       0.29588658 -0.39903712 0.08912839 0.27856004
0003b0 01 6c bc 3e 10 8b 02 bf 3e 35 b3 be e2 67 6b 3d
       0.3680115 -0.5099344 -0.35001558 0.057472117
0003c0 db 70 8f be 60 41 93 3e 39 7f cc be 26 d2 a1 3e
       -0.2801579 0.28760815 -0.39940813 0.31605643
0003d0 8c a6 46 3e c4 3e ec be 96 ef a3 be fe 93 92 be
       0.1939947 -0.46141636 -0.32018727 -0.28628534
0003e0 2d 45 5e bd 07 b2 6b 3e 1a 60 59 bd f6 da e5 bc
       -0.05426519 0.23017131 -0.053070165 -0.02805851
0003f0 a5 63 80 3e 75 0d 8e 3e c9 e1 ce 3e 7a 05 89 3e
       0.25076023 0.27744642 0.40406635 0.2676199

policy_model.0.bias f4 [64]
000000 39 a2 6d be 06 d2 eb 3e d0 d1 ef be 0b 84 8e 3e
       -0.23206414 0.46058673 -0.46839762 0.27835116
000010 be 12 d8 3e da 77 55 be 85 4e a1 be 47 86 fe 3e
       0.422018 -0.20846501 -0.31505218 0.4971182
000020 40 a8 fb 3e 77 71 c0 bd 4d 81 e6 3d fc 11 0e 3e
       0.49151802 -0.09396642 0.11255131 0.13874048
000030 a9 36 f5 bd 3d 67 6a 3d 1a f1 13 3e 97 b7 03 bf
       -0.11973316 0.057227362 0.14447442 -0.5145201
000040 e4 4a 4a be 0e fc 01 bf a1 64 f2 3d f8 bf e6 be
       -0.19755131 -0.5077523 0.118356 -0.45068336
000050 2f d4 87 be b8 2a 8f 3e 18 9e 97 be 21 d9 fa 3e
       -0.2652907 0.2796228 -0.29612803 0.4899378
000060 fe c4 db 3d 61 ca 63 3b 3b 63 26 3e f8 31 56 3e
       0.10730933 0.0034758078 0.16248791 0.20917499
000070 de c0 d7 3e fa 7a f1 3e 9a 16 da be 34 17 8f 3e
       0.42139333 0.47164136 -0.4259537 0.2794739
000080 61 bd 31 be 96 1c 91 3e 96 a4 f3 3d 6e 8d 3e 3e
       -0.17357399 0.28342122 0.11896627 0.18608639
000090 6c e8 eb be c9 dc 3b 3e 82 69 f0 3d f5 e8 01 3e
       -0.4607576 0.18345942 0.11738874 0.12686522
0000a0 56 60 7d 3e 05 25 f0 bd 1f 2a 52 3e 14 4b ad 3e
       0.2474378 -0.11725811 0.2052388 0.33846343
0000b0 84 e6 52 be 04 27 e0 3e c1 37 5a bd e4 33 a6 be
       -0.20595747 0.43779767 -0.053275827 -0.32461464
0000c0 13 e7 22 3e 58 aa f6 3e ef 47 e8 3e 31 1c d2 3d
       0.1590846 0.48176837 0.4536738 0.10259283
0000d0 f5 6e 9a be 69 7b 61 3e 93 cd 42 bd 04 a8 82 be
       -0.30162778 0.22019733 -0.047559332 -0.2551881
0000e0 9e f5 85 be f1 22 ad be 64 b8 cf be eb 4f 81 bd
       -0.26163954 -0.3381572 -0.40570366 -0.06314071
0000f0 9a 96 00 bd cb af 9e 3e 12 6b 02 3e 4d dc 5f bd
       -0.031393625 0.30993494 0.12736157 -0.054653455

policy_model.2.weight f4 [64, 64]
000000 c9 8d 9f bd 28 a7 c2 bb 34 88 9a 3d d7 bd de bd
       -0.07790715 -0.0059403367 0.0754551 -0.10876053
000010 4a 4a f9 bd 2d 1c de bc 56 53 e7 bd 8a 7a 0c be
       -0.12172373 -0.027113045 -0.11295192 -0.1371862
000020 b8 31 b0 bd f2 dd c2 3c 6a 1a 07 3d df 84 b1 bc
       -0.08603233 0.023787472 0.032984175 -0.021669803
000030 00 ea 07 bd 76 f2 01 be 03 61 b5 3d da 5f 4a bc
       -0.033182144 -0.12690148 0.08856394 -0.012351954
000040 1e 90 b8 bd ff 0e 84 3d a1 3d 57 bd 66 6e 7f 3d
       -0.09011863 0.06448173 -0.05254901 0.062361144
000050 a7 8b f0 bc 88 d3 6c 3d 41 f2 89 bd 26 54 0a be
       -0.029363466 0.05781892 -0.067356594 -0.13508663
000060 47 f2 32 bd 38 70 6d bd 62 09 79 3d b2 e2 a4 bd
       -0.043688085 -0.05796835 0.060799964 -0.08051051
000070 bc 13 01 3d 6a dd 97 bd 31 3d 04 3e 14 63 02 bd
       0.03151296 -0.07415278 0.12913968 -0.03183277
000080 fa fd 9a bd bd 4b 87 bc c9 23 a6 bb 6c cc cc bd
       -0.075679734 -0.016515607 -0.005070184 -0.09999928
000090 5c 10 e7 3b 0b 62 1f bd 17 fb 23 3d 11 c6 b4 3d
       0.0070515107 -0.03891186 0.04003438 0.08826841
0000a0 fa ff c6 bd f9 12 9a 3d 31 d1 c0 bd 30 c8 e2 3d
       -0.097167924 0.0752315 -0.094149 0.11073339
0000b0 cd f5 86 bd a4 af 0e 3d 8e 65 0a bd 5e 69 22 3c
       -0.065898515 0.034835473 -0.033788256 0.009912817
0000c0 1b 78 b3 bc f4 9c bf 3d 7d 82 ba 3d d2 8e 08 be
       -0.021907857 0.09356108 0.0910692 -0.13335732
0000d0 96 b3 ab 3d 05 43 c3 bd 10 fb 04 bd c9 7c 34 bd
       0.08383863 -0.09534267 -0.032465994 -0.044064317
0000e0 7b cf d7 bd 8b 70 e4 bd c8 48 29 3c ce 8e c2 bc
       -0.10537621 -0.11154278 0.010332294 -0.023749735
0000f0 6e 3b 7f bd 3b 9e a4 3c 26 15 51 bb 43 10 8d 3c
       -0.062312536 0.020094981 -0.0031903475 0.017219668
000100 91 b3 f3 3d 9c 4a 31 3d 96 10 fe 3d 0a fb 84 3d
       0.11899484 0.043284044 0.12405507 0.064931944
000110 c8 2c 13 bd ad c8 1f bd 9a 8c fc 3b 81 3e cf 3d
       -0.03593138 -0.03900974 0.0077071907 0.101193435
000120 cc 3d da bd 56 fc ce 3d 26 05 ce bc 86 7e 05 be
       -0.10656318 0.10106723 -0.02514894 -0.13036546
000130 fc 31 9c 3b 49 c9 6a 3d 5c b2 85 bd 5e 58 e5 3d
       0.004766701 0.057320867 -0.0652816 0.11198495
000140 8e 35 a3 bc b8 1b d9 bd 8e e4 94 3d 86 a1 62 3d
       -0.019922998 -0.1060099 0.07270156 0.055329822
000150 0a f3 c9 3c f5 7a 6a bd 63 ba 09 3e 8d d6 0a 3c
       0.024652023 -0.057246167 0.13450007 0.008474004
000160 a0 b6 75 3d 86 a1 6d bd e2 ee df bd 69 15 76 3c
       0.059988618 -0.05801537 -0.10934235 0.015019753
000170 6a 17 cf 3c e0 93 09 3d 05 2c 4b bc 77 56 82 3d
       0.02527972 0.03358829 -0.012400632 0.06364148
000180 ce 2b cc bd 0f 62 55 3d 32 0a b6 3d ac 0f 2b bd
       -0.099692926 0.05209547 0.08888663 -0.041762993
000190 7c d1 88 bd bc ab a1 bd 10 69 ba ba c5 e7 60 3d
       -0.06680581 -0.07894084 -0.0014221985 0.054908533
0001a0 b2 bc 15 bd 4d 8a 81 3d 4a 3b 11 bd 6f 68 00 3e
       -0.036556907 0.06325207 -0.035456933 0.12539838
0001b0 2c 56 03 bd 76 29 81 3d 6d a8 0d 3d a3 e6 b8 bd
       -0.0320646 0.06306736 0.03458445 -0.090283655
0001c0 d8 6e bb 3d 96 79 1f bd 20 f2 00 bd 1f d3 27 3d
       0.09152001 -0.038934313 -0.03148091 0.040972825
0001d0 ab 89 74 bd ab 62 65 bd 5a 55 85 bc 88 bc a0 bb
       -0.059701603 -0.0560023 -0.01627605 -0.004905287
0001e0 6f 92 e6 3d f0 78 9c bd 45 8f ea bd 74 3a c8 bd
       0.11258399 -0.076402545 -0.11453108 -0.09776774
0001f0 4b 64 08 be e3 6f 92 bd 26 16 f6 3d 5f 66 e2 bd
       -0.13319509 -0.07150247 0.12015943 -0.11054682
000200 80 ba bd bd 7f 35 99 bd 07 b2 85 bb 95 4e c8 bc
       -0.09264088 -0.07480907 -0.0040800604 -0.024451533
000210 57 dc 8b bd ac d6 99 bc 47 24 8c bd 4b d7 a3 bc
       -0.06829136 -0.018779121 -0.06842857 -0.02000012
000220 18 c9 f7 3d b6 48 fe 3c ee 03 5b 3d 6e 74 b7 bd
       0.120989025 0.03104053 0.053470545 -0.08957754
000230 80 1b 46 3d 17 51 70 3d ff d3 87 bd 30 d4 b8 3d
       0.04836607 0.058671083 -0.06632232 0.090248466
000240 e0 bb 1b be 93 63 cd 3d d4 26 11 3e 14 d4 85 bc
       -0.15208387 0.10028758 0.14174968 -0.016336478
000250 e6 9e ef bd d1 35 dd 3d 1f d2 15 be 81 9e a5 3d
       -0.11700229 0.1080128 -0.14630936 0.08086873
000260 dc 1d 1f 3d c5 45 e9 3d 07 7e bf 3d 55 2d c4 bd
       0.038846835 0.113902606 0.0935021 -0.09578959
000270 e2 5d ae 3c cf 2f 27 bc 47 81 4a bd 22 e7 2e 3c
       0.021285001 -0.01020427 -0.049439695 0.010675224
000280 7b c8 36 bc e0 dc ca bc 50 88 5f bd 87 01 24 3c
       -0.011156197 -0.024763525 -0.054573357 0.01001013
000290 c5 bf b8 3d bc f6 e4 bd c9 a4 ee bd 99 43 56 3d
       0.09020952 -0.11179873 -0.11652524 0.05231056
0002a0 bc 1f b5 bd f9 b5 8c 3c d0 b0 9c 3c 5f a3 d6 3d
       -0.088439435 0.017176615 0.01912728 0.10480379
0002b0 a7 fd 0f be 1d 82 a1 bd b7 be b9 bd cf c1 d4 3d
       -0.14061604 -0.07886145 -0.09069579 0.103885286
0002c0 ab b7 3f bc 5c e6 4c 3d 59 19 96 3d db 8f 03 3e
       -0.011701505 0.050024375 0.073290534 0.12847845
0002d0 5e 6d 81 bc e4 47 ed bd 8a f4 df 3d 2d 59 76 bd
       -0.01579922 -0.11585978 0.10935314 -0.06014364
0002e0 eb 44 f4 bd b6 3e bc bd 7a 4a b7 3c 32 ab c8 bd
       -0.119272076 -0.09191649 0.02237438 -0.09798278
0002f0 7e 2d 6c 3d d1 3d 12 bd d5 fe af 3b f8 67 7c 3d
       0.057660572 -0.035703484 0.0053709545 0.06162259
000300 cb 2f 4c bd 4c a0 c5 3d 25 b5 f1 bd ba 89 28 bd
       -0.049850266 0.09649715 -0.11802129 -0.04114697
000310 a1 96 c7 bd 8d 42 d5 3c 10 63 b8 3d c8 5f 3b 3d
       -0.09745527 0.02603271 0.0900327 0.04574564
000320 ed 9e 84 3c 7c a1 8e 3d c1 98 8c 3d e2 62 de bd
       0.016189063 0.069643945 0.06865073 -0.10858704
000330 44 04 d5 3d d6 0c 19 bd fc 61 b8 3d 8c 96 f3 bc
       0.10401204 -0.037365757 0.09003064 -0.029734872
000340 91 35 56 3d 64 fe 96 bc 0b d8 76 bd fe 85 81 3d
       0.05229718 -0.01843185 -0.06026463 0.06324385
000350 28 25 64 3d 42 37 1a bd 36 58 75 bd e8 d6 85 bd
       0.055699497 -0.037650354 -0.059898578 -0.06535131
000360 c4 0c a5 3b f3 45 df bd 18 0b 48 3c dc 9b e7 bb
       0.005036922 -0.10902014 0.012209676 -0.0070681404
000370 3a 45 e0 3d 14 5b b6 3d 66 87 6a 3d 33 9c 9f bd
       0.10950704 0.089040905 0.057258032 -0.077934645
000380 26 6b d3 3c ac a8 5e bd 9d 21 a7 bd c9 05 c7 3d
       0.025807928 -0.054360077 -0.08160708 0.097179
000390 03 39 d0 bd b4 00 93 3c d8 0a 8b bd 60 b2 65 3d
       -0.10167124 0.017944671 -0.06789178 0.056078315
0003a0 1f d8 ce 3c 84 a0 9e bc e3 5a 05 bd d1 c9 b6 3d
       0.025249539 -0.01936365 -0.03255738 0.08925212
0003b0 90 02 06 3c c6 f0 df bd 63 11 3d bd c7 e9 9e bd
       0.008179322 -0.10934596 -0.04615916 -0.07759433
0003c0 f7 dd d7 3d d8 47 99 bd 78 c2 8e bd 83 a0 cb 3d
       0.10540383 -0.07484406 -0.06970686 0.099427246
0003d0 32 6a 57 bd 52 05 bf 3b a2 b9 30 bd d9 bc b9 3d
       -0.05259151 0.0058294917 -0.043145783 0.09069223
0003e0 c9 5f b1 bb ed 29 9d 3d ff 1f fb bb e5 89 21 bd
       -0.00541303 0.07674012 -0.0076637263 -0.039438147
0003f0 ec c8 db bc d0 8f c8 bd 32 54 07 3d 9f fd db 3d
       -0.026829205 -0.09793055 0.03303928 0.10741734

policy_model.2.bias f4 [64]
000000 c7 23 83 bd d3 82 50 3a fd 6e ca bd 21 89 e1 bc
       -0.06403308 0.00079540646 -0.098844506 -0.027531208
000010 af 5b e9 3c 60 14 b8 3d b4 b2 20 bd 9c 64 02 3e
       0.028486101 0.08988261 -0.039232925 0.12733692
000020 41 a4 f0 3b 24 e2 8e 3d fa f4 97 ba ce d3 c8 3b
       0.0073437993 0.06976727 -0.0011593394 0.0061287647
000030 b6 27 8a 3c b0 16 c7 bd 71 09 95 bd 9e 3e 1a bd
       0.016864639 -0.09721124 -0.072771914 -0.037657373
000040 b0 03 97 3d e9 d9 b2 bd f6 34 e5 3c ee f2 48 3d
       0.0737375 -0.08732969 0.027979355 0.0490598
000050 ef 45 ae 3d 8f 09 b5 3d 4f 9f 8d 3d 19 a1 8d 3d
       0.085094325 0.08839714 0.06915151 0.069154926
000060 33 c4 2b 3c ca d6 e9 bd be d3 ee bb e0 11 1e bd
       0.010483789 -0.11417921 -0.007288425 -0.038591266
000070 0c 7f 1f bd 1e 30 86 3d c7 19 08 3e da 0f 15 3d
       -0.03893952 0.065521464 0.13291083 0.03639207
000080 57 aa a9 bd ab d1 8b 3c ae e8 54 3b 85 43 00 3d
       -0.08284443 0.01706775 0.003248732 0.03131439
000090 d6 b2 5a 3d 56 ff 5a 3d 3e 3b b4 bd d4 5a 50 bd
       0.053393207 0.053466164 -0.08800362 -0.05086787
0000a0 3d a1 da bd 93 ea a6 3d 6d 0e 4d bd ba 9d 4b bc
       -0.10675285 0.0815021 -0.050062586 -0.012427742
0000b0 57 58 10 bd 56 b6 33 bc 40 f2 df bd 9f ca a1 bd
       -0.035240497 -0.010968765 -0.109348774 -0.07899975
0000c0 bd e3 44 3c 8c 58 04 3c 6c 51 cb bd 71 cf be 3c
       0.012017188 0.008077752 -0.09927639 0.023292275
0000d0 90 ca 20 bd f2 34 9d bd 1e b8 7f bc 30 cd 04 3d
       -0.03925568 -0.07676114 -0.015607862 0.032422245
0000e0 71 79 04 3d 4f 65 4b 3b 0b 5d ca bd 64 d8 cc bd
       0.032342378 0.0031035726 -0.09881028 -0.10002211
0000f0 6b 1c 31 bd d5 49 30 bc ce 5c f0 bb a8 35 cb 3d
       -0.043239992 -0.01075979 -0.007335282 0.099223435

policy_model.4.weight f4 [1, 64]
000000 53 b7 a8 bd 74 82 1f bd d8 f9 09 3e e0 73 88 3c
       -0.08238091 -0.03894277 0.13474214 0.016656816
000010 96 1a aa 3d 76 7b 14 bb 54 40 b2 3d 74 08 37 3d
       0.08305852 -0.0022656596 0.08703676 0.044685796
000020 a9 91 c7 bd 6b d7 d6 3d 5b 19 cb bc 8a a6 98 bd
       -0.09744579 0.104903065 -0.024792364 -0.0745364
000030 54 98 b0 3d d0 9b 0a be a6 88 70 3d 96 51 9f 3c
       0.08622804 -0.13536 0.058724068 0.019448083
000040 15 e9 18 bc 5a a4 8b bc 28 44 2d 3d 3a f6 5b bd
       -0.009332915 -0.017046142 0.042301327 -0.053701617
000050 40 59 c6 3c 05 5e 69 bd 8d 1b f3 bb 3c b2 fc bd
       0.02421248 -0.05697443 -0.007419056 -0.12338683
000060 68 05 b4 3d 48 05 66 bc 44 10 2b 3d 3b 57 c5 bb
       0.08790094 -0.014039345 0.04176356 -0.0060223616
000070 1a d9 c0 3d bb ff e2 3d b2 56 9b 3d eb 8b 56 bc
       0.09416409 0.11083933 0.07584895 -0.0130948825
000080 a3 0f 08 be 3e f9 58 3d 06 14 9b 3d a8 17 ca bd
       -0.13287215 0.05297207 0.075721785 -0.09867793
000090 45 5d 88 3c c3 c2 1d 3c 7e 5d 08 be 49 62 fe bd
       0.016646037 0.009628954 -0.13316914 -0.1242109
0000a0 cc b5 06 be d3 8d bd bd 40 44 78 3d b8 ce 74 bd
       -0.13155288 -0.092555664 0.060611963 -0.059767455
0000b0 03 16 8b bc 79 97 45 bd 1c c4 8b bd 7f 6f a2 3d
       -0.01697827 -0.04824016 -0.06824514 0.079314224
0000c0 8e 1c 27 bd 2a 66 8f 3a 94 f1 46 3d 7b d9 cd bd
       -0.040798716 0.0010940481 0.04857023 -0.10051247
0000d0 43 67 c1 3c d2 ca d8 3d 43 04 f8 3d bb 4e 45 3d
       0.02360881 0.1058556 0.12110188 0.048170786
0000e0 c9 a6 04 3c f6 9d 80 3c 92 88 1b bd 03 ce 83 3d
       0.008096405 0.015700322 -0.03797204 0.06435778
0000f0 07 e5 c2 3d 25 9f b2 bd c7 ea ef 3d 58 63 ec bd
       0.0951634 -0.08721761 0.11714702 -0.11542386

value_model.0.weight f4 [64, 4]
000000 0c ef 63 be f6 c9 e7 be 86 f1 a9 3e 22 5c e5 be
       -0.22259158 -0.4527127 0.3319208 -0.44796854
000010 ca 8f 81 3e 00 89 59 3e b0 d5 d6 be 88 37 c2 3e
       0.25305015 0.21243668 -0.41959906 0.37932992
000020 ac f9 dd 3e ec c1 b4 be 64 6e 7f 3e d6 69 d1 3e
       0.43354547 -0.353042 0.24944454 0.4090106
000030 dc 23 86 3e b0 34 e9 bd 54 b3 92 be 20 fa 3f 3d
       0.26199234 -0.113870025 -0.28652442 0.046869397
000040 d0 00 5e be 60 f2 4e be f6 2d d0 be a0 ba 33 3d
       -0.21679997 -0.20209646 -0.40660065 0.04387915
000050 40 33 fb bd 80 a4 27 be f8 16 dc 3d 40 e8 ee bc
       -0.122656345 -0.16371346 0.107465684 -0.02916348
000060 0a 54 9b 3e 40 72 3a 3c 0c 99 03 3e 04 f4 a5 be
       0.30337554 0.011379778 0.12851351 -0.32412732
000070 42 82 c5 3e 58 78 fc bd e0 1a 49 3e 0c 92 25 3e
       0.3857594 -0.12327641 0.19639158 0.16168994
000080 a0 d1 8c bc 20 95 cf 3d 78 aa f5 be fa be 9a 3e
       -0.0171898 0.10135865 -0.4798162 0.3022383
000090 00 c1 33 bc 6e 57 c6 3e 78 38 4b be 82 a9 c0 be
       -0.010971308 0.3873858 -0.1984576 -0.37629324
0000a0 b2 90 85 be 38 55 d0 3e 90 6a 02 3e 80 f8 0e bd
       -0.26086956 0.40690017 0.12735963 -0.034904957
0000b0 60 68 ae 3d 96 2a af be a0 5b 95 3c 3c d4 d3 3e
       0.08516002 -0.34212178 0.018232167 0.4137286
0000c0 d8 c5 e1 bd 30 e0 67 3d 00 58 af 3d 8a 01 d8 3e
       -0.11024064 0.056610286 0.085617065 0.42188674
0000d0 a6 26 90 be 50 57 6a bd 12 68 bf 3e 54 42 90 be
       -0.28154486 -0.057212174 0.37384087 -0.28175604
0000e0 b4 0f 09 3e 50 60 d3 be f2 8f 98 be 90 c0 72 bd
       0.13384897 -0.41284418 -0.29797322 -0.059265673
0000f0 50 c9 bf 3e 9c ff 21 be 20 3d 29 3d 00 2c a4 3b
       0.37458277 -0.15820163 0.04131806 0.005010128
000100 dc 13 ac be d8 77 e4 3e 58 b3 72 be 10 b6 8a 3e
       -0.33608902 0.44622684 -0.23701227 0.27092028
000110 f4 67 e7 be da 28 dc be 54 14 62 be ba 26 fb be
       -0.45196497 -0.42999917 -0.22078067 -0.49052984
000120 42 4b c0 3e 50 8c 51 be 58 22 e7 bd f0 00 ad 3e
       0.37557417 -0.20463681 -0.112858474 0.33789778
000130 dc 5a c6 3e 00 c8 d6 39 10 35 10 be 36 d2 a3 3e
       0.38741195 0.00040966272 -0.14082742 0.31996316
000140 34 d5 74 3e 88 ae f3 3e 7a c5 f3 be 78 d3 86 be
       0.23909456 0.47594094 -0.476116 -0.26333213
000150 dc 87 32 be 98 06 2a 3e 10 44 ee bd 58 ee ee be
       -0.17434639 0.16604078 -0.11634076 -0.46666217
000160 5c d1 43 3e 08 6a 17 3e 58 bc d1 bd a8 cd 07 3e
       0.19122833 0.14786541 -0.10241002 0.13262045
000170 02 2b a7 3e 84 21 4c 3e 90 db f3 3e 18 66 61 3e
       0.3265 0.1993466 0.4762845 0.22011602
000180 a8 61 10 be e4 34 fc 3e 66 e6 c0 3e a0 7d 92 3c
       -0.14099753 0.49259102 0.3767578 0.017882168
000190 00 4e c7 be 36 a7 cf be 50 12 2f be ee f6 df be
       -0.38926697 -0.4055726 -0.1709683 -0.4374308
0001a0 20 a4 c0 bc 10 a3 dc be 88 fc 1f be 2c db 85 3e
       -0.02351576 -0.43093157 -0.15623677 0.26143777
0001b0 48 1d d9 bd 50 b3 a6 3d 0c c2 af 3e d4 58 df 3e
       -0.10601288 0.0813967 0.34327734 0.43622458
0001c0 60 3d 66 3d 40 58 75 bd 90 a0 bf 3e f4 fb 27 3e
       0.056210876 -0.059898615 0.37427187 0.16404706
0001d0 cc 8a 78 3e 40 8e 95 3e a4 95 1f be 8c a5 3f 3e
       0.24271697 0.2921009 -0.15584427 0.18715495
0001e0 50 9b 28 3d c0 d7 53 bd e2 9d f2 be 74 fd ab be
       0.041163743 -0.051719427 -0.4738608 -0.33591807
0001f0 38 4e 1a be f4 8d ac be 68 f8 ef bd 04 7c c1 3e
       -0.150689 -0.33702052 -0.117173016 0.3778993
000200 24 df a0 be 34 dc a8 be 20 d5 50 be c0 83 80 bd
       -0.31420243 -0.32980502 -0.203938 -0.06275129
000210 90 d9 57 be d4 0a ef 3e d4 ac 5a be 78 c9 ed be
       -0.21079087 0.4668795 -0.21354991 -0.4644277
000220 a8 55 62 3e 9c f2 53 be c4 fd 1f 3e 0c b0 7c 3e
       0.22102988 -0.20698017 0.15624148 0.24676532
000230 40 ee c1 be 34 7d 0c be 12 96 a3 be 24 20 1b be
       -0.37877083 -0.13719636 -0.31950432 -0.1514898
000240 3c c5 bb be 8a 41 b6 be 2a 81 dd be 38 14 28 3e
       -0.36673915 -0.35596877 -0.43262607 0.16413963
000250 74 d8 59 be 00 63 a4 be f0 0e 7d bd 7c 56 14 be
       -0.21273977 -0.3210678 -0.061781824 -0.14486116
000260 f0 e5 b2 3e 30 b0 33 bd 8c ce b1 be f2 ce c4 be
       0.34941053 -0.043869197 -0.34727895 -0.38439137
000270 ea 29 bd 3e 0c 80 49 3e e0 0c f1 be c8 7c 8c be
       0.3694604 0.19677752 -0.47080135 -0.2743895
000280 42 45 ed 3e b8 a9 83 3e 80 33 70 bd f0 f5 1d 3d
       0.46341902 0.25715423 -0.058642864 0.038564622
000290 bc 12 20 be 96 93 92 be c0 a3 50 bc 14 1a a2 be
       -0.15632147 -0.28628224 -0.012734354 -0.3166052
0002a0 7c 9a 2e be ca 00 c4 3e fa 8b ef 3e cc 45 e9 be
       -0.17051119 0.38281852 0.4678648 -0.45561063
0002b0 2c b1 72 3e d0 b5 2c bd 00 fb a0 bb 48 dd 5c 3e
       0.23700398 -0.042165577 -0.004912734 0.21568787
0002c0 14 b5 0f be c0 49 23 3d 5c 00 84 3e 94 1f d8 be
       -0.1403392 0.039865255 0.25781524 -0.42211592
0002d0 18 ef c4 3e 82 ff f4 be 70 78 ab be be 18 87 3e
       0.38463664 -0.47851187 -0.33490324 0.26386064
0002e0 8c 49 e7 be c0 ae 96 bd 64 81 5c be 08 51 10 3e
       -0.451733 -0.0735755 -0.21533734 0.14093411
0002f0 80 f1 53 be 3e aa 8c be f2 0f e5 3e 58 eb 37 be
       -0.20697594 -0.27473634 0.44738728 -0.1796087
000300 60 a6 89 3e 18 60 70 be 58 e0 44 3e da c4 f4 be
       0.26884747 -0.23474157 0.19226205 -0.47806436
000310 00 84 39 3a c6 fb f0 be bc 51 eb 3e a4 94 16 3e
       0.00070768595 -0.47067088 0.45960796 0.1470514
000320 38 ea e0 3e b4 fa 5c 3e e6 ab f6 3e 50 ac 4c 3d
       0.43928695 0.2158001 0.48178023 0.049969018
000330 e8 44 f4 3d f0 f8 f8 bd 12 25 f6 3e c6 80 e1 3e
       0.11927205 -0.12156856 0.48075157 0.4404356
000340 cc 7e 46 be 18 72 38 be 90 09 8d 3e e0 2d 51 3d
       -0.19384307 -0.18012273 0.27546358 0.05106914
000350 f8 3d ba 3e 7c 30 64 3e c4 52 cb be 54 9c de be
       0.36375403 0.2228412 -0.39711583 -0.43478644
000360 b4 8e 30 3e a0 50 ec bc 04 0f 65 3e 74 c0 4d be
       0.17241937 -0.028847039 0.2236901 -0.20092946
000370 58 d0 fa bd 16 a1 b1 be ac 4a 07 be 00 04 5f ba
       -0.1224677 -0.3469321 -0.13212079 -0.0008507371
000380 3c 9a 5c be 94 40 b8 3e 5c b6 76 3e 84 6c 3d be
       -0.2154321 0.3598677 0.24093002 -0.18498427
000390 a0 5f 08 3d cc 8d 17 3e 5e 49 ca be 98 13 fc bd
       0.03329432 0.14800185 -0.395091 -0.12308425
0003a0 bc 1a d5 be ba 64 da be be 98 b9 3e 40 06 2c bc
       -0.4162196 -0.42654973 0.36249346 -0.010499537
0003b0 c8 d1 a2 be 10 08 34 3d 68 c9 54 3e a8 d9 bc bd
       -0.31800675 0.043953 0.20779955 -0.09221202
0003c0 34 2d eb be 56 af b0 3e 48 21 92 be 44 f7 27 be
       -0.45932925 0.3450877 -0.28541017 -0.16402918
0003d0 22 bc 97 3e 90 5e 72 3d be ed 98 be 70 d8 73 3e
       0.2963572 0.059172213 -0.29868883 0.23813033
0003e0 66 fb af 3e c2 31 87 3e 32 bc cf 3e 50 9b 03 3e
       0.3437149 0.2640515 0.4057327 0.12852216
0003f0 b4 ce 9d 3e 1e 5b e5 3e 1e c7 a2 3e 40 85 0a 3c
       0.30821764 0.4479608 0.3179254 0.008454621

value_model.0.bias f4 [64]
000000 60 da a0 bd 90 d8 7d 3d 00 65 99 3c 74 85 a6 3e
       -0.07854152 0.06197411 0.018724918 0.32523692
000010 08 2c 80 3e c2 e7 b7 3e b0 a4 af 3d 44 db 93 3e
       0.25033593 0.35919005 0.085763335 0.28878224
000020 92 a3 84 3e e0 71 d9 3e c0 13 4c 3c 40 78 7c 3d
       0.25906044 0.42469692 0.012455881 0.061638117
000030 a0 1d a0 bd ac d4 bd be 08 68 13 be 54 1a 90 3e
       -0.078181505 -0.37076318 -0.14395154 0.28145087
000040 60 1b 86 3c d8 3a f8 3e 72 38 c4 be 6a 13 90 be
       0.016370475 0.48482394 -0.38324314 -0.28139812
000050 f0 da b5 bd c0 77 bb bd 60 5c f4 be 60 f8 95 be
       -0.0887965 -0.091537 -0.47726727 -0.29291058
000060 34 79 6d be ac 34 61 be ac b7 e7 3e 50 b9 f1 3d
       -0.23190767 -0.21992749 0.45257318 0.11802924
000070 b0 6c 0f bd c0 51 66 3e 5a 13 b7 be 64 09 98 3e
       -0.03501576 0.22492123 -0.35756952 0.29694664
000080 f6 c5 a1 be a8 81 63 3e 10 67 2a 3d 62 21 cb 3e
       -0.31596345 0.22217429 0.041602194 0.39673907
000090 4c 26 78 3e 58 f0 1a 3e 1c ea fb be 20 5f 0f 3e
       0.24233359 0.15130746 -0.4920205 0.14001131
0000a0 c4 5e 44 be 8e 2c de be 00 c7 05 3e da a7 aa 3e
       -0.19176775 -0.43393368 0.13064194 0.33331186
0000b0 9c 40 b7 be a0 e2 f6 bd c0 de 9d 3d 70 86 0e 3d
       -0.3579148 -0.12054944 0.07708502 0.03479618
0000c0 b0 95 25 bd 78 50 07 3e 12 a6 a8 be 80 ae f5 3e
       -0.040425956 0.1321429 -0.32939202 0.47984695
0000d0 b4 f3 6e 3e 80 54 36 be f6 ee c6 be 58 d2 b1 3d
       0.23335153 -0.17805672 -0.38854188 0.08682698
0000e0 84 73 48 3e bc 20 2a be a8 d1 d7 3d da 8f a0 be
       0.19575316 -0.1661405 0.10538036 -0.3135975
0000f0 a8 1e 0f 3e 96 3c fd 3e da 15 bc be 80 5e c2 bb
       0.13976538 0.49460286 -0.3673542 -0.0059316754

value_model.2.weight f4 [64, 64]
000000 68 ff 18 bd d2 39 d4 3d 4e bb ea bd 2a ff df 3d
       -0.03735295 0.10362591 -0.11461507 0.109373406
000010 5c 01 7a bd 80 70 2a bd 1e e0 fd bd 08 7a 08 bd
       -0.061036453 -0.041611195 -0.123962626 -0.033319503
000020 00 a5 4b bc 12 22 b4 bd 3e 19 b5 3d 4e 29 d1 3d
       -0.012429476 -0.08795561 0.08842705 0.10212956
000030 58 54 dd 3d 80 da ab 3b f4 f2 75 3d 10 57 47 3d
       0.10807103 0.005244553 0.06004615 0.048667014
000040 4a 50 b8 3d 30 da b4 3d d0 a2 8e bd 00 80 e2 b6
       0.08999689 0.088306785 -0.06964648 -6.750226e-06
000050 a6 05 df bd 3c ba 07 bd fc 07 4d bd bc d7 0f bd
       -0.10889749 -0.03313659 -0.050056443 -0.03511785
000060 a0 c3 85 3d 84 78 b6 bd 54 27 da 3d 00 9a 37 3d
       0.06531453 -0.08909705 0.106520325 0.0448246
000070 02 a1 9c 3d c6 ee 82 bd f4 99 ff 3d 20 49 12 3c
       0.07647897 -0.06393199 0.12480536 0.008928567
000080 06 a2 d3 3d 6e 93 cf 3d 44 72 6f 3d cc ce 78 bd
       0.10333638 0.10135542 0.05845858 -0.060744092
000090 64 6a 9e bd 30 e6 33 bd 1c ef 26 3d 6e 13 b3 3d
       -0.07735136 -0.043920696 0.040755376 0.0874394
0000a0 ac 66 ce bd f2 09 c5 bd ee fd cb 3d 86 30 ce bd
       -0.10078177 -0.096210375 0.099605426 -0.10067849
0000b0 3c 55 2f bd 34 e1 41 bd 6c f2 b5 3d 68 05 72 bd
       -0.042805895 -0.04733391 0.08884129 -0.059087187
0000c0 e4 12 96 3d 0a 6b ee 3d ca 4e 91 3d ea a2 87 3d
       0.07327822 0.1164151 0.07095106 0.0662287
0000d0 4c 55 38 bd 06 71 91 3d b2 77 c2 3d 06 ca e9 3d
       -0.04500322 0.07101636 0.09495486 0.11415486
0000e0 90 1f 12 3c 1a ee d1 bd b4 df 4f 3d 3a 3e c8 3d
       0.008918658 -0.102504924 0.05075045 0.09777494
0000f0 18 c6 86 3d c8 90 b7 bc 70 e1 cf 3d 00 ee fa bc
       0.06580752 -0.022407904 0.10150421 -0.030631065
000100 90 7b 41 bc e0 b0 72 3d a8 ef e1 bc a0 69 c0 3b
       -0.011809245 0.059250712 -0.027580097 0.0058719665
000110 2e 45 b3 3d 3c 15 6f 3d 48 c9 0d bd e0 12 e8 bd
       0.08753429 0.05836986 -0.034615785 -0.11331725
000120 58 d7 95 bc a8 45 2b 3d 8e 07 ec bd ac bc 6b 3d
       -0.01829116 0.041814476 -0.115248784 0.05755298
000130 a0 1b c9 3c b0 5d a0 bc ce 20 de 3d 3e 1f 93 bd
       0.024549305 -0.019575924 0.10846101 -0.07183693
000140 e0 4f 55 bc 58 2e 5b 3d 88 b6 d5 3d 48 8b be bc
       -0.013019532 0.053510994 0.10435206 -0.023259774
000150 1c 87 d4 bd 98 38 95 bd 24 7b 90 bd 00 de ba bb
       -0.103773326 -0.07286185 -0.07054737 -0.005702734
000160 e0 04 f2 3d 10 c1 eb 3d 34 1f 66 3d 34 23 41 bd
       0.11817336 0.11511433 0.0561821 -0.047152713
000170 b0 6c 66 bc a0 3b b5 bc 74 56 40 3d 3c 0b 02 bd
       -0.014063999 -0.022123158 0.046957448 -0.031748995
000180 d4 ef 2b bd e0 c1 fa 3d 00 2b 8b bc 98 9f df 3d
       -0.041976765 0.1224401 -0.016988277 0.10919112
000190 b0 fb 81 bd c6 ff e3 bd 80 dc 25 bb 3e bd b1 bd
       -0.06346834 -0.11132769 -0.002530843 -0.08678673
0001a0 5e ba f3 bd 70 cc bc bc 4c 17 d9 bd d0 21 80 3d
       -0.11900781 -0.023046702 -0.10600147 0.06256449
0001b0 d0 bd b0 3c 70 2f 65 bd f4 2f 8b bd f0 a0 a9 bd
       0.021574885 -0.055953443 -0.06796256 -0.082826495
0001c0 fe 5b d5 3d ec c5 2c 3d d8 f4 98 3c d0 df 16 bc
       0.10417937 0.04218094 0.018671438 -0.0092086345
0001d0 30 3f ca 3d 54 8e 1a 3d d0 bb 4c bc 90 03 6b 3c
       0.09875333 0.03773339 -0.01249595 0.014344111
0001e0 ac a8 0b bd e0 94 1f bd 50 f5 82 bd 20 00 c4 bc
       -0.034096405 -0.038960338 -0.06394446 -0.02392584
0001f0 b0 14 db bd 3c ea 43 3d a0 cb 57 bc f6 fc b0 3d
       -0.10697305 0.047830805 -0.013171107 0.086419985
000200 ae 3f 9f 3d 62 c5 f2 3d 40 68 b5 3d f0 b7 bd bd
       0.07775818 0.11854054 0.08857775 -0.09263599
000210 e4 55 b3 3d 70 ef d9 3c be 4a 8e bd 24 a2 73 bd
       0.08756617 0.02660343 -0.0694785 -0.0594808
000220 82 2a 8d bd ea 76 a0 bd 90 89 4a bd 8a ed c1 bd
       -0.06892873 -0.07835181 -0.049447596 -0.09469135
000230 fc b6 a5 3d fe 20 ae 3d c4 cc 72 3d 48 65 74 3d
       0.08091542 0.085023865 0.05927731 0.0596669
000240 2e 0b 99 3d a0 87 fb bd 08 df 87 3c b8 b5 ce bd
       0.074728355 -0.12281728 0.016585842 -0.10093254
000250 40 c6 42 3b 78 5a 98 3c 10 9e ab 3c a4 0b 5b bd
       0.0029720217 0.018597826 0.020949394 -0.0534779
000260 ac ed b4 3d 2e 88 f4 bd ea e4 98 3d 48 7b fc 3c
       0.08834395 -0.11940037 0.07465537 0.030820504
000270 32 ca fc bd 40 a5 92 bc bc 73 04 3d 86 68 d6 3d
       -0.12343253 -0.017901063 0.032336935 0.10469155
000280 a8 e6 9a bc c2 69 ab bd 66 b5 8c bd 40 6b cc bd
       -0.018908814 -0.08369781 -0.068705365 -0.09981394
000290 80 3b 85 3c 62 07 f0 3d 40 5a 0d bb d0 7c 84 3d
       0.016263723 0.11720158 -0.0021568686 0.064691186
0002a0 70 21 65 3c c8 61 a3 3c 40 2d 19 3c 20 21 d0 3d
       0.013985023 0.019944087 0.009349167 0.10162568
0002b0 7e db 81 3d 38 0f 0d 3d f8 5d c3 bc 94 be 2f bd
       0.06340693 0.03443834 -0.023848519 -0.04290636
0002c0 b6 2a df 3d 04 0c da bd e0 a6 6c 3d 96 e7 9f 3d
       0.10896818 -0.10646823 0.057776332 0.078078434
0002d0 3e f0 ab bd 80 af f6 bd f2 43 d8 3d 80 e5 1f 3c
       -0.08395432 -0.12045193 0.105598345 0.009759307
0002e0 58 ea 8d 3c 04 1d b7 bd 98 ce 36 3d e6 e1 a4 3d
       0.017323658 -0.08941081 0.044630617 0.08050899
0002f0 28 ba 0a bd 04 72 bb bd 80 6a ab 3b 54 5b 0e 3d
       -0.03386894 -0.09152606 0.0052312016 0.034755066
000300 fe 9e bd 3d 5c 85 45 bd 70 1a 3c bd f8 2c 36 3d
       0.09258841 -0.048222885 -0.04592365 0.04447648
000310 40 0b 18 3d 50 b9 ad bc 90 41 c8 bd 50 50 47 bc
       0.037120104 -0.021206528 -0.0977813 -0.012165144
000320 c8 fc e6 bc c8 b5 42 bd e4 c0 38 bd 60 f0 89 bc
       -0.028196707 -0.04753664 -0.04510583 -0.016838253
000330 fa 49 d3 bd 20 ea fc 3b ec fe 18 3d 30 de 71 bd
       -0.10316844 0.0077183396 0.037352487 -0.059049785
000340 28 58 94 3c 8c bb c7 bd 08 37 35 bd 20 10 c5 bc
       0.018108442 -0.097525686 -0.044241935 -0.02405554
000350 d8 3a ef 3c 14 52 fa bd fa 2e ed 3d 10 5a bf bc
       0.029202864 -0.122226864 0.11581226 -0.023358375
000360 30 8d f5 3c 54 0e 71 bd 08 90 e9 3d d0 aa ae bc
       0.02997455 -0.058851555 0.11404425 -0.021321684
000370 7a 40 b7 3d 50 e7 05 bc 48 e7 95 3c 70 f8 31 3c
       0.08947845 -0.008172825 0.01829876 0.010862455
000380 64 b5 e8 3d 16 9e ac 3d 7c 95 c3 bd e8 c9 8c bd
       0.113627225 0.0842859 -0.09549996 -0.06874448
000390 bc ce c3 bd b8 da 76 3d 00 be 6a ba 0c 28 f6 3d
       -0.09560916 0.06026718 -0.0008954704 0.12019357
0003a0 20 41 dd bd c8 a9 f5 bd 08 9d e8 bc 8c f9 75 bd
       -0.10803437 -0.11995274 -0.02839519 -0.06005244
0003b0 9c f0 4b bd 84 d9 98 3d 8c 2a fe 3d ec 7a d8 3d
       -0.04979001 0.07463363 0.12410459 0.105703205
0003c0 26 44 a4 bd 24 1d 86 3d bc 1d 03 3d 66 45 b2 bd
       -0.08020811 0.06548527 0.03201078 -0.08704643
0003d0 7c 30 1c 3d 06 6b c8 bd 68 9c 93 bd f8 8c dc bd
       0.038132176 -0.09786038 -0.072075665 -0.10769075
0003e0 8c e5 9a 3d 5a 09 f8 3d 04 85 fc 3d 20 17 15 bd
       0.07563314 0.12111159 0.12330058 -0.036399007
0003f0 98 2d 7d bd d4 96 a5 bd b8 71 0c 3d e8 6d c2 3c
       -0.06181106 -0.08085409 0.03428814 0.023734048

value_model.2.bias f4 [64]
000000 d4 1e 4c 3d 4c 08 9c 3d 14 17 38 3d 90 49 71 bc
       0.049834087 0.0761877 0.044943884 -0.014727011
000010 74 65 76 bd 4a 6b e0 bd 96 b2 8e bd a8 85 d9 bc
       -0.060155347 -0.10957964 -0.06967656 -0.02655299
000020 2a f2 ae 3d 4e 1e f6 bd 72 d7 b1 3d f6 85 db bd
       0.08542283 -0.12017499 0.08683671 -0.107189104
000030 00 35 40 3b 88 41 48 bd e8 5a 8f bd 36 c8 f3 3d
       0.0029328465 -0.04889062 -0.06999761 0.119034216
000040 5c 8b 4f 3d e8 ff ce 3d 40 e5 6d bb 70 5a 97 3d
       0.050670013 0.10107404 -0.0036299974 0.073902965
000050 34 91 a5 3d 6c 66 0f bd 7c 9d 10 3d 44 32 7f 3d
       0.08084336 -0.035009786 0.03530644 0.062303796
000060 cc 31 0d bd 4c 1f 4a 3d 00 d8 9a bd 96 a6 b4 bd
       -0.034471318 0.049346253 -0.0756073 -0.08820836
000070 e0 05 eb bc 58 f3 26 bd 3e 4f 8b 3d 2a a0 8f 3d
       -0.028689325 -0.040759414 0.068022236 0.07012971
000080 c0 c9 6a bc 56 2e c4 3d 08 ef bd bc aa 82 d5 3d
       -0.0143303275 0.095791504 -0.023185268 0.10425313
000090 10 06 4a bd ec 34 f4 3d 38 20 a7 bc e0 cb b9 3b
       -0.049322188 0.119241565 -0.020401105 0.0056700557
0000a0 44 37 e3 bd 3c 0a 26 3d f8 5d 56 bd d4 f3 a8 3d
       -0.110945255 0.040537104 -0.05233571 0.082496315
0000b0 20 e5 07 3d 00 1f 4e bd 0c 70 85 bd 98 89 a8 3d
       0.033177495 -0.050322533 -0.06515512 0.08229369
0000c0 88 44 cc 3c 6a 70 e2 3d a0 8b da bb f8 d2 31 3d
       0.024935022 0.110565975 -0.0066694766 0.043414086
0000d0 28 9f eb 3d 00 a2 52 bd 3c 06 33 3d 98 3f 5e bd
       0.11504966 -0.051424026 0.043707117 -0.054259866
0000e0 b2 9b e3 3d 12 54 fd 3d 54 9b 0a bd 94 3e 15 bd
       0.11113681 0.12369551 -0.03383954 -0.036436632
0000f0 e0 3b c0 3d c8 74 bc bc fc 7a ca 3d 94 a8 f6 3d
       0.0938642 -0.023004904 0.09886739 0.120438725

value_model.4.weight f4 [1, 64]
000000 08 87 08 3d 62 a6 df bd e8 b2 a7 3d 12 02 df 3d
       0.0333319 -0.10920407 0.081884205 0.10889067
000010 70 2b 15 bd fc 5c eb bd 26 4c d7 3d 2c 55 dd 3d
       -0.03641838 -0.11492345 0.10512571 0.10807261
000020 04 8c a7 3d 54 72 0a 3d 46 34 8c 3d cc ce 27 bd
       0.08181003 0.033800438 0.06845908 -0.0409687
000030 00 a6 e8 3a 5c 29 19 3d a4 72 69 bd 5e 00 f0 3d
       0.0017749667 0.03739296 -0.056994095 0.1171882
000040 f6 f3 ed 3d be db 81 bd e8 14 ef 3d f0 e5 4f 3c
       0.116187975 -0.063407406 0.116739094 0.012689099
000050 5a 23 b9 3d 2e db c4 3d 7c 6d b5 3d cc 88 5f 3d
       0.09039946 0.09612118 0.08858773 0.05457382
000060 16 c4 fc 3d c4 92 bf 3d 92 9d a4 bd 18 e8 4c 3d
       0.12342088 0.09354165 -0.08037867 0.05002603
000070 b8 f0 dc bd e8 15 9a 3d 88 a7 37 bd b2 cf 83 bd
       -0.10788101 0.075237095 -0.044837505 -0.06436099
000080 40 1d de 3b e4 a1 31 bd 56 50 f6 3d a0 6f 2c bc
       0.006778389 -0.04336728 0.120270416 -0.01052466
000090 40 ab 84 3d 00 ce 44 3a ae 5d e8 bd 50 25 18 3d
       0.06477976 0.0007507503 -0.11345993 0.03714496
0000a0 48 ec ae 3d 90 63 22 3d e8 11 c7 bd 3c 1d e3 3d
       0.08541161 0.03964573 -0.09720212 0.110895604
0000b0 f6 c3 82 bd fa bc bd bd e0 fa 6a bd 58 3f 0b bd
       -0.06385033 -0.0926456 -0.05736816 -0.033995956
0000c0 80 b7 5b bb bc b6 97 3d 4a 38 ab bd c0 ab 95 3c
       -0.0033526123 0.07407901 -0.08360346 0.018270373
0000d0 48 89 a2 bd da f8 90 bd 98 f4 81 3d e0 06 71 bc
       -0.079363406 -0.07078715 0.06345481 -0.014711112
0000e0 54 cf cc 3d a8 3c e6 3c 68 81 fb bd a0 4f 63 3c
       0.10000482 0.028105095 -0.12280542 0.013873965
0000f0 48 2a df bc 90 9e 49 bd f8 6a 21 3d 4c 90 2b 3d
       -0.027241841 -0.049223483 0.039408654 0.04188566
