scripts/practical_rl_models/model_5000000.pth (torch, 41301 bytes, 10 tensors)

policy_model.0.weight f4 [64, 4]
00000000: aa7d c5be 4470 2c3b cf5f 543e c669 eebe
00000010: 13ba d0be 59aa cb3e 0fd6 943e 8393 9cbe
00000020: 5e57 b13e a83d 62be e9a4 a93e ff1b c13e
00000030: 0021 f13e 984e 413d 6153 8b3e 1b13 f53d
00000040: 3f1a f83c f380 a8be fcd2 abbe 4fa7 a5be
00000050: ba7a dd3e 76ba bb3d 33d5 f2bd 4a90 a93e
00000060: 9b6a 8f3e cd1b 90be 26a2 263e 13ab f03d
00000070: 4106 b13e 2e14 d53d a7f1 eb3e 9a01 ac3e
00000080: b180 16be 6c14 acbe b18e d6bd f0f5 8e3e
00000090: 19ac aa3e 20a4 59be d951 f8be ce5c 893e
000000a0: 5faa efbc dbf7 263e 85fd d23e e246 643e
000000b0: d5c4 babe 304b d33e 97c9 663e 0077 013f
000000c0: 9267 9ebe ae7b b83e 39ea 9fbe b3b6 ae3e
000000d0: 4c1c 9ebe 89a8 b3be 2745 003f 1190 cd3e
000000e0: 8dce d6be 12b9 5b3d a4db b13c ba7c b13c
000000f0: 74d0 f8be 9bbf 8ebd 3c94 68be 5bed 33bd
00000100: fd27 cdbd ebf1 8d3e 769d b7be 6c94 f5be
00000110: 45e1 e43c a5fe a2be 757e 59bd f468 dd3d
00000120: 3abb a6be 4fdf abbe 2b24 dfbd 7a0f e33d
00000130: 1e35 f9be 084a ac3e 04d3 73be 35ec c3bd
00000140: 9823 f03e 7cf2 b23e 302d e83d 95b3 f6be
00000150: 987e ae3e a67a 8a3d 6b11 04be 3492 81bd
00000160: f31c abbe 615d 823e 4398 31be 75f3 f3be
00000170: 97c9 03be 16a0 7c3d e8a4 d43a ef0f ef3e
00000180: dede d23d 6613 e6be 69c8 b03e ed04 a9be
00000190: 3bfc 693e b412 35bb 36b2 9f3e 7012 8c3e
000001a0: a0d8 debd 1a70 f8be eafa 0c3e e401 973e
000001b0: 140d b5be cd87 7abc fa3b b53e c4f2 e93e
000001c0: a6a3 82be a90f c63e 21d5 7a3e 63cb 2dbe
000001d0: b6c0 7bbc 827d 27bc 34c8 ad3e 4a57 3e3d
000001e0: cc4d 0e3e 1ee5 683e 5aff 263e 2319 953e
000001f0: efcd ce3e 7087 de3e 4328 433e 2675 9cbe
00000200: 348a bb3c 31ba 25be f15f 4e3c 782c 6d3e
00000210: c288 663e f643 93bc 5999 12bd d1e4 aa3d
00000220: d699 683b f8d6 f5bd 7b8e b63d ff75 debe
00000230: 00a8 b83e c260 86be 8584 c7bd f4cd 4ebe
00000240: 71fd 48bd 1cb8 6ebd 2d08 e8be fa21 923e
00000250: 50da 353e 52b6 bf3e 1198 863e 3f99 14be
00000260: 206b 82be 5fe6 ba3e c7c1 65be 8093 efbe
00000270: 3a7a 17ba 8801 80be 6bb4 ebbe 76c4 4abc
00000280: c902 c9bd 0392 f53e 175b a8be 3bbd cb3d
00000290: 40bb b83e c568 28bc 3321 8ebe 612f c23e
000002a0: 83f1 8a3e a8c9 bebe 74c6 283e 65e7 c6be
000002b0: 79d3 aa3e d466 5abe 2107 cbbe e5c3 a0be
000002c0: 5303 c43e 806a bbbc 8629 e5be ef59 f0be
000002d0: 22cb 663e cb39 9b3d 899d eabc 17a6 50bd
000002e0: 88e7 e23c 48fb 1e3e 90ee fbbd 04c0 e13e
000002f0: 84b4 62be 6eec 07be 4b04 4bbe 779c 5fbe
00000300: f706 db3e de2e ffbe af01 abbe 1545 91be
00000310: 7601 b63e fe25 86be 8e33 a83e 70ca 3bbd
00000320: 2351 7a3e 73fc 383e 05e1 3fbe 116b e9be
00000330: 4a68 cfbe e6e7 483d 59f5 b73e 58b2 143e
00000340: 9418 d83e 25ee b4bb d703 973e 0543 03be
00000350: 1c0d 90be 1058 693e 09b7 d83e 22c1 87be
00000360: 6dce 9abe e47b e93b a6c5 87bd afda e5be
00000370: ef7a 8cbe 5f65 99bc 70e6 e13d 23fd b5be
00000380: f714 c33e eaad 29be 9e76 79be fcfb d3bb
00000390: 87f8 c0be 1388 fabd b74a 60be 2042 343e
000003a0: cc79 973e e65b ccbe ed2c b63d f1af 8e3e
000003b0: cb68 bc3e 5f8f 02bf 1d49 b3be 69c4 6b3d
000003c0: 9f76 8fbe 1531 933e 6796 ccbe 92d6 a13e
000003d0: 4ca7 463e dd34 ecbe c2df a3be e3a0 92be
000003e0: 0376 5ebd fe92 6b3e 9d25 5abd 39e5 e4bc
000003f0: a162 803e 230f 8e3e a1df ce3e 0a01 893e
-0.38572437 0.0026312033 0.20739673 -0.46565074 -0.40766963 0.39778402 0.29069564 -0.30581293
0.34636968 -0.22093832 0.3313363 0.37716672 0.4709549 0.047194093 0.2721205 0.11966535
0.030285953 -0.3291088 -0.33559406 -0.3235421 0.43257695 0.09166424 -0.11857071 0.33117896
0.2801102 -0.2814621 0.16272792 0.1175138 0.34575084 0.104042396 0.46082804 0.33594972
-0.1469753 -0.3360933 -0.10476435 0.2792201 0.33334425 -0.21254015 -0.48499945 0.26828617
-0.029256044 0.16305487 0.41209045 0.22292665 -0.36478296 0.412683 0.22537838 0.50572205
-0.30938393 0.3603186 -0.31233385 0.34123763 -0.30880964 -0.3508952 0.5010552 0.40148976
-0.4195446 0.053643294 0.021711178 0.02166592 -0.48596537 -0.069701396 -0.22712797 -0.04392753
-0.10017393 0.2772363 -0.3586232 -0.479648 0.027939448 -0.31834903 -0.053099114 0.10811034
-0.32564718 -0.33568808 -0.1089557 0.11086936 -0.48673338 0.3365023 -0.23810965 -0.09566537
0.46902156 0.34950626 0.11336744 -0.48183885 0.34080958 0.067616746 -0.1289727 -0.06326714
-0.33420524 0.25461867 -0.1734324 -0.4764668 -0.12869869 0.061676107 0.0016223462 0.46691844
0.10296415 -0.44936675 0.345279 -0.3301157 0.22850125 -0.0027629556 0.31190652 0.27357817
-0.10881162 -0.48523027 0.13767591 0.2949363 -0.3536154 -0.0152911665 0.3539732 0.45693028
-0.2551548 0.38683823 0.24495365 -0.16972117 -0.01536577 -0.0102227945 0.33941805 0.046469964
0.13896865 0.22743651 0.16308346 0.2912074 0.4039149 0.43462706 0.19058327 -0.30558127
0.022893049 -0.16184308 0.012596116 0.23161495 0.22513106 -0.017976742 -0.035790775 0.083444245
0.0035492084 -0.12003893 0.08913895 -0.434494 0.36065674 -0.26245695 -0.09742073 -0.20195752
-0.049069826 -0.05828105 -0.45318738 0.28541547 0.17759061 0.37443787 0.26287892 -0.14511584
-0.25472355 0.36503884 -0.22437201 -0.4679222 -0.0005778406 -0.25001168 -0.46036085 -0.0123759415
-0.09814984 0.4796296 -0.32881996 0.09948202 0.3608036 -0.010278885 -0.27759704 0.37926772
0.27137384 -0.37263227 0.16481954 -0.38848415 0.33364466 -0.21328288 -0.39653876 -0.31399456
0.38283786 -0.022877932 -0.44758242 -0.46943614 0.22538427 0.075793825 -0.028639572 -0.050939646
0.027698293 0.15525544 -0.123013616 0.4409181 -0.22139174 -0.13273785 -0.19825856 -0.2183703
0.4277875 -0.49840444 -0.33399722 -0.28373018 0.3554799 -0.2620086 0.32851833 -0.045847356
0.24445014 0.18065052 -0.18738182 -0.45589498 -0.40509254 0.04904928 0.35929373 0.14521158
0.42206252 -0.005521553 0.29495117 -0.12818535 -0.28135002 0.227875 0.42327145 -0.26514536
-0.30235615 0.0071253646 -0.06629495 -0.44893405 -0.2743754 -0.018725095 0.110302806 -0.3554469
0.38101932 -0.16570249 -0.24361655 -0.006469248 -0.3768961 -0.12232985 -0.21903501 0.1760335
0.2958511 -0.39913863 0.08895288 0.27868608 0.367987 -0.51000017 -0.35016719 0.05756036
-0.28020188 0.28748384 -0.39958498 0.31609017 0.19399756 -0.4613408 -0.3200665 -0.28638372
-0.054311763 0.23005292 -0.053258527 -0.027941333 0.25075248 0.27745923 0.4040499 0.26758605

policy_model.0.bias f4 [64]
00000000: b4a6 6dbe a0d5 eb3e 18d2 efbe 5088 8e3e
00000010: fe10 d83e e482 55be 944a a1be fa8a fe3e
00000020: 2aa6 fb3e fb68 c0bd 358f e63d e61e 0e3e
00000030: 9318 f5bd d6ab 6a3d defb 133e eabb 03bf
00000040: 4152 4abe e700 02bf 6273 f23d 09c5 e6be
00000050: 51d4 87be 7f24 8f3e 459f 97be 0cda fa3e
00000060: f8dd db3d afd0 653b 036b 263e a240 563e
00000070: a6c5 d73e 8d83 f13e 7013 dabe 1d12 8f3e
00000080: e4b0 31be 6d20 913e 3b89 f33d de84 3e3e
00000090: 94df ebbe 2fd1 3b3e 385c f03d 6bed 013e
000000a0: a669 7d3e 3112 f0bd f91c 523e 9949 ad3e
000000b0: 00f4 52be 442e e03e 610c 5abd f337 a6be
000000c0: 5fe8 223e 6ab2 f63e b841 e83e 6732 d23d
000000d0: e06c 9abe 396f 613e 92f2 42bd 1bac 82be
000000e0: b6fd 85be 661b adbe b3b1 cfbe 4645 81bd
000000f0: d46d 00bd cbaf 9e3e 2975 023e 03d6 5fbd
-0.23208123 0.4606142 -0.46839976 0.27838373 0.42200464 -0.20850712 -0.3150221 0.49715406
0.4915021 -0.093950234 0.11257783 0.13878974 -0.11967578 0.05729278 0.14451548 -0.5145861
-0.1975794 -0.50782627 0.11838414 -0.450722 -0.26529172 0.27957532 -0.296137 0.48994482
0.107356966 0.0035067012 0.16251759 0.20923093 0.4214298 0.47170678 -0.42592955 0.27943507
-0.17352635 0.2834505 0.11891409 0.18605372 -0.46069014 0.18341516 0.11736339 0.12688224
0.24747333 -0.1172222 0.20518865 0.33845213 -0.20600891 0.43785298 -0.05323446 -0.3246456
0.15908955 0.48182994 0.4536264 0.1026352 -0.3016119 0.22015084 -0.047594614 -0.2552193
-0.2617013 -0.33809966 -0.4056526 -0.06312041 -0.03135474 0.30993494 0.12740006 -0.054647457

policy_model.2.weight f4 [64, 64]
00000000: ef4c 9fbd 9144 bebb 3a96 9a3d fa92 debd
00000010: 067e f9bd 1b4d debc 954c e7bd 3a69 0cbe
00000020: 4987 b0bd 4d53 c13c e396 073d a20c b1bc
00000030: d44d 08bd 9af5 01be 7a4d b53d 0563 4bbc
00000040: a079 b8bd f3f2 833d f9dc 57bd fe61 7f3d
00000050: ad02 efbc 88c1 6c3d 2fd1 89bd 8a74 0abe
00000060: 5bb2 32bd b324 6dbd c17b 783d 17df a4bd
00000070: b797 013d 9fb8 97bd bb51 043e 41cb 01bd
00000080: 8a29 9bbd d2a5 87bc 2a4e a3bb 73e5 ccbd
00000090: 8313 e23b e1bb 1ebd e835 243d 7e6e b43d
000000a0: bf0f c7bd c0c9 993d 63c1 c0bd 9897 e23d
000000b0: 170b 87bd 94aa 0e3d 9fcd 0abd 938f 213c
000000c0: 8762 b4bc b9b8 bf3d 8286 ba3d 3d79 08be
000000d0: 0403 ac3d f9e2 c2bd 85cc 04bd 590e 34bd
000000e0: 6efc d7bd f1ab e4bd 417c 283c 9dd1 c3bc
000000f0: 11d9 7fbd 41b3 a33c b214 4ebb 6afb 8d3c
00000100: c7ea f33d 6dbe 313d 9920 fe3d 841f 853d
00000110: 368e 13bd d0db 1fbd 411c fd3b 925c cf3d
00000120: fd84 dabd 04a8 ce3d c02d cdbc fa71 05be
00000130: 227b 993b 8dcb 6a3d 49c2 85bd f83d e53d
00000140: 55fe a2bc 5d30 d9bd 27a3 943d 9495 623d
00000150: 8238 cb3c 4d91 6abd d4c7 093e c838 093c
00000160: acef 753d 385e 6dbd 1526 e0bd 6948 763c
00000170: b7ee cf3c b6ce 093d 7400 4abc 3296 823d
00000180: 484b ccbd af37 553d ad2f b63d 2d3c 2bbd
00000190: a314 89bd 0166 a1bd 5048 b5ba 814e 603d
000001a0: 8ce0 15bd 3350 813d 331f 11bd a051 003e
000001b0: 7380 03bd 7724 813d a954 0d3d 57fb b8bd
000001c0: 283a bb3d a64a 1fbd 8bf2 00bd 0021 283d
000001d0: 6904 74bd a2c2 64bd 1a0f 85bc 73cf 9dbb
000001e0: b56d e63d baaa 9cbd 66a1 eabd b67f c8bd
000001f0: 4f85 08be e0a4 92bd 5e25 f63d 7833 e2bd
00000200: a5f3 bdbd f373 99bd cd0b 87bb 93fe c8bc
00000210: e8a7 8bbd c3bb 99bc 3733 8cbd a66c a4bc
00000220: b913 f83d 3ebe ff3c e388 5a3d 2893 b7bd
00000230: 6b84 463d 4a3e 703d 5ac1 87bd 20f4 b83d
00000240: d0be 1bbe 407b cd3d cb4b 113e 2f9c 85bc
00000250: 0af8 efbd bb41 dd3d 7adb 15be 8dd4 a53d
00000260: 89d4 1e3d ca1b e93d 6ebc bf3d f23a c4bd
00000270: aa6c ad3c dc51 28bc 4cd2 4abd e1a3 2c3c
00000280: a1a6 35bc 4a8c cabc 2ad4 5fbd d9bf 243c
00000290: 760b b93d 1848 e5bd ccb3 eebd c0ea 563d
000002a0: 0605 b5bd d5b5 8d3c b26a 9c3c b0d5 d63d
000002b0: 66ef 0fbe f37d a1bd e991 b9bd a9df d43d
000002c0: acf1 3dbc 3ea7 4c3d 5f1d 963d 6779 033e
000002d0: 0796 82bc 47a2 edbd 4ae7 df3d 90b8 76bd
000002e0: e61b f4bd 4e04 bcbd 638d b73c a95e c8bd
000002f0: 0ccf 6c3d 94cc 11bd bddd ae3b bff7 7b3d
00000300: 2881 4cbd ac73 c53d 69c1 f1bd c1c4 28bd
00000310: 7170 c7bd 565e d53c 115d b83d 8b2c 3b3d
00000320: 937a 853c 3de2 8e3d 2a70 8c3d 3f76 debd
00000330: 7527 d53d 850d 19bd 266e b83d 1a3b f3bc
00000340: ce24 563d cab9 96bc de74 76bd da8c 813d
00000350: 1aa6 633d ab29 1abd 0e7e 75bd d5b0 85bd
00000360: b69b a33b 7e5f dfbd a259 493c cbdc e7bb
00000370: ac1b e03d 9144 b63d 8f4e 6a3d 27cf 9fbd
00000380: 78c3 d33c df8c 5ebd 753c a7bd 0516 c73d
00000390: b304 d0bd f42a 923c 6a19 8bbd f328 663d
000003a0: 830f cf3c fdf2 9dbc f173 05bd abed b63d
000003b0: 857f 063c 4bee dfbd 4ad5 3cbd d3d8 9ebd
000003c0: af06 d83d 585c 99bd 44c3 8ebd 2a84 cb3d
000003d0: 89d0 57bd 912d bb3b d9d0 30bd 189c b93d
000003e0: aeae afbb 2a51 9d3d 423e fabb 3f1c 21bd
000003f0: 58f5 dabc aa66 c8bd d63f 073d 8bd5 db3d
-0.07778346 -0.0058065136 0.07548185 -0.10867877 -0.1218224 -0.027136376 -0.11293904 -0.13712016
-0.086195536 0.023599291 0.03310288 -0.02161247 -0.033277348 -0.12691346 0.08852668 -0.012413745
-0.09007573 0.06442823 -0.05270097 0.062349312 -0.02917608 0.057801753 -0.06729352 -0.13521019
-0.043627124 -0.057896327 0.060664896 -0.080503635 0.031638827 -0.074082606 0.12921803 -0.03168798
-0.07576282 -0.016558561 -0.004983683 -0.100047015 0.0068992986 -0.038753394 0.04009047 0.08810137
-0.097198 0.07509184 -0.094118856 0.110640705 -0.06593912 0.034830645 -0.0338875 0.009860891
-0.022019638 0.09361405 0.091076866 -0.13327499 0.08399013 -0.09515948 -0.032421608 -0.043958995
-0.10546194 -0.11165608 0.010283531 -0.023903662 -0.06246287 0.019982936 -0.003144544 0.017331798
0.119100146 0.043394495 0.12408561 0.06500152 -0.036024295 -0.03902799 0.0077243154 0.10125078
-0.10669897 0.1009064 -0.02504623 -0.1303176 0.004683868 0.057323027 -0.065311976 0.1119346
-0.019896666 -0.10604928 0.07257681 0.05531843 0.024807218 -0.057267476 0.13455135 0.008375354
0.060043022 -0.057951182 -0.109447636 0.015031912 0.025382383 0.0336444 -0.01232921 0.06376304
-0.09975296 0.052055057 0.08895812 -0.041805435 -0.06693389 -0.07880784 -0.0013830755 0.054762367
-0.036591098 0.06314125 -0.035430145 0.12531137 -0.03210492 0.06305783 0.034504566 -0.09032314
0.09141952 -0.03888955 -0.031481307 0.041047096 -0.05957452 -0.05584968 -0.016242553 -0.0048159896
0.11251394 -0.07649751 -0.114565656 -0.09789984 -0.13332103 -0.07160354 0.12018846 -0.11044973
-0.09274987 -0.07492819 -0.00412128 -0.024535453 -0.06819135 -0.01876629 -0.06845706 -0.020071339
0.12113137 0.031218644 0.0533532 -0.08963615 0.048466127 0.058653153 -0.06628676 0.09030938
-0.15209508 0.10033274 0.14189069 -0.016309826 -0.117172316 0.10803553 -0.14634505 0.080971815
0.038776908 0.113822535 0.09362112 -0.095815554 0.02116998 -0.010273423 -0.04951696 0.010537119
-0.011087091 -0.024725098 -0.054645695 0.010055506 0.09035389 -0.111953914 -0.11655387 0.05246997
-0.08838849 0.017298618 0.019093845 0.104899764 -0.14056167 -0.07885351 -0.09061033 0.10394222
-0.011593264 0.049964182 0.07329821 0.1283928 -0.01594068 -0.116032176 0.10932787 -0.060234606
-0.11919384 -0.091805086 0.022406286 -0.0978368 0.057814643 -0.03559549 0.005336492 0.061515566
-0.04992786 0.09641203 -0.11804468 -0.041203264 -0.09738243 0.02604596 0.09002126 0.045696776
0.0162938 0.06976745 0.06857331 -0.108623974 0.104079165 -0.03736641 0.09005384 -0.029691268
0.052281193 -0.018399138 -0.060170047 0.063256934 0.05557833 -0.037637394 -0.05993467 -0.06527869
0.0049929274 -0.109068856 0.0122894365 -0.007075881 0.10942778 0.08899797 0.057203826 -0.07803183
0.025850043 -0.054333564 -0.08165828 0.09720997 -0.10157146 0.017842747 -0.06791957 0.056191396
0.025275951 -0.019280905 -0.032581273 0.0893205 0.008209114 -0.10934123 -0.046101846 -0.077562
0.1054815 -0.07488316 -0.06970838 0.09937318 -0.05268911 0.005712219 -0.043167923 0.09062976
-0.0053613996 0.076814964 -0.0076368162 -0.03933358 -0.026728317 -0.097852066 0.033019863 0.107340895

policy_model.2.bias f4 [64]
00000000: 7539 83bd 20d3 453a a659 cabd 2249 e1bc
00000010: 9f95 e93c 320c b83d b590 20bd 116f 023e
00000020: 5562 ef3b 1cf8 8e3d f30d 9dba f379 c73b
00000030: 216e 8a3c f62c c7bd d5f3 94bd 3222 1abd
00000040: b2f5 963d 1cef b2bd a77c e53c b9d0 483d
00000050: da5a ae3d fbf4 b43d e48f 8d3d 3e8f 8d3d
00000060: 0865 2c3c 53de e9bd 08af edbb a729 1ebd
00000070: bd4d 1fbd 8240 863d 0222 083e a2ef 143d
00000080: acb6 a9bd 4522 8c3c f14f 573b 8a20 003d
00000090: dbd5 5a3d 0f22 5b3d dc51 b4bd 1e7b 50bd
000000a0: 85b4 dabd 48d9 a63d 7ded 4cbd 5f5d 4cbc
000000b0: ad74 10bd 8732 34bc c4ff dfbd 98b6 a1bd
000000c0: 8946 443c 4579 043c 543c cbbd c385 be3c
000000d0: e1a4 20bd 6221 9dbd 30e5 7ebc 9af9 043d
000000e0: d593 043d b965 4d3b 846c cabd 11bb ccbd
000000f0: 69ee 30bd 51d6 30bc cfb2 eebb d220 cb3d
-0.064074434 0.00075464137 -0.0988038 -0.027500693 0.028513728 0.08986701 -0.039200503 0.12737681
0.0073054233 0.06980917 -0.0011982307 0.0060875355 0.016898217 -0.097253725 -0.0727307 -0.037630267
0.073710814 -0.08737013 0.02801354 0.04902718 0.08513422 0.08835789 0.069122106 0.06912087
0.010522135 -0.11419358 -0.0072535314 -0.03861394 -0.038892496 0.06555273 0.13294223 0.036361344
-0.08286795 0.017106185 0.0032854045 0.03128103 0.053426605 0.053499278 -0.08804676 -0.050898664
-0.106789626 0.08146912 -0.050031174 -0.012473433 -0.03526752 -0.010998375 -0.10937455 -0.07896155
0.0119797075 0.0080855535 -0.09923616 0.023257142 -0.03921974 -0.07672383 -0.015557572 0.0324646
0.032367546 0.003134115 -0.09883979 -0.099966176 -0.043196116 -0.0107932845 -0.0072844992 0.09918369

policy_model.4.weight f4 [1, 64]
00000000: b6ad a8bd f217 20bd 2c28 0a3e daab 873c
00000010: 594a aa3d fb21 1bbb 4b94 b23d 3545 373d
00000020: 0794 c7bd a913 d73d 22b9 cbbc a4f7 98bd
00000030: 8cee b03d b5ac 0abe ee33 703d c21d a13c
00000040: e425 1abc 1258 8bbc a332 2d3d fb74 5bbd
00000050: a5b9 c53c f53c 6abd 7618 f3bb 2a93 fcbd
00000060: a70b b43d 25fb 68bc fbc0 2a3d d735 c0bb
00000070: e018 c13d 4b10 e33d 7d6c 9b3d 7c6c 57bc
00000080: 6d44 08be ffc8 583d 320b 9b3d cbdb c9bd
00000090: bc72 883c 4bbf 1d3c be76 08be e5d5 febd
000000a0: d1a1 06be a7f1 bdbd 66ef 783d 0248 75bd
000000b0: af24 8cbc 6bdb 45bd 8cff 8bbd 6e67 a23d
000000c0: 4694 27bd 5437 993a da73 463d cfb0 cdbd
000000d0: fe38 c13c d512 d93d 9f5c f83d 6716 453d
000000e0: f1d0 063c 017e 7f3c b501 1cbd 05eb 833d
000000f0: d0cf c23d 6fa2 b2bd 441e f03d 449c ecbd
-0.08236258 -0.039085336 0.13491887 0.016561437 0.08314962 -0.0023671377 0.08719691 0.044743735
-0.09745031 0.10501797 -0.024868552 -0.07469109 0.08639249 -0.13542445 0.058643274 0.01966751
-0.009408448 -0.017009769 0.04228462 -0.05357836 0.024136374 -0.05718704 -0.0074186875 -0.12332757
0.08791285 -0.014220034 0.041687947 -0.005865793 0.09428573 0.11087092 0.07589052 -0.013148423
-0.13307352 0.05292606 0.07570495 -0.09856375 0.016656272 0.009628127 -0.13326547 -0.12443141
-0.13147666 -0.09274607 0.060775183 -0.059883125 -0.017107336 -0.048304956 -0.06835851 0.07929884
-0.04091289 0.0011689463 0.04845033 -0.10043489 0.023586746 0.10599295 0.12127041 0.048117068
0.008228526 0.0155940065 -0.038087565 0.06441311 0.09512293 -0.08722388 0.11724523 -0.11553243

value_model.0.weight f4 [64, 4]
00000000: 0cef 63be f6c9 e7be 86f1 a93e 225c e5be
00000010: ca8f 813e 0089 593e b0d5 d6be 8837 c23e
00000020: acf9 dd3e ecc1 b4be 646e 7f3e d669 d13e
00000030: dc23 863e b034 e9bd 54b3 92be 20fa 3f3d
00000040: d000 5ebe 60f2 4ebe f62d d0be a0ba 333d
00000050: 4033 fbbd 80a4 27be f816 dc3d 40e8 eebc
00000060: 0a54 9b3e 4072 3a3c 0c99 033e 04f4 a5be
00000070: 4282 c53e 5878 fcbd e01a 493e 0c92 253e
00000080: a0d1 8cbc 2095 cf3d 78aa f5be fabe 9a3e
00000090: 00c1 33bc 6e57 c63e 7838 4bbe 82a9 c0be
000000a0: b290 85be 3855 d03e 906a 023e 80f8 0ebd
000000b0: 6068 ae3d 962a afbe a05b 953c 3cd4 d33e
000000c0: d8c5 e1bd 30e0 673d 0058 af3d 8a01 d83e
000000d0: a626 90be 5057 6abd 1268 bf3e 5442 90be
000000e0: b40f 093e 5060 d3be f28f 98be 90c0 72bd
000000f0: 50c9 bf3e 9cff 21be 203d 293d 002c a43b
00000100: dc13 acbe d877 e43e 58b3 72be 10b6 8a3e
00000110: f467 e7be da28 dcbe 5414 62be ba26 fbbe
00000120: 424b c03e 508c 51be 5822 e7bd f000 ad3e
00000130: dc5a c63e 00c8 d639 1035 10be 36d2 a33e
00000140: 34d5 743e 88ae f33e 7ac5 f3be 78d3 86be
00000150: dc87 32be 9806 2a3e 1044 eebd 58ee eebe
00000160: 5cd1 433e 086a 173e 58bc d1bd a8cd 073e
00000170: 022b a73e 8421 4c3e 90db f33e 1866 613e
00000180: a861 10be e434 fc3e 66e6 c03e a07d 923c
00000190: 004e c7be 36a7 cfbe 5012 2fbe eef6 dfbe
000001a0: 20a4 c0bc 10a3 dcbe 88fc 1fbe 2cdb 853e
000001b0: 481d d9bd 50b3 a63d 0cc2 af3e d458 df3e
000001c0: 603d 663d 4058 75bd 90a0 bf3e f4fb 273e
000001d0: cc8a 783e 408e 953e a495 1fbe 8ca5 3f3e
000001e0: 509b 283d c0d7 53bd e29d f2be 74fd abbe
000001f0: 384e 1abe f48d acbe 68f8 efbd 047c c13e
00000200: 24df a0be 34dc a8be 20d5 50be c083 80bd
00000210: 90d9 57be d40a ef3e d4ac 5abe 78c9 edbe
00000220: a855 623e 9cf2 53be c4fd 1f3e 0cb0 7c3e
00000230: 40ee c1be 347d 0cbe 1296 a3be 2420 1bbe
00000240: 3cc5 bbbe 8a41 b6be 2a81 ddbe 3814 283e
00000250: 74d8 59be 0063 a4be f00e 7dbd 7c56 14be
00000260: f0e5 b23e 30b0 33bd 8cce b1be f2ce c4be
00000270: ea29 bd3e 0c80 493e e00c f1be c87c 8cbe
00000280: 4245 ed3e b8a9 833e 8033 70bd f0f5 1d3d
00000290: bc12 20be 9693 92be c0a3 50bc 141a a2be
000002a0: 7c9a 2ebe ca00 c43e fa8b ef3e cc45 e9be
000002b0: 2cb1 723e d0b5 2cbd 00fb a0bb 48dd 5c3e
000002c0: 14b5 0fbe c049 233d 5c00 843e 941f d8be
000002d0: 18ef c43e 82ff f4be 7078 abbe be18 873e
000002e0: 8c49 e7be c0ae 96bd 6481 5cbe 0851 103e
000002f0: 80f1 53be 3eaa 8cbe f20f e53e 58eb 37be
00000300: 60a6 893e 1860 70be 58e0 443e dac4 f4be
00000310: 0084 393a c6fb f0be bc51 eb3e a494 163e
00000320: 38ea e03e b4fa 5c3e e6ab f63e 50ac 4c3d
00000330: e844 f43d f0f8 f8bd 1225 f63e c680 e13e
00000340: cc7e 46be 1872 38be 9009 8d3e e02d 513d
00000350: f83d ba3e 7c30 643e c452 cbbe 549c debe
00000360: b48e 303e a050 ecbc 040f 653e 74c0 4dbe
00000370: 58d0 fabd 16a1 b1be ac4a 07be 0004 5fba
00000380: 3c9a 5cbe 9440 b83e 5cb6 763e 846c 3dbe
00000390: a05f 083d cc8d 173e 5e49 cabe 9813 fcbd
000003a0: bc1a d5be ba64 dabe be98 b93e 4006 2cbc
000003b0: c8d1 a2be 1008 343d 68c9 543e a8d9 bcbd
000003c0: 342d ebbe 56af b03e 4821 92be 44f7 27be
000003d0: 22bc 973e 905e 723d beed 98be 70d8 733e
000003e0: 66fb af3e c231 873e 32bc cf3e 509b 033e
000003f0: b4ce 9d3e 1e5b e53e 1ec7 a23e 4085 0a3c
-0.22259158 -0.4527127 0.3319208 -0.44796854 0.25305015 0.21243668 -0.41959906 0.37932992
0.43354547 -0.353042 0.24944454 0.4090106 0.26199234 -0.113870025 -0.28652442 0.046869397
-0.21679997 -0.20209646 -0.40660065 0.04387915 -0.122656345 -0.16371346 0.107465684 -0.02916348
0.30337554 0.011379778 0.12851351 -0.32412732 0.3857594 -0.12327641 0.19639158 0.16168994
-0.0171898 0.10135865 -0.4798162 0.3022383 -0.010971308 0.3873858 -0.1984576 -0.37629324
-0.26086956 0.40690017 0.12735963 -0.034904957 0.08516002 -0.34212178 0.018232167 0.4137286
-0.11024064 0.056610286 0.085617065 0.42188674 -0.28154486 -0.057212174 0.37384087 -0.28175604
0.13384897 -0.41284418 -0.29797322 -0.059265673 0.37458277 -0.15820163 0.04131806 0.005010128
-0.33608902 0.44622684 -0.23701227 0.27092028 -0.45196497 -0.42999917 -0.22078067 -0.49052984
0.37557417 -0.20463681 -0.112858474 0.33789778 0.38741195 0.00040966272 -0.14082742 0.31996316
0.23909456 0.47594094 -0.476116 -0.26333213 -0.17434639 0.16604078 -0.11634076 -0.46666217
0.19122833 0.14786541 -0.10241002 0.13262045 0.3265 0.1993466 0.4762845 0.22011602
-0.14099753 0.49259102 0.3767578 0.017882168 -0.38926697 -0.4055726 -0.1709683 -0.4374308
-0.02351576 -0.43093157 -0.15623677 0.26143777 -0.10601288 0.0813967 0.34327734 0.43622458
0.056210876 -0.059898615 0.37427187 0.16404706 0.24271697 0.2921009 -0.15584427 0.18715495
0.041163743 -0.051719427 -0.4738608 -0.33591807 -0.150689 -0.33702052 -0.117173016 0.3778993
-0.31420243 -0.32980502 -0.203938 -0.06275129 -0.21079087 0.4668795 -0.21354991 -0.4644277
0.22102988 -0.20698017 0.15624148 0.24676532 -0.37877083 -0.13719636 -0.31950432 -0.1514898
-0.36673915 -0.35596877 -0.43262607 0.16413963 -0.21273977 -0.3210678 -0.061781824 -0.14486116
0.34941053 -0.043869197 -0.34727895 -0.38439137 0.3694604 0.19677752 -0.47080135 -0.2743895
0.46341902 0.25715423 -0.058642864 0.038564622 -0.15632147 -0.28628224 -0.012734354 -0.3166052
-0.17051119 0.38281852 0.4678648 -0.45561063 0.23700398 -0.042165577 -0.004912734 0.21568787
-0.1403392 0.039865255 0.25781524 -0.42211592 0.38463664 -0.47851187 -0.33490324 0.26386064
-0.451733 -0.0735755 -0.21533734 0.14093411 -0.20697594 -0.27473634 0.44738728 -0.1796087
0.26884747 -0.23474157 0.19226205 -0.47806436 0.00070768595 -0.47067088 0.45960796 0.1470514
0.43928695 0.2158001 0.48178023 0.049969018 0.11927205 -0.12156856 0.48075157 0.4404356
-0.19384307 -0.18012273 0.27546358 0.05106914 0.36375403 0.2228412 -0.39711583 -0.43478644
0.17241937 -0.028847039 0.2236901 -0.20092946 -0.1224677 -0.3469321 -0.13212079 -0.0008507371
-0.2154321 0.3598677 0.24093002 -0.18498427 0.03329432 0.14800185 -0.395091 -0.12308425
-0.4162196 -0.42654973 0.36249346 -0.010499537 -0.31800675 0.043953 0.20779955 -0.09221202
-0.45932925 0.3450877 -0.28541017 -0.16402918 0.2963572 0.059172213 -0.29868883 0.23813033
0.3437149 0.2640515 0.4057327 0.12852216 0.30821764 0.4479608 0.3179254 0.008454621

value_model.0.bias f4 [64]
00000000: 60da a0bd 90d8 7d3d 0065 993c 7485 a63e
00000010: 082c 803e c2e7 b73e b0a4 af3d 44db 933e
00000020: 92a3 843e e071 d93e c013 4c3c 4078 7c3d
00000030: a01d a0bd acd4 bdbe 0868 13be 541a 903e
00000040: 601b 863c d83a f83e 7238 c4be 6a13 90be
00000050: f0da b5bd c077 bbbd 605c f4be 60f8 95be
00000060: 3479 6dbe ac34 61be acb7 e73e 50b9 f13d
00000070: b06c 0fbd c051 663e 5a13 b7be 6409 983e
00000080: f6c5 a1be a881 633e 1067 2a3d 6221 cb3e
00000090: 4c26 783e 58f0 1a3e 1cea fbbe 205f 0f3e
000000a0: c45e 44be 8e2c debe 00c7 053e daa7 aa3e
000000b0: 9c40 b7be a0e2 f6bd c0de 9d3d 7086 0e3d
000000c0: b095 25bd 7850 073e 12a6 a8be 80ae f53e
000000d0: b4f3 6e3e 8054 36be f6ee c6be 58d2 b13d
000000e0: 8473 483e bc20 2abe a8d1 d73d da8f a0be
000000f0: a81e 0f3e 963c fd3e da15 bcbe 805e c2bb
-0.07854152 0.06197411 0.018724918 0.32523692 0.25033593 0.35919005 0.085763335 0.28878224
0.25906044 0.42469692 0.012455881 0.061638117 -0.078181505 -0.37076318 -0.14395154 0.28145087
0.016370475 0.48482394 -0.38324314 -0.28139812 -0.0887965 -0.091537 -0.47726727 -0.29291058
-0.23190767 -0.21992749 0.45257318 0.11802924 -0.03501576 0.22492123 -0.35756952 0.29694664
-0.31596345 0.22217429 0.041602194 0.39673907 0.24233359 0.15130746 -0.4920205 0.14001131
-0.19176775 -0.43393368 0.13064194 0.33331186 -0.3579148 -0.12054944 0.07708502 0.03479618
-0.040425956 0.1321429 -0.32939202 0.47984695 0.23335153 -0.17805672 -0.38854188 0.08682698
0.19575316 -0.1661405 0.10538036 -0.3135975 0.13976538 0.49460286 -0.3673542 -0.0059316754

value_model.2.weight f4 [64, 64]
00000000: 68ff 18bd d239 d43d 4ebb eabd 2aff df3d
00000010: 5c01 7abd 8070 2abd 1ee0 fdbd 087a 08bd
00000020: 00a5 4bbc 1222 b4bd 3e19 b53d 4e29 d13d
00000030: 5854 dd3d 80da ab3b f4f2 753d 1057 473d
00000040: 4a50 b83d 30da b43d d0a2 8ebd 0080 e2b6
00000050: a605 dfbd 3cba 07bd fc07 4dbd bcd7 0fbd
00000060: a0c3 853d 8478 b6bd 5427 da3d 009a 373d
00000070: 02a1 9c3d c6ee 82bd f499 ff3d 2049 123c
00000080: 06a2 d33d 6e93 cf3d 4472 6f3d ccce 78bd
00000090: 646a 9ebd 30e6 33bd 1cef 263d 6e13 b33d
000000a0: ac66 cebd f209 c5bd eefd cb3d 8630 cebd
000000b0: 3c55 2fbd 34e1 41bd 6cf2 b53d 6805 72bd
000000c0: e412 963d 0a6b ee3d ca4e 913d eaa2 873d
000000d0: 4c55 38bd 0671 913d b277 c23d 06ca e93d
000000e0: 901f 123c 1aee d1bd b4df 4f3d 3a3e c83d
000000f0: 18c6 863d c890 b7bc 70e1 cf3d 00ee fabc
00000100: 907b 41bc e0b0 723d a8ef e1bc a069 c03b
00000110: 2e45 b33d 3c15 6f3d 48c9 0dbd e012 e8bd
00000120: 58d7 95bc a845 2b3d 8e07 ecbd acbc 6b3d
00000130: a01b c93c b05d a0bc ce20 de3d 3e1f 93bd
00000140: e04f 55bc 582e 5b3d 88b6 d53d 488b bebc
00000150: 1c87 d4bd 9838 95bd 247b 90bd 00de babb
00000160: e004 f23d 10c1 eb3d 341f 663d 3423 41bd
00000170: b06c 66bc a03b b5bc 7456 403d 3c0b 02bd
00000180: d4ef 2bbd e0c1 fa3d 002b 8bbc 989f df3d
00000190: b0fb 81bd c6ff e3bd 80dc 25bb 3ebd b1bd
000001a0: 5eba f3bd 70cc bcbc 4c17 d9bd d021 803d
000001b0: d0bd b03c 702f 65bd f42f 8bbd f0a0 a9bd
000001c0: fe5b d53d ecc5 2c3d d8f4 983c d0df 16bc
000001d0: 303f ca3d 548e 1a3d d0bb 4cbc 9003 6b3c
000001e0: aca8 0bbd e094 1fbd 50f5 82bd 2000 c4bc
000001f0: b014 dbbd 3cea 433d a0cb 57bc f6fc b03d
00000200: ae3f 9f3d 62c5 f23d 4068 b53d f0b7 bdbd
00000210: e455 b33d 70ef d93c be4a 8ebd 24a2 73bd
00000220: 822a 8dbd ea76 a0bd 9089 4abd 8aed c1bd
00000230: fcb6 a53d fe20 ae3d c4cc 723d 4865 743d
00000240: 2e0b 993d a087 fbbd 08df 873c b8b5 cebd
00000250: 40c6 423b 785a 983c 109e ab3c a40b 5bbd
00000260: aced b43d 2e88 f4bd eae4 983d 487b fc3c
00000270: 32ca fcbd 40a5 92bc bc73 043d 8668 d63d
00000280: a8e6 9abc c269 abbd 66b5 8cbd 406b ccbd
00000290: 803b 853c 6207 f03d 405a 0dbb d07c 843d
000002a0: 7021 653c c861 a33c 402d 193c 2021 d03d
000002b0: 7edb 813d 380f 0d3d f85d c3bc 94be 2fbd
000002c0: b62a df3d 040c dabd e0a6 6c3d 96e7 9f3d
000002d0: 3ef0 abbd 80af f6bd f243 d83d 80e5 1f3c
000002e0: 58ea 8d3c 041d b7bd 98ce 363d e6e1 a43d
000002f0: 28ba 0abd 0472 bbbd 806a ab3b 545b 0e3d
00000300: fe9e bd3d 5c85 45bd 701a 3cbd f82c 363d
00000310: 400b 183d 50b9 adbc 9041 c8bd 5050 47bc
00000320: c8fc e6bc c8b5 42bd e4c0 38bd 60f0 89bc
00000330: fa49 d3bd 20ea fc3b ecfe 183d 30de 71bd
00000340: 2858 943c 8cbb c7bd 0837 35bd 2010 c5bc
00000350: d83a ef3c 1452 fabd fa2e ed3d 105a bfbc
00000360: 308d f53c 540e 71bd 0890 e93d d0aa aebc
00000370: 7a40 b73d 50e7 05bc 48e7 953c 70f8 313c
00000380: 64b5 e83d 169e ac3d 7c95 c3bd e8c9 8cbd
00000390: bcce c3bd b8da 763d 00be 6aba 0c28 f63d
000003a0: 2041 ddbd c8a9 f5bd 089d e8bc 8cf9 75bd
000003b0: 9cf0 4bbd 84d9 983d 8c2a fe3d ec7a d83d
000003c0: 2644 a4bd 241d 863d bc1d 033d 6645 b2bd
000003d0: 7c30 1c3d 066b c8bd 689c 93bd f88c dcbd
000003e0: 8ce5 9a3d 5a09 f83d 0485 fc3d 2017 15bd
000003f0: 982d 7dbd d496 a5bd b871 0c3d e86d c23c
-0.03735295 0.10362591 -0.11461507 0.109373406 -0.061036453 -0.041611195 -0.123962626 -0.033319503
-0.012429476 -0.08795561 0.08842705 0.10212956 0.10807103 0.005244553 0.06004615 0.048667014
0.08999689 0.088306785 -0.06964648 -6.750226e-06 -0.10889749 -0.03313659 -0.050056443 -0.03511785
0.06531453 -0.08909705 0.106520325 0.0448246 0.07647897 -0.06393199 0.12480536 0.008928567
0.10333638 0.10135542 0.05845858 -0.060744092 -0.07735136 -0.043920696 0.040755376 0.0874394
-0.10078177 -0.096210375 0.099605426 -0.10067849 -0.042805895 -0.04733391 0.08884129 -0.059087187
0.07327822 0.1164151 0.07095106 0.0662287 -0.04500322 0.07101636 0.09495486 0.11415486
0.008918658 -0.102504924 0.05075045 0.09777494 0.06580752 -0.022407904 0.10150421 -0.030631065
-0.011809245 0.059250712 -0.027580097 0.0058719665 0.08753429 0.05836986 -0.034615785 -0.11331725
-0.01829116 0.041814476 -0.115248784 0.05755298 0.024549305 -0.019575924 0.10846101 -0.07183693
-0.013019532 0.053510994 0.10435206 -0.023259774 -0.103773326 -0.07286185 -0.07054737 -0.005702734
0.11817336 0.11511433 0.0561821 -0.047152713 -0.014063999 -0.022123158 0.046957448 -0.031748995
-0.041976765 0.1224401 -0.016988277 0.10919112 -0.06346834 -0.11132769 -0.002530843 -0.08678673
-0.11900781 -0.023046702 -0.10600147 0.06256449 0.021574885 -0.055953443 -0.06796256 -0.082826495
0.10417937 0.04218094 0.018671438 -0.0092086345 0.09875333 0.03773339 -0.01249595 0.014344111
-0.034096405 -0.038960338 -0.06394446 -0.02392584 -0.10697305 0.047830805 -0.013171107 0.086419985
0.07775818 0.11854054 0.08857775 -0.09263599 0.08756617 0.02660343 -0.0694785 -0.0594808
-0.06892873 -0.07835181 -0.049447596 -0.09469135 0.08091542 0.085023865 0.05927731 0.0596669
0.074728355 -0.12281728 0.016585842 -0.10093254 0.0029720217 0.018597826 0.020949394 -0.0534779
0.08834395 -0.11940037 0.07465537 0.030820504 -0.12343253 -0.017901063 0.032336935 0.10469155
-0.018908814 -0.08369781 -0.068705365 -0.09981394 0.016263723 0.11720158 -0.0021568686 0.064691186
0.013985023 0.019944087 0.009349167 0.10162568 0.06340693 0.03443834 -0.023848519 -0.04290636
0.10896818 -0.10646823 0.057776332 0.078078434 -0.08395432 -0.12045193 0.105598345 0.009759307
0.017323658 -0.08941081 0.044630617 0.08050899 -0.03386894 -0.09152606 0.0052312016 0.034755066
0.09258841 -0.048222885 -0.04592365 0.04447648 0.037120104 -0.021206528 -0.0977813 -0.012165144
-0.028196707 -0.04753664 -0.04510583 -0.016838253 -0.10316844 0.0077183396 0.037352487 -0.059049785
0.018108442 -0.097525686 -0.044241935 -0.02405554 0.029202864 -0.122226864 0.11581226 -0.023358375
0.02997455 -0.058851555 0.11404425 -0.021321684 0.08947845 -0.008172825 0.01829876 0.010862455
0.113627225 0.0842859 -0.09549996 -0.06874448 -0.09560916 0.06026718 -0.0008954704 0.12019357
-0.10803437 -0.11995274 -0.02839519 -0.06005244 -0.04979001 0.07463363 0.12410459 0.105703205
-0.08020811 0.06548527 0.03201078 -0.08704643 0.038132176 -0.09786038 -0.072075665 -0.10769075
0.07563314 0.12111159 0.12330058 -0.036399007 -0.06181106 -0.08085409 0.03428814 0.023734048

value_model.2.bias f4 [64]
00000000: d41e 4c3d 4c08 9c3d 1417 383d 9049 71bc
00000010: 7465 76bd 4a6b e0bd 96b2 8ebd a885 d9bc
00000020: 2af2 ae3d 4e1e f6bd 72d7 b13d f685 dbbd
00000030: 0035 403b 8841 48bd e85a 8fbd 36c8 f33d
00000040: 5c8b 4f3d e8ff ce3d 40e5 6dbb 705a 973d
00000050: 3491 a53d 6c66 0fbd 7c9d 103d 4432 7f3d
00000060: cc31 0dbd 4c1f 4a3d 00d8 9abd 96a6 b4bd
00000070: e005 ebbc 58f3 26bd 3e4f 8b3d 2aa0 8f3d
00000080: c0c9 6abc 562e c43d 08ef bdbc aa82 d53d
00000090: 1006 4abd ec34 f43d 3820 a7bc e0cb b93b
000000a0: 4437 e3bd 3c0a 263d f85d 56bd d4f3 a83d
000000b0: 20e5 073d 001f 4ebd 0c70 85bd 9889 a83d
000000c0: 8844 cc3c 6a70 e23d a08b dabb f8d2 313d
000000d0: 289f eb3d 00a2 52bd 3c06 333d 983f 5ebd
000000e0: b29b e33d 1254 fd3d 549b 0abd 943e 15bd
000000f0: e03b c03d c874 bcbc fc7a ca3d 94a8 f63d
0.049834087 0.0761877 0.044943884 -0.014727011 -0.060155347 -0.10957964 -0.06967656 -0.02655299
0.08542283 -0.12017499 0.08683671 -0.107189104 0.0029328465 -0.04889062 -0.06999761 0.119034216
0.050670013 0.10107404 -0.0036299974 0.073902965 0.08084336 -0.035009786 0.03530644 0.062303796
-0.034471318 0.049346253 -0.0756073 -0.08820836 -0.028689325 -0.040759414 0.068022236 0.07012971
-0.0143303275 0.095791504 -0.023185268 0.10425313 -0.049322188 0.119241565 -0.020401105 0.0056700557
-0.110945255 0.040537104 -0.05233571 0.082496315 0.033177495 -0.050322533 -0.06515512 0.08229369
0.024935022 0.110565975 -0.0066694766 0.043414086 0.11504966 -0.051424026 0.043707117 -0.054259866
0.11113681 0.12369551 -0.03383954 -0.036436632 0.0938642 -0.023004904 0.09886739 0.120438725

value_model.4.weight f4 [1, 64]
00000000: 0887 083d 62a6 dfbd e8b2 a73d 1202 df3d
00000010: 702b 15bd fc5c ebbd 264c d73d 2c55 dd3d
00000020: 048c a73d 5472 0a3d 4634 8c3d ccce 27bd
00000030: 00a6 e83a 5c29 193d a472 69bd 5e00 f03d
00000040: f6f3 ed3d bedb 81bd e814 ef3d f0e5 4f3c
00000050: 5a23 b93d 2edb c43d 7c6d b53d cc88 5f3d
00000060: 16c4 fc3d c492 bf3d 929d a4bd 18e8 4c3d
00000070: b8f0 dcbd e815 9a3d 88a7 37bd b2cf 83bd
00000080: 401d de3b e4a1 31bd 5650 f63d a06f 2cbc
00000090: 40ab 843d 00ce 443a ae5d e8bd 5025 183d
000000a0: 48ec ae3d 9063 223d e811 c7bd 3c1d e33d
000000b0: f6c3 82bd fabc bdbd e0fa 6abd 583f 0bbd
000000c0: 80b7 5bbb bcb6 973d 4a38 abbd c0ab 953c
000000d0: 4889 a2bd daf8 90bd 98f4 813d e006 71bc
000000e0: 54cf cc3d a83c e63c 6881 fbbd a04f 633c
000000f0: 482a dfbc 909e 49bd f86a 213d 4c90 2b3d
0.0333319 -0.10920407 0.081884205 0.10889067 -0.03641838 -0.11492345 0.10512571 0.10807261
0.08181003 0.033800438 0.06845908 -0.0409687 0.0017749667 0.03739296 -0.056994095 0.1171882
0.116187975 -0.063407406 0.116739094 0.012689099 0.09039946 0.09612118 0.08858773 0.05457382
0.12342088 0.09354165 -0.08037867 0.05002603 -0.10788101 0.075237095 -0.044837505 -0.06436099
0.006778389 -0.04336728 0.120270416 -0.01052466 0.06477976 0.0007507503 -0.11345993 0.03714496
0.08541161 0.03964573 -0.09720212 0.110895604 -0.06385033 -0.0926456 -0.05736816 -0.033995956
-0.0033526123 0.07407901 -0.08360346 0.018270373 -0.079363406 -0.07078715 0.06345481 -0.014711112
0.10000482 0.028105095 -0.12280542 0.013873965 -0.027241841 -0.049223483 0.039408654 0.04188566
