scripts/practical_rl_models/model_4900000.pth (torch, 41301 bytes, 10 tensors)

policy_model.0.weight f4 [64, 4]
0	0xbec57d3d	-0.38572112
1	0x3b29ef30	0.002592992
2	0x3e5458c9	0.20736994
3	0xbeee66d9	-0.46562842
4	0xbed0b951	-0.40766385
5	0x3ecbab11	0.3977895
6	0x3e94d6f4	0.29070246
7	0xbe9c9414	-0.30581725
8	0x3eb1586d	0.34637776
9	0xbe624095	-0.22094949
10	0x3ea9a3c6	0.33132762
11	0x3ec11bdd	0.3771657
12	0x3ef12026	0.4709484
13	0x3d41761f	0.04723179
14	0x3e8b5716	0.2721488
15	0x3df4fcd2	0.11962284
16	0x3cf83741	0.030299785
17	0xbea886df	-0.32915398
18	0xbeabd501	-0.33560947
19	0xbea5a58a	-0.3235286
20	0x3edd7c00	0.43258667
21	0x3dbbb24a	0.09164865
22	0xbdf2e159	-0.11859388
23	0x3ea99134	0.33118594
24	0x3e8f6a13	0.28010616
25	0xbe9017ed	-0.28143254
26	0x3e26a85c	0.16275162
27	0x3df09fda	0.11749239
28	0x3eb104e9	0.3457406
29	0x3dd526fd	0.10407827
30	0x3eebf5e5	0.4608604
31	0x3eabfd6f	0.33591792
32	0xbe16877f	-0.14700125
33	0xbeac107d	-0.3360633
34	0xbdd67f43	-0.10473492
35	0x3e8ef2cb	0.2791961
36	0x3eaaaae4	0.33333504
37	0xbe599941	-0.21249868
38	0xbef84ec4	-0.48497593
39	0x3e895bcc	0.26827848
40	0xbcefcec1	-0.029273393
41	0x3e270486	0.1631032
42	0x3ed300d2	0.41211563
43	0x3e643ef9	0.22289647
44	0xbebac566	-0.36478728
45	0x3ed354b3	0.41275558
46	0x3e66d778	0.22543132
47	0x3f017602	0.5057069
48	0xbe9e67b5	-0.30938497
49	0x3eb881c7	0.36036512
50	0xbe9fe4c9	-0.31229237
51	0x3eaeb244	0.3412038
52	0xbe9e1f88	-0.3088343
53	0xbeb3a4a5	-0.3508655
54	0x3f004723	0.50108546
55	0x3ecd8974	0.4014393
56	0xbed6d00b	-0.419556
57	0x3d5be3d6	0.05368408
58	0x3cb234c2	0.021753673
59	0x3cb13719	0.021632718
60	0xbef8d033	-0.48596343
61	0xbd8ed395	-0.0697395
62	0xbe689d23	-0.22716193
63	0xbd33b8f5	-0.04387756
64	0xbdcd23c6	-0.10016589
65	0x3e8dee46	0.2772085
66	0xbeb7a1d5	-0.35865656
67	0xbef58ea0	-0.47960377
68	0x3ce4e5a4	0.027941532
69	0xbea302db	-0.31838116
70	0xbd59a617	-0.05313691
71	0x3ddd780a	0.10813911
72	0xbea6bdf6	-0.32566804
73	0xbeabdb5e	-0.335658
74	0xbddf1206	-0.108921096
75	0x3de301b8	0.11084312
76	0xbef93589	-0.48673657
77	0x3eac4618	0.33647227
78	0xbe73db06	-0.2381402
79	0xbdc3db94	-0.095633656
80	0x3ef02790	0.46905184
81	0x3eb2eff9	0.3494871
82	0x3de82016	0.11334245
83	0xbef6af2b	-0.48180518
84	0x3eae7e6a	0.3408082
85	0x3d8a6ba5	0.06758813
86	0xbe04144d	-0.12898369
87	0xbd818cf5	-0.063257135
88	0xbeab1d31	-0.3342071
89	0x3e825983	0.25458917
90	0xbe319f2d	-0.17345877
91	0xbef3eff4	-0.47644007
92	0xbe03cd68	-0.12871325
93	0x3d7cc994	0.061715677
94	0x3ad856bf	0.0016505345
95	0x3eef0cac	0.46689355
96	0x3dd2d991	0.10295404
97	0xbee60d3a	-0.44931966
98	0x3eb0cd9c	0.34531868
99	0xbea908bb	-0.33014473
100	0x3e69f9f3	0.22849254
101	0xbb32b3c6	-0.0027267798
102	0x3e9fb645	0.31193748
103	0x3e8c0de3	0.27354345
104	0xbddee300	-0.108831406
105	0xbef86ad4	-0.48519003
106	0x3e0d06ea	0.13772169
107	0x3e96fe4a	0.29490882
108	0xbeb50fe1	-0.35363677
109	0xbc79bb50	-0.015242413
110	0x3eb5419a	0.35401613
111	0x3ee9ecc0	0.45688438
112	0xbe82a4b5	-0.25516286
113	0x3ec6121c	0.3868569
114	0x3e7addc7	0.24498664
115	0xbe2dcd2a	-0.16972795
116	0xbc7bea86	-0.015375739
117	0xbc26fc58	-0.010191999
118	0x3eadccab	0.33945212
119	0x3d3e29a1	0.04642642
120	0x3e0e4a00	0.13895416
121	0x3e68f111	0.2274821
122	0x3e2708dc	0.16311973
123	0x3e9515dc	0.2911824
124	0x3ececf81	0.40392688
125	0x3ede8663	0.43461904
126	0x3e4323d7	0.1905664
127	0xbe9c7347	-0.305567
128	0x3cbb8077	0.022888405
129	0xbe25b143	-0.16180901
130	0x3c4f0289	0.012634882
131	0x3e6d2301	0.23157884
132	0x3e66889b	0.22513048
133	0xbc92f74f	-0.017940192
134	0xbd1276f6	-0.03575798
135	0x3daad76d	0.083418705
136	0x3b68b46d	0.0035507933
137	0xbdf5f2e3	-0.120092176
138	0x3db67392	0.08908762
139	0xbede709d	-0.43445292
140	0x3eb8a8ec	0.36066377
141	0xbe866762	-0.2625075
142	0xbdc79f7d	-0.09747217
143	0xbe4ec472	-0.20192125
144	0xbd490630	-0.049078166
145	0xbd6ea64d	-0.058264066
146	0xbee804fb	-0.453163
147	0x3e921cbd	0.2853755
148	0x3e35df16	0.17760882
149	0x3ebfb244	0.37440693
150	0x3e8694d8	0.26285434
151	0xbe149167	-0.14508592
152	0xbe826b28	-0.2547238
153	0x3ebae2ff	0.3650131
154	0xbe65ca20	-0.22440386
155	0xbeef9011	-0.467896
156	0xba12358a	-0.0005577436
157	0xbe80069a	-0.25005037
158	0xbeebb545	-0.46036735
159	0xbc4a9a98	-0.01236596
160	0xbdc90a70	-0.09816444
161	0x3ef59771	0.47967103
162	0xbea857d0	-0.32879496
163	0x3dcbb271	0.09946144
164	0x3eb8bb52	0.36080414
165	0xbc27d179	-0.010242813
166	0xbe8e1ce2	-0.2775641
167	0x3ec22c2d	0.37924328
168	0x3e8af1da	0.27137643
169	0xbebed13b	-0.37269005
170	0x3e28b6aa	0.16475931
171	0xbec6e24a	-0.3884452
172	0x3eaad512	0.33365685
173	0xbe5a7552	-0.21333817
174	0xbecb0b58	-0.39657092
175	0xbea0c048	-0.313967
176	0x3ec40657	0.38286087
177	0xbcbbcec7	-0.022925748
178	0xbee52ec7	-0.4476225
179	0xbef0551a	-0.46939927
180	0x3e66c936	0.22537693
181	0x3d9b4a8c	0.07582578
182	0xbcea621e	-0.028611239
183	0xbd50c692	-0.05097062
184	0x3ce2e335	0.027696231
185	0x3e1f07bb	0.15530293
186	0xbdfbd7f6	-0.12297051
187	0x3ee1bc94	0.44089186
188	0xbe62b3bf	-0.2213888
189	0xbe07f60d	-0.13277455
190	0xbe4b0bac	-0.19828671
191	0xbe5f9564	-0.21834332
192	0x3edb05bc	0.42777812
193	0xbeff3023	-0.49841413
194	0xbeab01b3	-0.33399734
195	0xbe9144ad	-0.28372708
196	0x3eb60052	0.3554712
197	0xbe8620ff	-0.2619705
198	0x3ea83a23	0.32856855
199	0xbd3c04ec	-0.04590313
200	0x3e7a52c0	0.24445629
201	0x3e38f988	0.18063939
202	0xbe3fe4dc	-0.18739647
203	0xbee96886	-0.45587558
204	0xbecf6aec	-0.40511262
205	0x3d4916a4	0.049093857
206	0x3eb7fa96	0.3593337
207	0x3e14a96a	0.14517751
208	0x3ed81aed	0.42208043
209	0xbbb5cfcf	-0.0055484544
210	0x3e9701b6	0.29493493
211	0xbe033ba5	-0.12815721
212	0xbe900bd3	-0.2813402
213	0x3e694edc	0.22783989
214	0x3ed8b1f5	0.4232327
215	0xbe87be5a	-0.26512414
216	0xbe9ace43	-0.3023549
217	0x3be8046f	0.0070806067
218	0xbd87dad3	-0.06633534
219	0xbee5d6b0	-0.44890356
220	0xbe8c7aa8	-0.2743733
221	0xbc99b113	-0.018761193
222	0x3de1d49a	0.11026879
223	0xbeb5f9d2	-0.3554216
224	0x3ec3156c	0.3810228
225	0xbe29b8d0	-0.16574407
226	0xbe7982ef	-0.24366353
227	0xbbd32a20	-0.0064442307
228	0xbec0f9d1	-0.37690595
229	0xbdfa7fa4	-0.12231377
230	0xbe6044dc	-0.21901268
231	0x3e3438a7	0.17599736
232	0x3e9779ba	0.29585057
233	0xbecc574b	-0.3991035
234	0x3db64176	0.088992044
235	0x3e8eadb1	0.2786689
236	0x3ebc67a1	0.36797813
237	0xbf028d8a	-0.5099722
238	0xbeb34534	-0.35013735
239	0x3d6bb7da	0.05754838
240	0xbe8f7742	-0.28020674
241	0x3e93344b	0.28750834
242	0xbecc935d	-0.3995618
243	0x3ea1d4f9	0.31607798
244	0x3e46ab41	0.19401266
245	0xbeec397d	-0.4613761
246	0xbea3e1ac	-0.3200811
247	0xbe929f52	-0.28637177
248	0xbd5e7b16	-0.054316603
249	0x3e6b9e05	0.23009498
250	0xbd59f7ea	-0.053214945
251	0xbce52312	-0.027970824
252	0x3e806440	0.25076485
253	0x3e8e0dc5	0.2774488
254	0x3ecedfc9	0.4040511
255	0x3e890217	0.26759407

policy_model.0.bias f4 [64]
0	0xbe6da189	-0.23206152
1	0x3eebd5c3	0.46061525
2	0xbeefd17a	-0.46839505
3	0x3e8e861c	0.27836692
4	0x3ed81253	0.4220148
5	0xbe557fd4	-0.20849544
6	0xbea14dc7	-0.31504652
7	0x3efe87c1	0.49712947
8	0x3efba4d4	0.4914919
9	0xbdc07460	-0.09397197
10	0x3de68217	0.112552814
11	0x3e0e15f5	0.13875563
12	0xbdf520ed	-0.11969171
13	0x3d6a9944	0.05727507
14	0x3e13f63b	0.14449398
15	0xbf03bacc	-0.51456904
16	0xbe4a4b9c	-0.19755405
17	0xbf01fdcb	-0.5077788
18	0x3df2696e	0.11836515
19	0xbee6c2d6	-0.45070523
20	0xbe87d3fb	-0.26528916
21	0x3e8f25f5	0.27958646
22	0xbe979c30	-0.2961135
23	0x3efad84b	0.48993143
24	0x3ddbd4fa	0.107339814
25	0x3b642b46	0.0034815832
26	0x3e2664dd	0.16249414
27	0x3e563b14	0.20920974
28	0x3ed7c2d7	0.42140839
29	0x3ef18093	0.47168407
30	0xbeda162c	-0.4259504
31	0x3e8f115f	0.2794294
32	0xbe31b7da	-0.1735529
33	0x3e911dcb	0.28343043
34	0x3df39732	0.118940726
35	0x3e3e8a95	0.18607552
36	0xbeebe201	-0.46070865
37	0x3e3bd88c	0.18344325
38	0x3df06e95	0.11739842
39	0x3e01efc2	0.12689117
40	0x3e7d63f0	0.24745154
41	0xbdf01eaf	-0.117246024
42	0x3e5221c1	0.20520689
43	0x3ead4b14	0.33846343
44	0xbe52ee48	-0.2059871
45	0x3ee02bf5	0.43783537
46	0xbd5a20d6	-0.05325397
47	0xbea63492	-0.32461983
48	0x3e22e86a	0.15908971
49	0x3ef6b01d	0.4818124
50	0x3ee842f0	0.4536357
51	0x3dd22732	0.10261382
52	0xbe9a6b14	-0.3015982
53	0x3e61776f	0.22018217
54	0xbd42d6e3	-0.047568213
55	0xbe82a968	-0.25519872
56	0xbe85fa4c	-0.26167524
57	0xbead1c91	-0.33810857
58	0xbecfb6e7	-0.4056923
59	0xbd8153f4	-0.06314841
60	0xbd0072a3	-0.031359326
61	0x3e9eb126	0.3099453
62	0x3e026e4b	0.12737386
63	0xbd5fe67b	-0.054663163

policy_model.2.weight f4 [64, 64]
0	0xbd9f6378	-0.07782644
1	0xbbbf5251	-0.0058386703
2	0x3d9a9279	0.07547469
3	0xbdde9299	-0.10867805
4	0xbdf9692e	-0.121782646
5	0xbcde2b5a	-0.027120281
6	0xbde74b0c	-0.11293611
7	0xbe0c6826	-0.13711604
8	0xbdb06e2d	-0.08614764
9	0x3cc1c346	0.023652684
10	0x3d077849	0.033073697
11	0xbcb1521c	-0.021645598
12	0xbd084a75	-0.033274133
13	0xbe01f4a6	-0.12690982
14	0x3db54a1b	0.08852025
15	0xbc4b689f	-0.01241508
16	0xbdb8887e	-0.09010409
17	0x3d83f4fb	0.06443211
18	0xbd57bf5f	-0.05267274
19	0x3d7f4a2b	0.06232659
20	0xbcef4a65	-0.029210279
21	0x3d6cd1bc	0.057817206
22	0xbd89e55a	-0.067331985
23	0xbe0a6b15	-0.13517411
24	0xbd32b305	-0.043627758
25	0xbd6d292b	-0.05790059
26	0x3d78a497	0.06070384
27	0xbda4e1c9	-0.080508776
28	0x3d0178cd	0.031609345
29	0xbd97ba83	-0.07408621
30	0x3e044a94	0.12919074
31	0xbd01e44b	-0.031711858
32	0xbd9b1fb4	-0.07574406
33	0xbc8771d8	-0.016533777
34	0xbba3cb70	-0.004998617
35	0xbdccd4c4	-0.10001519
36	0x3be2e9a1	0.0069248234
37	0xbd1edd57	-0.038785305
38	0x3d241da9	0.04006735
39	0x3db48660	0.088146925
40	0xbdc71093	-0.09719958
41	0x3d99df1f	0.0751326
42	0xbdc0bb68	-0.09410745
43	0x3de2abd9	0.110679336
44	0xbd870328	-0.06592399
45	0x3d0eb8dc	0.034844264
46	0xbd0ab8b6	-0.03386756
47	0x3c2185ff	0.009858607
48	0xbcb3f69c	-0.021968178
49	0x3dbfbcda	0.093621925
50	0x3dba87f4	0.09107962
51	0xbe08806f	-0.13330244
52	0x3dabf781	0.08396817
53	0xbdc2fc2b	-0.095207535
54	0xbd04e6b2	-0.03244657
55	0xbd343714	-0.04399784
56	0xbdd7ed28	-0.10543281
57	0xbde4a468	-0.111641705
58	0x3c28ada7	0.010295308
59	0xbcc35bc8	-0.023847476
60	0xbd7fc7d9	-0.06244645
61	0x3ca41b22	0.02003247
62	0xbb4f0927	-0.0031591149
63	0x3c8dc544	0.017305978
64	0x3df3d8f3	0.11906614
65	0x3d31a396	0.0433689
66	0x3dfe1ce7	0.124078564
67	0x3d851e45	0.06499914
68	0xbd13689d	-0.03598844
69	0xbd1fd0e7	-0.039017584
70	0x3bfd2566	0.0077254055
71	0x3dcf5d5a	0.10125227
72	0xbdda6efe	-0.10665701
73	0x3dcebebc	0.100949734
74	0xbccd5dc2	-0.025069121
75	0xbe057868	-0.13034213
76	0x3b999546	0.0046869842
77	0x3d6ad0e0	0.057328105
78	0xbd85c2d3	-0.065313004
79	0x3de53d95	0.111933865
80	0xbca333b0	-0.019922107
81	0xbdd92ec6	-0.106046245
82	0x3d94b098	0.07260245
83	0x3d628160	0.055299163
84	0x3ccaf4fa	0.024775017
85	0xbd6a860e	-0.05725675
86	0x3e09bed3	0.134517
87	0x3c09b3c5	0.008404677
88	0x3d75ef45	0.06004264
89	0xbd6d6200	-0.05795479
90	0xbde01391	-0.10941232
91	0x3c7644de	0.015031068
92	0x3ccfbc06	0.025358211
93	0x3d09cbea	0.033641733
94	0xbc4a6a4b	-0.012354444
95	0x3d828a13	0.06373992
96	0xbdcc4334	-0.099737555
97	0x3d554c62	0.052074797
98	0x3db628a6	0.08894472
99	0xbd2b218f	-0.04178005
100	0xbd890950	-0.06691229
101	0xbda175a0	-0.07883763
102	0xbab7e9ee	-0.0014031508
103	0x3d6076ab	0.05480067
104	0xbd15e17d	-0.036591996
105	0x3d815fd5	0.06317107
106	0xbd1115f0	-0.03542131
107	0x3e005a55	0.12534459
108	0xbd03779d	-0.032096494
109	0x3d8129c9	0.06306798
110	0x3d0d661f	0.03452122
111	0xbdb8fcef	-0.09032618
112	0x3dbb5179	0.09146399
113	0xbd1f4317	-0.03888234
114	0xbd00f2d2	-0.03148157
115	0x3d280ad3	0.041025948
116	0xbd741924	-0.05959429
117	0xbd64eb1a	-0.055888273
118	0xbc85384a	-0.016262192
119	0xbb9ed220	-0.004846826
120	0x3de6786f	0.1125344
121	0xbd9ca3cc	-0.07648429
122	0xbdea9c83	-0.114556335
123	0xbdc8678a	-0.097853735
124	0xbe08822c	-0.13330907
125	0xbd928ead	-0.071561195
126	0x3df61f71	0.12017716
127	0xbde23f3d	-0.11047218
128	0xbdbddb6b	-0.09270366
129	0xbd996472	-0.074898615
130	0xbb86ad5c	-0.0041100215
131	0xbcc903d6	-0.024537962
132	0xbd8bbea8	-0.06823474
133	0xbc99db1e	-0.018781241
134	0xbd8c32e6	-0.068456456
135	0xbca478b3	-0.020077085
136	0x3df7f97b	0.121081315
137	0x3cff4c4e	0.031164315
138	0x3d5aa470	0.053379476
139	0xbdb7835d	-0.089606024
140	0x3d467fe4	0.04846181
141	0x3d70401b	0.058654886
142	0xbd87be45	-0.06628088
143	0x3db8f7af	0.09031617
144	0xbe1bb6ef	-0.15206502
145	0x3dcd7b6d	0.10033307
146	0x3e11446a	0.14186254
147	0xbc856a9b	-0.016286185
148	0xbdefe5e8	-0.11713773
149	0x3ddd375d	0.10801575
150	0xbe15d0c5	-0.1463042
151	0x3da5c056	0.08093326
152	0x3d1ed6e0	0.03877914
153	0x3de91d4e	0.113825426
154	0x3dbfa565	0.093577184
155	0xbdc437e0	-0.0958097
156	0x3cada698	0.021197602
157	0xbc285045	-0.010273044
158	0xbd4ab1d0	-0.04948598
159	0x3c2d02c1	0.010559739
160	0xbc35f081	-0.011104704
161	0xbccac969	-0.024754243
162	0xbd5fc49f	-0.05463087
163	0x3c243697	0.010022781
164	0x3db8ff20	0.09033036
165	0xbde5371b	-0.11192151
166	0xbdeea854	-0.116532
167	0x3d56bb57	0.052424755
168	0xbdb506e1	-0.08839203
169	0x3c8d5e92	0.017257009
170	0x3c9c54f9	0.019083487
171	0x3dd6c0bf	0.10485982
172	0xbe0ff3ba	-0.14057818
173	0xbda18788	-0.07887179
174	0xbdb99c81	-0.09063054
175	0x3dd4e2ab	0.10394796
176	0xbc3ec5f5	-0.011643876
177	0x3d4c9c0d	0.04995351
178	0x3d961929	0.07329018
179	0x3e038155	0.12842305
180	0xbc8267be	-0.015918609
181	0xbded887e	-0.115982994
182	0x3ddff576	0.1093549
183	0xbd768bcc	-0.060191914
184	0xbdf429ef	-0.11922061
185	0xbdbc0a47	-0.09181648
186	0x3cb778f9	0.022396551
187	0xbdc87c77	-0.09789365
188	0x3d6cbccc	0.05779724
189	0xbd11ff9f	-0.03564417
190	0x3baf50db	0.005350215
191	0x3d7c10fe	0.061539643
192	0xbd4c66ea	-0.049902834
193	0x3dc57dcc	0.096431345
194	0xbdf1bf1f	-0.118040316
195	0xbd28c2c1	-0.041201357
196	0xbdc77fa9	-0.09741146
197	0x3cd54f23	0.026038712
198	0x3db85b81	0.09001828
199	0x3d3b2c8e	0.045696788
200	0x3c853b1a	0.016263533
201	0x3d8ed0dc	0.069734305
202	0x3d8c79c5	0.06859163
203	0xbdde6ad3	-0.10860219
204	0x3dd52707	0.104078345
205	0xbd190f3d	-0.037368048
206	0x3db86f96	0.09005658
207	0xbcf33ad5	-0.02969114
208	0x3d5635a0	0.052297235
209	0xbc96c2bf	-0.018403409
210	0xbd76890b	-0.060189288
211	0x3d819577	0.06327336
212	0x3d63be53	0.05560143
213	0xbd1a3373	-0.037646722
214	0xbd75653b	-0.059910994
215	0xbd85baab	-0.06529745
216	0x3ba39292	0.004991838
217	0xbddf5d1a	-0.109064296
218	0x3c48f19e	0.012264637
219	0xbbe7be76	-0.0070722653
220	0x3de02589	0.10944659
221	0x3db645bc	0.089000195
222	0x3d6a6347	0.057223585
223	0xbd9fc5a4	-0.07801369
224	0x3cd3adb8	0.025839671
225	0xbd5e9c3c	-0.054348215
226	0xbda738ac	-0.08165106
227	0x3dc70b36	0.09718935
228	0xbdd00d05	-0.10158733
229	0x3c925964	0.01786489
230	0xbd8b11ed	-0.067905284
231	0x3d660a02	0.056161888
232	0x3ccf1398	0.025277898
233	0xbc9e2158	-0.019303009
234	0xbd057cc3	-0.032589685
235	0x3db6e008	0.08929449
236	0x3c065694	0.008199353
237	0xbddff254	-0.10934892
238	0xbd3cdebc	-0.046110854
239	0xbd9ed858	-0.07756108
240	0x3dd7f44c	0.10544643
241	0xbd995f80	-0.07488918
242	0xbd8ec431	-0.06971014
243	0x3dcb8d29	0.099390335
244	0xbd57c2a8	-0.052675873
245	0x3bbc27bb	0.005742041
246	0xbd30c475	-0.043156106
247	0x3db9a6fd	0.090650536
248	0xbbb03c26	-0.005378264
249	0x3d9d4c3f	0.076805584
250	0xbbfa811b	-0.007644785
251	0xbd2143c2	-0.03937126
252	0xbcdb0717	-0.02673678
253	0xbdc87839	-0.09788556
254	0x3d074856	0.03302797
255	0x3ddbdeec	0.10735878

policy_model.2.bias f4 [64]
0	0xbd832d71	-0.06405152
1	0x3a4b510d	0.0007755913
2	0xbdca68ab	-0.09883245
3	0xbce16cf9	-0.027517783
4	0x3ce96e4a	0.028494973
5	0x3db80f28	0.08987266
6	0xbd20a7e1	-0.0392226
7	0x3e026aa2	0.1273599
8	0x3bf01a7c	0.007327376
9	0x3d8eea9b	0.06978341
10	0xba9a7ddd	-0.0011786778
11	0x3bc84cc6	0.0061126677
12	0x3c8a43cb	0.01687803
13	0xbdc71fba	-0.09722848
14	0xbd94ffa2	-0.072753206
15	0xbd1a3230	-0.03764552
16	0x3d96fbfa	0.073722795
17	0xbdb2e497	-0.08735006
18	0x3ce54998	0.027989194
19	0x3d48e679	0.04904792
20	0x3dae51dc	0.08511707
21	0x3db4ff95	0.08837811
22	0x3d8d962d	0.069134094
23	0x3d8d9bb8	0.069144666
24	0x3c2c0bdf	0.010500877
25	0xbde9d812	-0.11418165
26	0xbbee5dc9	-0.0072743637
27	0xbd1e1f39	-0.038603995
28	0xbd1f6723	-0.03891672
29	0x3d8634a1	0.06553007
30	0x3e081d27	0.1329237
31	0x3d150068	0.03637734
32	0xbda9abcf	-0.08284723
33	0x3c8bf23f	0.017083285
34	0x3b55d197	0.0032626146
35	0x3d0038e7	0.031304266
36	0x3d5ac445	0.053409833
37	0x3d5b13ff	0.053485867
38	0xbdb444bc	-0.088021725
39	0xbd5062a6	-0.05087533
40	0xbddaa653	-0.10676255
41	0x3da6e57a	0.08149238
42	0xbd4d04bb	-0.05005334
43	0xbc4c194e	-0.012457205
44	0xbd105fb9	-0.03524754
45	0xbc33dec3	-0.0109784035
46	0xbddff451	-0.109352715
47	0xbda1c4c6	-0.0789886
48	0x3c44a110	0.012001291
49	0x3c046fcb	0.008083294
50	0xbdcb4aaf	-0.09926354
51	0x3cbeb5b6	0.023280006
52	0xbd20b8cf	-0.039238747
53	0xbd9d2efe	-0.07674979
54	0xbc7f4e26	-0.015582597
55	0x3d04e3f8	0.03244397
56	0x3d0487cd	0.032356072
57	0x3b4c6e95	0.0031193842
58	0xbdca625f	-0.09882044
59	0xbdcccc73	-0.09999933
60	0xbd31094a	-0.04322175
61	0xbc307a2f	-0.010771318
62	0xbbef8c52	-0.0073104287
63	0x3dcb2e5e	0.09920953

policy_model.4.weight f4 [1, 64]
0	0xbda8aa24	-0.08235577
1	0xbd1ffe4b	-0.039060872
2	0x3e0a1afc	0.13486856
3	0x3c87fd4c	0.016600274
4	0x3daa353b	0.08310934
5	0xbb18d588	-0.0023320634
6	0x3db27355	0.08713404
7	0x3d373502	0.044728287
8	0xbdc7a171	-0.097475894
9	0x3dd70305	0.10498623
10	0xbccb8350	-0.024842888
11	0xbd98deec	-0.07464394
12	0x3db0cf2d	0.08633266
13	0xbe0aa75a	-0.13540402
14	0x3d7052eb	0.058672827
15	0x3ca0b51b	0.019617608
16	0xbc19eee1	-0.009395332
17	0xbc8b8146	-0.017029416
18	0x3d2d4837	0.042305198
19	0xbd5baf3f	-0.053633925
20	0x3cc5c7d6	0.02414314
21	0xbd6a0fd0	-0.057143986
22	0xbbf37a5a	-0.007430357
23	0xbdfc9272	-0.1233262
24	0x3db40ee4	0.08791903
25	0xbc681126	-0.014164245
26	0x3d2adaea	0.04171268
27	0xbbc266fc	-0.005932687
28	0x3dc10796	0.09425275
29	0x3de2fb43	0.110830806
30	0x3d9b5d6b	0.075861774
31	0xbc571ea6	-0.013129866
32	0xbe0831de	-0.13300273
33	0x3d58e0da	0.05294881
34	0x3d9b14d5	0.07572333
35	0xbdc9f48d	-0.098610975
36	0x3c884b70	0.016637534
37	0x3c1e28d1	0.009653286
38	0xbe086d80	-0.13323021
39	0xbdfeb34a	-0.124365404
40	0xbe06a452	-0.1314862
41	0xbdbdda63	-0.092701696
42	0x3d78b32a	0.06071774
43	0xbd753ab3	-0.059870433
44	0xbc8bb456	-0.017053764
45	0xbd45adeb	-0.048261564
46	0xbd8be66e	-0.0683106
47	0x3da26625	0.07929639
48	0xbd276e90	-0.040876925
49	0x3a95b5bb	0.0011421958
50	0x3d469f65	0.048491854
51	0xbdcdb999	-0.100451656
52	0x3cc174a8	0.023615196
53	0x3dd8faa7	0.10594683
54	0x3df845d5	0.121226944
55	0x3d452802	0.048133858
56	0x3c06170e	0.008184208
57	0x3c7f79b2	0.015592979
58	0xbd1bdb15	-0.03805073
59	0x3d83e422	0.06439997
60	0x3dc2df56	0.09515254
61	0xbdb294c6	-0.087197825
62	0x3df01565	0.11722831
63	0xbdec90c6	-0.11551051

value_model.0.weight f4 [64, 4]
0	0xbe63ef0c	-0.22259158
1	0xbee7c9f6	-0.4527127
2	0x3ea9f186	0.3319208
3	0xbee55c22	-0.44796854
4	0x3e818fca	0.25305015
5	0x3e598900	0.21243668
6	0xbed6d5b0	-0.41959906
7	0x3ec23788	0.37932992
8	0x3eddf9ac	0.43354547
9	0xbeb4c1ec	-0.353042
10	0x3e7f6e64	0.24944454
11	0x3ed169d6	0.4090106
12	0x3e8623dc	0.26199234
13	0xbde934b0	-0.113870025
14	0xbe92b354	-0.28652442
15	0x3d3ffa20	0.046869397
16	0xbe5e00d0	-0.21679997
17	0xbe4ef260	-0.20209646
18	0xbed02df6	-0.40660065
19	0x3d33baa0	0.04387915
20	0xbdfb3340	-0.122656345
21	0xbe27a480	-0.16371346
22	0x3ddc16f8	0.107465684
23	0xbceee840	-0.02916348
24	0x3e9b540a	0.30337554
25	0x3c3a7240	0.011379778
26	0x3e03990c	0.12851351
27	0xbea5f404	-0.32412732
28	0x3ec58242	0.3857594
29	0xbdfc7858	-0.12327641
30	0x3e491ae0	0.19639158
31	0x3e25920c	0.16168994
32	0xbc8cd1a0	-0.0171898
33	0x3dcf9520	0.10135865
34	0xbef5aa78	-0.4798162
35	0x3e9abefa	0.3022383
36	0xbc33c100	-0.010971308
37	0x3ec6576e	0.3873858
38	0xbe4b3878	-0.1984576
39	0xbec0a982	-0.37629324
40	0xbe8590b2	-0.26086956
41	0x3ed05538	0.40690017
42	0x3e026a90	0.12735963
43	0xbd0ef880	-0.034904957
44	0x3dae6860	0.08516002
45	0xbeaf2a96	-0.34212178
46	0x3c955ba0	0.018232167
47	0x3ed3d43c	0.4137286
48	0xbde1c5d8	-0.11024064
49	0x3d67e030	0.056610286
50	0x3daf5800	0.085617065
51	0x3ed8018a	0.42188674
52	0xbe9026a6	-0.28154486
53	0xbd6a5750	-0.057212174
54	0x3ebf6812	0.37384087
55	0xbe904254	-0.28175604
56	0x3e090fb4	0.13384897
57	0xbed36050	-0.41284418
58	0xbe988ff2	-0.29797322
59	0xbd72c090	-0.059265673
60	0x3ebfc950	0.37458277
61	0xbe21ff9c	-0.15820163
62	0x3d293d20	0.04131806
63	0x3ba42c00	0.005010128
64	0xbeac13dc	-0.33608902
65	0x3ee477d8	0.44622684
66	0xbe72b358	-0.23701227
67	0x3e8ab610	0.27092028
68	0xbee767f4	-0.45196497
69	0xbedc28da	-0.42999917
70	0xbe621454	-0.22078067
71	0xbefb26ba	-0.49052984
72	0x3ec04b42	0.37557417
73	0xbe518c50	-0.20463681
74	0xbde72258	-0.112858474
75	0x3ead00f0	0.33789778
76	0x3ec65adc	0.38741195
77	0x39d6c800	0.00040966272
78	0xbe103510	-0.14082742
79	0x3ea3d236	0.31996316
80	0x3e74d534	0.23909456
81	0x3ef3ae88	0.47594094
82	0xbef3c57a	-0.476116
83	0xbe86d378	-0.26333213
84	0xbe3287dc	-0.17434639
85	0x3e2a0698	0.16604078
86	0xbdee4410	-0.11634076
87	0xbeeeee58	-0.46666217
88	0x3e43d15c	0.19122833
89	0x3e176a08	0.14786541
90	0xbdd1bc58	-0.10241002
91	0x3e07cda8	0.13262045
92	0x3ea72b02	0.3265
93	0x3e4c2184	0.1993466
94	0x3ef3db90	0.4762845
95	0x3e616618	0.22011602
96	0xbe1061a8	-0.14099753
97	0x3efc34e4	0.49259102
98	0x3ec0e666	0.3767578
99	0x3c927da0	0.017882168
100	0xbec74e00	-0.38926697
101	0xbecfa736	-0.4055726
102	0xbe2f1250	-0.1709683
103	0xbedff6ee	-0.4374308
104	0xbcc0a420	-0.02351576
105	0xbedca310	-0.43093157
106	0xbe1ffc88	-0.15623677
107	0x3e85db2c	0.26143777
108	0xbdd91d48	-0.10601288
109	0x3da6b350	0.0813967
110	0x3eafc20c	0.34327734
111	0x3edf58d4	0.43622458
112	0x3d663d60	0.056210876
113	0xbd755840	-0.059898615
114	0x3ebfa090	0.37427187
115	0x3e27fbf4	0.16404706
116	0x3e788acc	0.24271697
117	0x3e958e40	0.2921009
118	0xbe1f95a4	-0.15584427
119	0x3e3fa58c	0.18715495
120	0x3d289b50	0.041163743
121	0xbd53d7c0	-0.051719427
122	0xbef29de2	-0.4738608
123	0xbeabfd74	-0.33591807
124	0xbe1a4e38	-0.150689
125	0xbeac8df4	-0.33702052
126	0xbdeff868	-0.117173016
127	0x3ec17c04	0.3778993
128	0xbea0df24	-0.31420243
129	0xbea8dc34	-0.32980502
130	0xbe50d520	-0.203938
131	0xbd8083c0	-0.06275129
132	0xbe57d990	-0.21079087
133	0x3eef0ad4	0.4668795
134	0xbe5aacd4	-0.21354991
135	0xbeedc978	-0.4644277
136	0x3e6255a8	0.22102988
137	0xbe53f29c	-0.20698017
138	0x3e1ffdc4	0.15624148
139	0x3e7cb00c	0.24676532
140	0xbec1ee40	-0.37877083
141	0xbe0c7d34	-0.13719636
142	0xbea39612	-0.31950432
143	0xbe1b2024	-0.1514898
144	0xbebbc53c	-0.36673915
145	0xbeb6418a	-0.35596877
146	0xbedd812a	-0.43262607
147	0x3e281438	0.16413963
148	0xbe59d874	-0.21273977
149	0xbea46300	-0.3210678
150	0xbd7d0ef0	-0.061781824
151	0xbe14567c	-0.14486116
152	0x3eb2e5f0	0.34941053
153	0xbd33b030	-0.043869197
154	0xbeb1ce8c	-0.34727895
155	0xbec4cef2	-0.38439137
156	0x3ebd29ea	0.3694604
157	0x3e49800c	0.19677752
158	0xbef10ce0	-0.47080135
159	0xbe8c7cc8	-0.2743895
160	0x3eed4542	0.46341902
161	0x3e83a9b8	0.25715423
162	0xbd703380	-0.058642864
163	0x3d1df5f0	0.038564622
164	0xbe2012bc	-0.15632147
165	0xbe929396	-0.28628224
166	0xbc50a3c0	-0.012734354
167	0xbea21a14	-0.3166052
168	0xbe2e9a7c	-0.17051119
169	0x3ec400ca	0.38281852
170	0x3eef8bfa	0.4678648
171	0xbee945cc	-0.45561063
172	0x3e72b12c	0.23700398
173	0xbd2cb5d0	-0.042165577
174	0xbba0fb00	-0.004912734
175	0x3e5cdd48	0.21568787
176	0xbe0fb514	-0.1403392
177	0x3d2349c0	0.039865255
178	0x3e84005c	0.25781524
179	0xbed81f94	-0.42211592
180	0x3ec4ef18	0.38463664
181	0xbef4ff82	-0.47851187
182	0xbeab7870	-0.33490324
183	0x3e8718be	0.26386064
184	0xbee7498c	-0.451733
185	0xbd96aec0	-0.0735755
186	0xbe5c8164	-0.21533734
187	0x3e105108	0.14093411
188	0xbe53f180	-0.20697594
189	0xbe8caa3e	-0.27473634
190	0x3ee50ff2	0.44738728
191	0xbe37eb58	-0.1796087
192	0x3e89a660	0.26884747
193	0xbe706018	-0.23474157
194	0x3e44e058	0.19226205
195	0xbef4c4da	-0.47806436
196	0x3a398400	0.00070768595
197	0xbef0fbc6	-0.47067088
198	0x3eeb51bc	0.45960796
199	0x3e1694a4	0.1470514
200	0x3ee0ea38	0.43928695
201	0x3e5cfab4	0.2158001
202	0x3ef6abe6	0.48178023
203	0x3d4cac50	0.049969018
204	0x3df444e8	0.11927205
205	0xbdf8f8f0	-0.12156856
206	0x3ef62512	0.48075157
207	0x3ee180c6	0.4404356
208	0xbe467ecc	-0.19384307
209	0xbe387218	-0.18012273
210	0x3e8d0990	0.27546358
211	0x3d512de0	0.05106914
212	0x3eba3df8	0.36375403
213	0x3e64307c	0.2228412
214	0xbecb52c4	-0.39711583
215	0xbede9c54	-0.43478644
216	0x3e308eb4	0.17241937
217	0xbcec50a0	-0.028847039
218	0x3e650f04	0.2236901
219	0xbe4dc074	-0.20092946
220	0xbdfad058	-0.1224677
221	0xbeb1a116	-0.3469321
222	0xbe074aac	-0.13212079
223	0xba5f0400	-0.0008507371
224	0xbe5c9a3c	-0.2154321
225	0x3eb84094	0.3598677
226	0x3e76b65c	0.24093002
227	0xbe3d6c84	-0.18498427
228	0x3d085fa0	0.03329432
229	0x3e178dcc	0.14800185
230	0xbeca495e	-0.395091
231	0xbdfc1398	-0.12308425
232	0xbed51abc	-0.4162196
233	0xbeda64ba	-0.42654973
234	0x3eb998be	0.36249346
235	0xbc2c0640	-0.010499537
236	0xbea2d1c8	-0.31800675
237	0x3d340810	0.043953
238	0x3e54c968	0.20779955
239	0xbdbcd9a8	-0.09221202
240	0xbeeb2d34	-0.45932925
241	0x3eb0af56	0.3450877
242	0xbe922148	-0.28541017
243	0xbe27f744	-0.16402918
244	0x3e97bc22	0.2963572
245	0x3d725e90	0.059172213
246	0xbe98edbe	-0.29868883
247	0x3e73d870	0.23813033
248	0x3eaffb66	0.3437149
249	0x3e8731c2	0.2640515
250	0x3ecfbc32	0.4057327
251	0x3e039b50	0.12852216
252	0x3e9dceb4	0.30821764
253	0x3ee55b1e	0.4479608
254	0x3ea2c71e	0.3179254
255	0x3c0a8540	0.008454621

value_model.0.bias f4 [64]
0	0xbda0da60	-0.07854152
1	0x3d7dd890	0.06197411
2	0x3c996500	0.018724918
3	0x3ea68574	0.32523692
4	0x3e802c08	0.25033593
5	0x3eb7e7c2	0.35919005
6	0x3dafa4b0	0.085763335
7	0x3e93db44	0.28878224
8	0x3e84a392	0.25906044
9	0x3ed971e0	0.42469692
10	0x3c4c13c0	0.012455881
11	0x3d7c7840	0.061638117
12	0xbda01da0	-0.078181505
13	0xbebdd4ac	-0.37076318
14	0xbe136808	-0.14395154
15	0x3e901a54	0.28145087
16	0x3c861b60	0.016370475
17	0x3ef83ad8	0.48482394
18	0xbec43872	-0.38324314
19	0xbe90136a	-0.28139812
20	0xbdb5daf0	-0.0887965
21	0xbdbb77c0	-0.091537
22	0xbef45c60	-0.47726727
23	0xbe95f860	-0.29291058
24	0xbe6d7934	-0.23190767
25	0xbe6134ac	-0.21992749
26	0x3ee7b7ac	0.45257318
27	0x3df1b950	0.11802924
28	0xbd0f6cb0	-0.03501576
29	0x3e6651c0	0.22492123
30	0xbeb7135a	-0.35756952
31	0x3e980964	0.29694664
32	0xbea1c5f6	-0.31596345
33	0x3e6381a8	0.22217429
34	0x3d2a6710	0.041602194
35	0x3ecb2162	0.39673907
36	0x3e78264c	0.24233359
37	0x3e1af058	0.15130746
38	0xbefbea1c	-0.4920205
39	0x3e0f5f20	0.14001131
40	0xbe445ec4	-0.19176775
41	0xbede2c8e	-0.43393368
42	0x3e05c700	0.13064194
43	0x3eaaa7da	0.33331186
44	0xbeb7409c	-0.3579148
45	0xbdf6e2a0	-0.12054944
46	0x3d9ddec0	0.07708502
47	0x3d0e8670	0.03479618
48	0xbd2595b0	-0.040425956
49	0x3e075078	0.1321429
50	0xbea8a612	-0.32939202
51	0x3ef5ae80	0.47984695
52	0x3e6ef3b4	0.23335153
53	0xbe365480	-0.17805672
54	0xbec6eef6	-0.38854188
55	0x3db1d258	0.08682698
56	0x3e487384	0.19575316
57	0xbe2a20bc	-0.1661405
58	0x3dd7d1a8	0.10538036
59	0xbea08fda	-0.3135975
60	0x3e0f1ea8	0.13976538
61	0x3efd3c96	0.49460286
62	0xbebc15da	-0.3673542
63	0xbbc25e80	-0.0059316754

value_model.2.weight f4 [64, 64]
0	0xbd18ff68	-0.03735295
1	0x3dd439d2	0.10362591
2	0xbdeabb4e	-0.11461507
3	0x3ddfff2a	0.109373406
4	0xbd7a015c	-0.061036453
5	0xbd2a7080	-0.041611195
6	0xbdfde01e	-0.123962626
7	0xbd087a08	-0.033319503
8	0xbc4ba500	-0.012429476
9	0xbdb42212	-0.08795561
10	0x3db5193e	0.08842705
11	0x3dd1294e	0.10212956
12	0x3ddd5458	0.10807103
13	0x3babda80	0.005244553
14	0x3d75f2f4	0.06004615
15	0x3d475710	0.048667014
16	0x3db8504a	0.08999689
17	0x3db4da30	0.088306785
18	0xbd8ea2d0	-0.06964648
19	0xb6e28000	-6.750226e-06
20	0xbddf05a6	-0.10889749
21	0xbd07ba3c	-0.03313659
22	0xbd4d07fc	-0.050056443
23	0xbd0fd7bc	-0.03511785
24	0x3d85c3a0	0.06531453
25	0xbdb67884	-0.08909705
26	0x3dda2754	0.106520325
27	0x3d379a00	0.0448246
28	0x3d9ca102	0.07647897
29	0xbd82eec6	-0.06393199
30	0x3dff99f4	0.12480536
31	0x3c124920	0.008928567
32	0x3dd3a206	0.10333638
33	0x3dcf936e	0.10135542
34	0x3d6f7244	0.05845858
35	0xbd78cecc	-0.060744092
36	0xbd9e6a64	-0.07735136
37	0xbd33e630	-0.043920696
38	0x3d26ef1c	0.040755376
39	0x3db3136e	0.0874394
40	0xbdce66ac	-0.10078177
41	0xbdc509f2	-0.096210375
42	0x3dcbfdee	0.099605426
43	0xbdce3086	-0.10067849
44	0xbd2f553c	-0.042805895
45	0xbd41e134	-0.04733391
46	0x3db5f26c	0.08884129
47	0xbd720568	-0.059087187
48	0x3d9612e4	0.07327822
49	0x3dee6b0a	0.1164151
50	0x3d914eca	0.07095106
51	0x3d87a2ea	0.0662287
52	0xbd38554c	-0.04500322
53	0x3d917106	0.07101636
54	0x3dc277b2	0.09495486
55	0x3de9ca06	0.11415486
56	0x3c121f90	0.008918658
57	0xbdd1ee1a	-0.102504924
58	0x3d4fdfb4	0.05075045
59	0x3dc83e3a	0.09777494
60	0x3d86c618	0.06580752
61	0xbcb790c8	-0.022407904
62	0x3dcfe170	0.10150421
63	0xbcfaee00	-0.030631065
64	0xbc417b90	-0.011809245
65	0x3d72b0e0	0.059250712
66	0xbce1efa8	-0.027580097
67	0x3bc069a0	0.0058719665
68	0x3db3452e	0.08753429
69	0x3d6f153c	0.05836986
70	0xbd0dc948	-0.034615785
71	0xbde812e0	-0.11331725
72	0xbc95d758	-0.01829116
73	0x3d2b45a8	0.041814476
74	0xbdec078e	-0.115248784
75	0x3d6bbcac	0.05755298
76	0x3cc91ba0	0.024549305
77	0xbca05db0	-0.019575924
78	0x3dde20ce	0.10846101
79	0xbd931f3e	-0.07183693
80	0xbc554fe0	-0.013019532
81	0x3d5b2e58	0.053510994
82	0x3dd5b688	0.10435206
83	0xbcbe8b48	-0.023259774
84	0xbdd4871c	-0.103773326
85	0xbd953898	-0.07286185
86	0xbd907b24	-0.07054737
87	0xbbbade00	-0.005702734
88	0x3df204e0	0.11817336
89	0x3debc110	0.11511433
90	0x3d661f34	0.0561821
91	0xbd412334	-0.047152713
92	0xbc666cb0	-0.014063999
93	0xbcb53ba0	-0.022123158
94	0x3d405674	0.046957448
95	0xbd020b3c	-0.031748995
96	0xbd2befd4	-0.041976765
97	0x3dfac1e0	0.1224401
98	0xbc8b2b00	-0.016988277
99	0x3ddf9f98	0.10919112
100	0xbd81fbb0	-0.06346834
101	0xbde3ffc6	-0.11132769
102	0xbb25dc80	-0.002530843
103	0xbdb1bd3e	-0.08678673
104	0xbdf3ba5e	-0.11900781
105	0xbcbccc70	-0.023046702
106	0xbdd9174c	-0.10600147
107	0x3d8021d0	0.06256449
108	0x3cb0bdd0	0.021574885
109	0xbd652f70	-0.055953443
110	0xbd8b2ff4	-0.06796256
111	0xbda9a0f0	-0.082826495
112	0x3dd55bfe	0.10417937
113	0x3d2cc5ec	0.04218094
114	0x3c98f4d8	0.018671438
115	0xbc16dfd0	-0.0092086345
116	0x3dca3f30	0.09875333
117	0x3d1a8e54	0.03773339
118	0xbc4cbbd0	-0.01249595
119	0x3c6b0390	0.014344111
120	0xbd0ba8ac	-0.034096405
121	0xbd1f94e0	-0.038960338
122	0xbd82f550	-0.06394446
123	0xbcc40020	-0.02392584
124	0xbddb14b0	-0.10697305
125	0x3d43ea3c	0.047830805
126	0xbc57cba0	-0.013171107
127	0x3db0fcf6	0.086419985
128	0x3d9f3fae	0.07775818
129	0x3df2c562	0.11854054
130	0x3db56840	0.08857775
131	0xbdbdb7f0	-0.09263599
132	0x3db355e4	0.08756617
133	0x3cd9ef70	0.02660343
134	0xbd8e4abe	-0.0694785
135	0xbd73a224	-0.0594808
136	0xbd8d2a82	-0.06892873
137	0xbda076ea	-0.07835181
138	0xbd4a8990	-0.049447596
139	0xbdc1ed8a	-0.09469135
140	0x3da5b6fc	0.08091542
141	0x3dae20fe	0.085023865
142	0x3d72ccc4	0.05927731
143	0x3d746548	0.0596669
144	0x3d990b2e	0.074728355
145	0xbdfb87a0	-0.12281728
146	0x3c87df08	0.016585842
147	0xbdceb5b8	-0.10093254
148	0x3b42c640	0.0029720217
149	0x3c985a78	0.018597826
150	0x3cab9e10	0.020949394
151	0xbd5b0ba4	-0.0534779
152	0x3db4edac	0.08834395
153	0xbdf4882e	-0.11940037
154	0x3d98e4ea	0.07465537
155	0x3cfc7b48	0.030820504
156	0xbdfcca32	-0.12343253
157	0xbc92a540	-0.017901063
158	0x3d0473bc	0.032336935
159	0x3dd66886	0.10469155
160	0xbc9ae6a8	-0.018908814
161	0xbdab69c2	-0.08369781
162	0xbd8cb566	-0.068705365
163	0xbdcc6b40	-0.09981394
164	0x3c853b80	0.016263723
165	0x3df00762	0.11720158
166	0xbb0d5a40	-0.0021568686
167	0x3d847cd0	0.064691186
168	0x3c652170	0.013985023
169	0x3ca361c8	0.019944087
170	0x3c192d40	0.009349167
171	0x3dd02120	0.10162568
172	0x3d81db7e	0.06340693
173	0x3d0d0f38	0.03443834
174	0xbcc35df8	-0.023848519
175	0xbd2fbe94	-0.04290636
176	0x3ddf2ab6	0.10896818
177	0xbdda0c04	-0.10646823
178	0x3d6ca6e0	0.057776332
179	0x3d9fe796	0.078078434
180	0xbdabf03e	-0.08395432
181	0xbdf6af80	-0.12045193
182	0x3dd843f2	0.105598345
183	0x3c1fe580	0.009759307
184	0x3c8dea58	0.017323658
185	0xbdb71d04	-0.08941081
186	0x3d36ce98	0.044630617
187	0x3da4e1e6	0.08050899
188	0xbd0aba28	-0.03386894
189	0xbdbb7204	-0.09152606
190	0x3bab6a80	0.0052312016
191	0x3d0e5b54	0.034755066
192	0x3dbd9efe	0.09258841
193	0xbd45855c	-0.048222885
194	0xbd3c1a70	-0.04592365
195	0x3d362cf8	0.04447648
196	0x3d180b40	0.037120104
197	0xbcadb950	-0.021206528
198	0xbdc84190	-0.0977813
199	0xbc475050	-0.012165144
200	0xbce6fcc8	-0.028196707
201	0xbd42b5c8	-0.04753664
202	0xbd38c0e4	-0.04510583
203	0xbc89f060	-0.016838253
204	0xbdd349fa	-0.10316844
205	0x3bfcea20	0.0077183396
206	0x3d18feec	0.037352487
207	0xbd71de30	-0.059049785
208	0x3c945828	0.018108442
209	0xbdc7bb8c	-0.097525686
210	0xbd353708	-0.044241935
211	0xbcc51020	-0.02405554
212	0x3cef3ad8	0.029202864
213	0xbdfa5214	-0.122226864
214	0x3ded2efa	0.11581226
215	0xbcbf5a10	-0.023358375
216	0x3cf58d30	0.02997455
217	0xbd710e54	-0.058851555
218	0x3de99008	0.11404425
219	0xbcaeaad0	-0.021321684
220	0x3db7407a	0.08947845
221	0xbc05e750	-0.008172825
222	0x3c95e748	0.01829876
223	0x3c31f870	0.010862455
224	0x3de8b564	0.113627225
225	0x3dac9e16	0.0842859
226	0xbdc3957c	-0.09549996
227	0xbd8cc9e8	-0.06874448
228	0xbdc3cebc	-0.09560916
229	0x3d76dab8	0.06026718
230	0xba6abe00	-0.0008954704
231	0x3df6280c	0.12019357
232	0xbddd4120	-0.10803437
233	0xbdf5a9c8	-0.11995274
234	0xbce89d08	-0.02839519
235	0xbd75f98c	-0.06005244
236	0xbd4bf09c	-0.04979001
237	0x3d98d984	0.07463363
238	0x3dfe2a8c	0.12410459
239	0x3dd87aec	0.105703205
240	0xbda44426	-0.08020811
241	0x3d861d24	0.06548527
242	0x3d031dbc	0.03201078
243	0xbdb24566	-0.08704643
244	0x3d1c307c	0.038132176
245	0xbdc86b06	-0.09786038
246	0xbd939c68	-0.072075665
247	0xbddc8cf8	-0.10769075
248	0x3d9ae58c	0.07563314
249	0x3df8095a	0.12111159
250	0x3dfc8504	0.12330058
251	0xbd151720	-0.036399007
252	0xbd7d2d98	-0.06181106
253	0xbda596d4	-0.08085409
254	0x3d0c71b8	0.03428814
255	0x3cc26de8	0.023734048

value_model.2.bias f4 [64]
0	0x3d4c1ed4	0.049834087
1	0x3d9c084c	0.0761877
2	0x3d381714	0.044943884
3	0xbc714990	-0.014727011
4	0xbd766574	-0.060155347
5	0xbde06b4a	-0.10957964
6	0xbd8eb296	-0.06967656
7	0xbcd985a8	-0.02655299
8	0x3daef22a	0.08542283
9	0xbdf61e4e	-0.12017499
10	0x3db1d772	0.08683671
11	0xbddb85f6	-0.107189104
12	0x3b403500	0.0029328465
13	0xbd484188	-0.04889062
14	0xbd8f5ae8	-0.06999761
15	0x3df3c836	0.119034216
16	0x3d4f8b5c	0.050670013
17	0x3dceffe8	0.10107404
18	0xbb6de540	-0.0036299974
19	0x3d975a70	0.073902965
20	0x3da59134	0.08084336
21	0xbd0f666c	-0.035009786
22	0x3d109d7c	0.03530644
23	0x3d7f3244	0.062303796
24	0xbd0d31cc	-0.034471318
25	0x3d4a1f4c	0.049346253
26	0xbd9ad800	-0.0756073
27	0xbdb4a696	-0.08820836
28	0xbceb05e0	-0.028689325
29	0xbd26f358	-0.040759414
30	0x3d8b4f3e	0.068022236
31	0x3d8fa02a	0.07012971
32	0xbc6ac9c0	-0.0143303275
33	0x3dc42e56	0.095791504
34	0xbcbdef08	-0.023185268
35	0x3dd582aa	0.10425313
36	0xbd4a0610	-0.049322188
37	0x3df434ec	0.119241565
38	0xbca72038	-0.020401105
39	0x3bb9cbe0	0.0056700557
40	0xbde33744	-0.110945255
41	0x3d260a3c	0.040537104
42	0xbd565df8	-0.05233571
43	0x3da8f3d4	0.082496315
44	0x3d07e520	0.033177495
45	0xbd4e1f00	-0.050322533
46	0xbd85700c	-0.06515512
47	0x3da88998	0.08229369
48	0x3ccc4488	0.024935022
49	0x3de2706a	0.110565975
50	0xbbda8ba0	-0.0066694766
51	0x3d31d2f8	0.043414086
52	0x3deb9f28	0.11504966
53	0xbd52a200	-0.051424026
54	0x3d33063c	0.043707117
55	0xbd5e3f98	-0.054259866
56	0x3de39bb2	0.11113681
57	0x3dfd5412	0.12369551
58	0xbd0a9b54	-0.03383954
59	0xbd153e94	-0.036436632
60	0x3dc03be0	0.0938642
61	0xbcbc74c8	-0.023004904
62	0x3dca7afc	0.09886739
63	0x3df6a894	0.120438725

value_model.4.weight f4 [1, 64]
0	0x3d088708	0.0333319
1	0xbddfa662	-0.10920407
2	0x3da7b2e8	0.081884205
3	0x3ddf0212	0.10889067
4	0xbd152b70	-0.03641838
5	0xbdeb5cfc	-0.11492345
6	0x3dd74c26	0.10512571
7	0x3ddd552c	0.10807261
8	0x3da78c04	0.08181003
9	0x3d0a7254	0.033800438
10	0x3d8c3446	0.06845908
11	0xbd27cecc	-0.0409687
12	0x3ae8a600	0.0017749667
13	0x3d19295c	0.03739296
14	0xbd6972a4	-0.056994095
15	0x3df0005e	0.1171882
16	0x3dedf3f6	0.116187975
17	0xbd81dbbe	-0.063407406
18	0x3def14e8	0.116739094
19	0x3c4fe5f0	0.012689099
20	0x3db9235a	0.09039946
21	0x3dc4db2e	0.09612118
22	0x3db56d7c	0.08858773
23	0x3d5f88cc	0.05457382
24	0x3dfcc416	0.12342088
25	0x3dbf92c4	0.09354165
26	0xbda49d92	-0.08037867
27	0x3d4ce818	0.05002603
28	0xbddcf0b8	-0.10788101
29	0x3d9a15e8	0.075237095
30	0xbd37a788	-0.044837505
31	0xbd83cfb2	-0.06436099
32	0x3bde1d40	0.006778389
33	0xbd31a1e4	-0.04336728
34	0x3df65056	0.120270416
35	0xbc2c6fa0	-0.01052466
36	0x3d84ab40	0.06477976
37	0x3a44ce00	0.0007507503
38	0xbde85dae	-0.11345993
39	0x3d182550	0.03714496
40	0x3daeec48	0.08541161
41	0x3d226390	0.03964573
42	0xbdc711e8	-0.09720212
43	0x3de31d3c	0.110895604
44	0xbd82c3f6	-0.06385033
45	0xbdbdbcfa	-0.0926456
46	0xbd6afae0	-0.05736816
47	0xbd0b3f58	-0.033995956
48	0xbb5bb780	-0.0033526123
49	0x3d97b6bc	0.07407901
50	0xbdab384a	-0.08360346
51	0x3c95abc0	0.018270373
52	0xbda28948	-0.079363406
53	0xbd90f8da	-0.07078715
54	0x3d81f498	0.06345481
55	0xbc7106e0	-0.014711112
56	0x3dcccf54	0.10000482
57	0x3ce63ca8	0.028105095
58	0xbdfb8168	-0.12280542
59	0x3c634fa0	0.013873965
60	0xbcdf2a48	-0.027241841
61	0xbd499e90	-0.049223483
62	0x3d216af8	0.039408654
63	0x3d2b904c	0.04188566
