scripts/practical_rl_models/model_1900000.pth (torch, 41301 bytes, 10 tensors)

policy_model.0.weight f4 [64, 4]
00000000: 1a12 733e a4c2 4ebe 775d 213e 3a71 bcbe
00000010: 764e c73d d97e 72bd c951 d7be d727 463e
00000020: 6e7d c5bd bcfe 5b3e 6c9a fabe caca 923e
00000030: cf51 d23b 477f 11be d9f2 323e 8049 ebbd
00000040: 711f ba3e da8b e03e adc5 70bc b8d2 29be
00000050: f800 63be 6f00 a7be 85f5 d73d 6a95 8a3e
00000060: 110b c13e 0c60 8c3e 9e64 f83c c214 4bbe
00000070: cfcf f53e 410f e8be 7b2c e83d 96ee 893d
00000080: 7016 9b3d 4d99 eebd e220 1a3e bb60 b63e
00000090: 6556 0ebe e9b9 e43e cbe1 edbe 3fb8 e4be
000000a0: f091 99be dc3c 2abd bc8d bb3e 2187 7e3d
000000b0: f49a d1bd 6b3a 1fbe 1d96 0c3e b225 3fbe
000000c0: 7151 543e 5ab3 0c3e 12fb ef3e 889f 6b3e
000000d0: 0e6b fdbe eb72 ae3d 699b 92be 53d0 79be
000000e0: 6258 b5be 28f6 9ebe 6832 c4bd 3604 eabd
000000f0: 8ea3 a5be 63e2 773e c86b f7be 5ca2 d4be
00000100: 2a54 613e b21e f43e 339e 07be ffac c3be
00000110: f2b4 673e c4bb 903d 004a 8c3e 6ecf 49be
00000120: 72b3 b0be 7b72 d5be 8c35 83be aa86 bcbe
00000130: 431c b6bd d228 5cbc c90c b8be c378 1b3d
00000140: 7513 a4be 1097 9d3d fa73 c4be 5421 6b3e
00000150: 1dae 87be 6ed2 b5be 5512 813e 076f c23d
00000160: ac82 c03e 118f 1d3d aba5 f8bd 27fe f33e
00000170: 0424 eebe a547 273e 12df 6a3e 3826 babe
00000180: a9b4 83be d616 093e 8c8d ab3e 27bd 253d
00000190: 9a4b 833c 4471 e1bd ae61 35be 79a1 1ebe
000001a0: 1429 6c3d 4ea0 afbd d901 0e3e 8f1a 8b3e
000001b0: 592b ad3d 969f e5be fcd2 d23d cd1e bb3d
000001c0: eb5f d9bd 3a03 213c 2b9b ebbe 19bf 5bbe
000001d0: 672e d9be c260 a03d 1bbd cbbd 8556 723d
000001e0: f155 61be 1fd6 b03e 897b 82bd 694d 68be
000001f0: 5efd c53d 88c2 40bd 06da d63e e65b 863e
00000200: db14 c33d fc7b e1bd 9ed6 20be 528f d2bd
00000210: fad2 b1bd addf e83e feea 893e 5b9d 2fbe
00000220: 2695 e83e 0133 f13e c44b f83e 5d49 e73d
00000230: ab3c 5fbe 6089 ba3e fd19 fe3e 02be f5bd
00000240: b4a9 323e f8e8 383e e388 9bbd 2200 973e
00000250: e2ba a5be be87 6dbe 96ae f93d c161 563d
00000260: acca 14bd aeb9 843e b511 97be 243b c5be
00000270: 89c4 cebe d240 1bbe 21e0 7b3e 3a8c fa3e
00000280: 0807 893d e1c8 e53e 3454 a1be 0275 ed3e
00000290: 425b a13e f6d2 b73e f58f c03e 766f 2abe
000002a0: 7f21 e4be dfd1 4fbe 1239 e03e 945d 54be
000002b0: 0962 d23e 4416 42bd 7565 993d 6d65 e3be
000002c0: 2542 ae3e da06 54be d06b 10be 09a6 71be
000002d0: 137b 40be 1c5b 883e 39c9 adbe 47bf e0be
000002e0: c135 763e 5b46 19be 2f81 b6be 0f8c f0be
000002f0: 3896 a43e 8c5a d63e a79a a43e 5dd0 4e3b
00000300: 347b cbbe c31b d2bd a8d6 e0be 0740 d83e
00000310: cb4f 8fbe 0c47 b23e 66cb 9ebd 16ff e43d
00000320: 7f75 333e 1468 af3e f8eb c4be 719f ce3d
00000330: c001 c7be 0e22 49be 8277 963e 4f59 233e
00000340: b7ae e63e 92bd c23e 7007 7abe 68a7 1fbe
00000350: 6393 cb3e ea26 663c 4322 b6be 5953 373e
00000360: bf27 783e afc9 aabe 6584 39ba 3ff7 a4be
00000370: afe5 f5be 8abe 70be 7e06 2cbe 5343 e1be
00000380: 6b76 bfbe e1fa ccbe 39fb e1be 84e3 343e
00000390: 85d7 2a3e 62ce 98be b3a2 febe bd34 e9bd
000003a0: 2b85 f33e fae2 b6be 15cd bd3d a39d 99bd
000003b0: dbca 853e 061a a23e d07c c0be 4198 e53c
000003c0: 52d7 85be 9ecc dd3e 0981 d83e 8fe3 b73b
000003d0: 2e66 b23e bccd fd3e 7df6 8ebe 1e9c 1f3e
000003e0: a753 7a3e 4296 6b3e 9698 5c3e 926c 16bd
000003f0: caa4 913e a65c 3c3e 0896 cfbc ab2e c9be
0.23737374 -0.20191437 0.1575831 -0.36805135 0.09731762 -0.059203003 -0.42054585 0.19351135
-0.096430644 0.21483892 -0.4894594 0.2867034 0.0064184438 -0.14208709 0.17475452 -0.114886284
0.36352113 0.43856698 -0.014695567 -0.16584289 -0.22168338 -0.32617518 0.10544876 0.2706712
0.37703755 0.27417028 0.030321416 -0.19832137 0.48010108 -0.45324138 0.11336609 0.0673496
0.07572639 -0.116503336 0.15051606 0.35620674 -0.13900144 0.44673088 -0.4646133 -0.4467182
-0.29994154 -0.041561946 0.36631572 0.062140588 -0.10234633 -0.15549628 0.13729139 -0.18666723
0.20734192 0.13740292 0.4687124 0.23010075 -0.4949574 0.085180126 -0.28634194 -0.24395876
-0.35418993 -0.31047177 -0.09579927 -0.114265844 -0.32351345 0.24207453 -0.48324418 -0.4153012
0.22004762 0.4767967 -0.13243942 -0.38217923 0.22627619 0.070670635 0.27400208 -0.19708034
-0.34511906 -0.41688904 -0.2562679 -0.3682149 -0.08892109 -0.013437467 -0.35947254 0.037956964
-0.32046095 0.076948285 -0.38369733 0.22961932 -0.26500025 -0.35512108 0.252093 0.09493833
0.37599695 0.038466517 -0.12140974 0.4765484 -0.46511853 0.16335924 0.22936657 -0.36357284
-0.2572377 0.13387617 0.3350643 0.040463593 0.01602726 -0.11007932 -0.17713043 -0.15491284
0.057656363 -0.085754976 0.13867892 0.271687 0.084555335 -0.44848317 0.10294148 0.09136734
-0.10613998 0.009827429 -0.4601682 -0.21459617 -0.42418215 0.07830955 -0.099481784 0.059164543
-0.2200544 0.3453836 -0.06371219 -0.2268578 0.096674666 -0.04706052 0.41963214 0.26241988
0.09525462 -0.11009976 -0.1570687 -0.102812424 -0.08682819 0.4548315 0.26937097 -0.1714987
0.4542629 0.47109225 0.48495305 0.1129329 -0.21800487 0.36432934 0.49629202 -0.11999132
0.17447549 0.1805762 -0.075944684 0.2949229 -0.32369143 -0.23196313 0.12191503 0.05233932
-0.036326095 0.25922912 -0.29505697 -0.38521683 -0.4038432 -0.15161446 0.24597217 0.4893511
0.06690794 0.4487982 -0.31509554 0.46378332 0.31514937 0.35903138 0.3760983 -0.16644081
-0.44556805 -0.20294903 0.4379354 -0.20738822 0.4109042 -0.047384515 0.074900545 -0.4441332
0.3403484 -0.20705739 -0.14103627 -0.23598494 -0.18796949 0.2663201 -0.33942583 -0.43895933
0.24043943 -0.14968245 -0.35645434 -0.46981856 0.32145858 0.41865957 0.3214924 0.00315573
-0.39742434 -0.102592014 -0.4391377 0.4223635 -0.27990565 0.3481983 -0.07753639 0.11181466
0.1752529 0.34259093 -0.3846128 0.10089005 -0.38868523 -0.19641897 0.29388052 0.15952037
0.45055172 0.38035256 -0.244169 -0.15591204 0.39760885 0.014047364 -0.35573015 0.17902888
0.24233912 -0.33356997 -0.0007076918 -0.32219884 -0.48026797 -0.23510185 -0.16799352 -0.43996677
-0.37395033 -0.40035155 -0.4413698 0.17664915 0.16683777 -0.29844958 -0.49733505 -0.11387012
0.47562537 -0.35720044 0.09267632 -0.0750077 0.2613133 0.3166048 -0.37595224 0.028026702
-0.2614084 0.43320173 0.42285946 0.005611844 0.34843582 0.49571025 -0.2792243 0.15586898
0.24445973 0.23006538 0.21542582 -0.036724634 0.28446037 0.18394718 -0.025340095 -0.39293417

policy_model.0.bias f4 [64]
00000000: 0c4a efbe c567 ee3d 9abf f03e bb31 9abe
00000010: 25ed d93e 2054 ecbd 5380 3cbe 8b49 c3be
00000020: c73b 5bbe d6bd ed3e 5b33 d7be 155d e3bb
00000030: 1174 37be 35cf f0be 6bec 993e e845 fe3e
00000040: 8b80 173d ee94 68be 8370 37be 2c0c d0be
00000050: c240 a0be 64a5 8bbe 7b96 c53e 3fa4 8bbe
00000060: 1f20 af3e 8bf8 e8be a50e eb3e 62ff 8ebe
00000070: a9fc e0be cc1f e53d b6e4 b0be 2061 89bd
00000080: bfd9 503c b650 013d cf16 ea3d d931 b13e
00000090: 919c c93c 9a56 7e3e f7b5 18bd 69b6 963e
000000a0: 9dd2 b73e dc58 c03d 97c7 e6bd c66b 603d
000000b0: f42c fa3e 7066 b53e 0637 b6bd b207 633c
000000c0: 7c22 e2be 7d08 4abe c5b4 dd3e f784 52bd
000000d0: 61cb 9f3d d40c 2c3e 8f32 3b3e 423d a33e
000000e0: c982 febe 267b a63e a1cd 3d3e 44f1 dbbe
000000f0: 8252 80be 10dc 9d3e f167 e23e d0fe af3e
-0.4673618 0.11640886 0.4702118 -0.30116066 0.4256374 -0.11539483 -0.18408327 -0.38142046
-0.21409522 0.46433896 -0.4203137 -0.0069385865 -0.1791537 -0.47033086 0.30063185 0.4966271
0.036987823 -0.22713062 -0.17914014 -0.40634286 -0.31299406 -0.2727462 0.3859137 -0.27273747
0.34204194 -0.45502123 0.4590961 -0.27929217 -0.43942764 0.111877054 -0.34549493 -0.06707978
0.012747227 0.031571113 0.11430132 0.34608343 0.02461079 0.24837723 -0.03728291 0.29436043
0.35902873 0.093919486 -0.112685375 0.05479028 0.48862422 0.35429716 -0.08897214 0.013856815
-0.44166934 -0.197298 0.4330198 -0.051396336 0.07802463 0.16801769 0.18281005 0.31882674
-0.49709156 0.3251583 0.18535472 -0.4295751 -0.25062948 0.30831957 0.44219926 0.34374094

policy_model.2.weight f4 [64, 64]
00000000: 1ed1 27bd 29fd ee3d d809 8ebc 9c15 77bc
00000010: 2f10 343b 0a73 053d 7d43 e53d cda2 863d
00000020: 00ef 4bbc 2c56 aa3c c3e5 cb3d b8c1 89bd
00000030: 5aa2 273d 7f50 9fbd 414a d33d 01a0 6abd
00000040: 3c74 2a3d 8272 913d c2f1 8cbc c33d 46bc
00000050: cfc6 96bd e69d 98bd a5ef ecbd ddfd d2bc
00000060: 3209 973c de85 f4bd f869 ca3c 9bfd d3bd
00000070: f2c5 cabd e0e9 363c b588 11bd 29cd 02be
00000080: 0c1b 85bd 80e7 86bd d7b1 2bbd 0b59 6bbd
00000090: ee1f e6bd 0190 49bb d44d 633d 5367 f63d
000000a0: 4228 30bd 04d4 babb 7f4f e8bd 6555 cdbd
000000b0: 9e8e d53d c603 e93d efa5 e83c f504 ba3c
000000c0: 378c fd3c 32ba f5bc 0bd1 6e3d 5831 693c
000000d0: 5c5d b73d c4d3 d53d 98ef a43d ab0c 47bd
000000e0: 4f14 ca3d cd65 b13c a3c9 db3d 8a29 ed3d
000000f0: 0dc9 9bbd 118f b0bd 4779 ad3c dbe9 fe3d
00000100: a1b2 633d 0440 8c3d 513c 1cbd d197 87bc
00000110: 2cbf 403d fb29 e2bd b9a1 d03d e465 cc3d
00000120: dc16 ac3d 559a e9bb 9966 913d 256f b43d
00000130: f4e4 cb3d 525a ce3a c696 ac3d d75e 52bd
00000140: 706b 37bd c54f 103c b1e0 41bd a256 2ebd
00000150: 9315 aa3d 6ec7 c13c 1557 1b3d b872 92bd
00000160: 64b6 27bd 5617 b3bc 5241 03bd 35a5 a2bd
00000170: 757c 98bc 0f5a 30bd fc50 adbd 2e60 313d
00000180: 4358 c6bd 9eb0 f43d 2307 4b3d 569c ef3d
00000190: 3e50 91bc 4488 b93d 9486 bd3d 9e10 66bb
000001a0: c121 c73d 8b43 5e3d 4980 933d 3fb2 eabd
000001b0: 499a c5bc 12aa e33d 48c5 0abd 36be 9a3d
000001c0: 036d 183d ab13 4bba 1295 3bbd f9b5 d43d
000001d0: 15c1 4fbd b76a 013d 1eab 55bd 7aa2 3c3d
000001e0: 1c3c fbbd 9540 c43d 63cd c03d 23b1 febd
000001f0: 30b7 02be 65e9 b5bc 7929 6b3c fa41 fabc
00000200: 617b d63d e0a6 d2bc 8191 f0bd a7db abbd
00000210: fe43 8fba f331 ccbd 1de8 7d3c 4c6b a23c
00000220: 0981 3c3c db5c 1bbd 3932 483d 36db b63d
00000230: b18d d73d e102 d1bd 70f8 ad3d c303 3f3d
00000240: 3cbe e738 6e12 cebd 4bb8 64bd 162b bdbc
00000250: 47aa b23d bf29 cabc ad87 9dbd e4f5 3a3d
00000260: 2bb4 ecbd 5b48 9fbd eec3 22bd 1401 893d
00000270: 37b7 b7bd b395 82bd 67bb fe3c 59fe 8e3c
00000280: 7a18 de3d 22f9 ddbd 7d63 ccbd 3f92 e23d
00000290: bd10 f83d 5c66 ff3d 777b 8ebd b5c4 f8bd
000002a0: f606 92bd ae06 803d 007f bb3b 8487 b93c
000002b0: b626 5cbd 81e8 37bb 0c84 86bd 9d1f 433c
000002c0: de98 2c3d 7f83 45bc beeb 87bd 080b ee3d
000002d0: edda 6b3d 7094 a1bd 7c73 953d 376d ecbd
000002e0: ffc4 9fbd 05c6 fe3c 6b2e 9fbc d616 8b3d
000002f0: b336 69bd 2b17 76bd 83c6 a1bd 89aa c83d
00000300: 15ec 6c3d a7e4 ebbd f4cf f5bc 1e2a d6bd
00000310: cdb7 15bd bf73 103c e459 c0bd 22f8 8ebc
00000320: 1adc 403d dc98 edbb 8053 e3bd 597e 53bd
00000330: c802 963d 2f77 203d d8cc 4a3c a0d1 53bd
00000340: 59b3 9bbd 55f7 cb3d 4070 b33d e37d c3bd
00000350: 3571 fbbd 030b ea3d 922e 9b3d 2058 e1bd
00000360: dec4 ebbd 9f84 cfbd c01d aebd 5bb9 f13d
00000370: 0292 2e3d cdb9 973d d00c 8e3d 3f52 8bbd
00000380: cd73 813d a7ff b5bc 17ac d23d 5b5f 86bc
00000390: 3a1c f3bd 5e44 01bd 8e5f c53c 66a5 093d
000003a0: 3355 9c3d 1bff fbbb 33b2 073d 14bd 99bd
000003b0: 71b0 18bd 5537 dcbd 3337 bfbd 8cbc 883d
000003c0: 310a debd d2c9 9d3d 4157 04bc 8a77 a5bd
000003d0: 4e8e cbbd 4f75 fcbd 76d3 f5bd 701c 953d
000003e0: 33ff 82bd 89a3 e2bd b4df b2bd 0fa4 e8bc
000003f0: 9118 553c aaa9 d73d 9800 983d 5886 8cbd
-0.040970914 0.1166938 -0.017338678 -0.015080836 0.0027475466 0.032580413 0.11194513 0.065740205
-0.012447119 0.020793043 0.09955933 -0.06726402 0.040926315 -0.07779025 0.10316897 -0.057281498
0.041614756 0.07101919 -0.017205123 -0.012099686 -0.073621385 -0.07451992 -0.11569146 -0.025755817
0.018437002 -0.11939596 0.024708733 -0.10351106 -0.09901036 0.011164159 -0.035530765 -0.12773575
-0.064992994 -0.06587124 -0.04191765 -0.057457965 -0.11236559 -0.0030756 0.055494145 0.12031426
-0.043007143 -0.0057015438 -0.11343288 -0.10026053 0.10427593 0.11377673 0.028399436 0.022707442
0.030950649 -0.029996011 0.058304828 0.014232956 0.08953354 0.10440782 0.080535114 -0.048596065
0.09867155 0.021654988 0.107318185 0.115801886 -0.07606707 -0.08621038 0.021175994 0.12446948
0.055590276 0.068481475 -0.03814346 -0.016551884 0.047057316 -0.110431634 0.10187096 0.099803716
0.084027976 -0.0071289935 0.07099647 0.08810262 0.09955779 0.001574347 0.08427195 -0.051359978
-0.044780195 0.008808081 -0.047333423 -0.04256309 0.08304896 0.023654666 0.037924845 -0.07150787
-0.040945426 -0.021861713 -0.032044716 -0.07941667 -0.018614033 -0.043054637 -0.08462712 0.043304615
-0.09684803 0.119477496 0.049567353 0.116997406 -0.017738458 0.09059194 0.09254184 -0.003510512
0.09723235 0.054263633 0.07202203 -0.11459779 -0.02412142 0.11116423 -0.03387955 0.07555811
0.037213337 -0.0007746766 -0.04579646 0.10386271 -0.050721247 0.03159591 -0.052165143 0.046053387
-0.12267324 0.095826305 0.094141744 -0.1243613 -0.12765193 -0.022206018 0.01435315 -0.030549038
0.104727514 -0.025714338 -0.11746503 -0.08391505 -0.0010930297 -0.099704646 0.015497235 0.019826554
0.011505374 -0.03793035 0.04887602 0.0892853 0.10525072 -0.10205627 0.08494651 0.046634447
0.00011050372 -0.10062109 -0.055839818 -0.023091834 0.08723884 -0.02467811 -0.07691894 0.045644656
-0.11557802 -0.077774726 -0.039737634 0.06689659 -0.08970492 -0.06376209 0.03109522 0.017455267
0.10844512 -0.10838534 -0.099799134 0.110630505 0.121125676 0.124706954 -0.06957143 -0.12146894
-0.07130234 0.06251274 0.0057219267 0.022647627 -0.053747855 -0.0028062167 -0.06568155 0.011909393
0.042137973 -0.012055277 -0.06636761 0.11623198 0.05758183 -0.0788964 0.072974175 -0.115442686
-0.07801246 0.031100282 -0.019431313 0.06791465 -0.05693693 -0.06008069 -0.07899191 0.09798152
0.057842333 -0.11518221 -0.030006386 -0.10457252 -0.03655224 0.0088166585 -0.09392145 -0.017452303
0.047084905 -0.0072508883 -0.11099911 -0.051634166 0.07324749 0.039176162 0.01237794 -0.051713586
-0.07602567 0.09959284 0.08761644 -0.09545495 -0.12277452 0.114278816 0.07577242 -0.11003137
-0.11512159 -0.10132717 -0.08501768 0.11802932 0.042619713 0.074084856 0.069360375 -0.068027966
0.06320915 -0.022216631 0.1028673 -0.01640289 -0.11870618 -0.03155934 0.024093416 0.033605002
0.07633438 -0.007690323 0.03312893 -0.07506767 -0.037277643 -0.10752741 -0.093367 0.066765875
-0.108417876 0.0770451 -0.008077444 -0.08079441 -0.09939252 -0.12327062 -0.120032236 0.07280815
-0.06396332 -0.11066348 -0.08734074 -0.028398542 0.013006345 0.10530408 0.07421988 -0.068615615

policy_model.2.bias f4 [64]
00000000: 74aa 423d df80 fc3d 2fcb b23d ced4 7abd
00000010: d8a1 c2bd fbda b8bd db78 f03c 0ea0 b4bd
00000020: 7d08 cebd 02ce 553c a76b d6bd 333c 80bd
00000030: 4c1c 6dbb 0750 f73c 713b 88bd 98f4 f73d
00000040: 64fe a8bd 369f a6bc bab6 333d 2e31 f53d
00000050: 8398 643c 369d e63c 63bb a73c f558 a9bd
00000060: d735 4c3d a1c4 b2bd a705 b7bd 50d7 ddbd
00000070: f402 82bd e3ab 6abc cc85 a8bc 3905 b53d
00000080: 4fc6 6d3d 2271 cdbd e18a ef3d 9f98 a5bb
00000090: 7097 e1bd 9cc1 d3bd 8a12 3c3d 90c6 44bd
000000a0: 9649 673c 97b1 713d af74 74bc 7a4e c73d
000000b0: 5e75 7f3d 0ca5 e93b 61b2 dfbd 3ddc 86bd
000000c0: 162f d7bd 1cb4 b0bd ec16 d33c 40be 2c3d
000000d0: f729 e7bd 5057 6d3d 1ab9 98bd fa4e 16bd
000000e0: 88b5 e0bd 20f4 ca3d a9ed e13d 74b0 edbd
000000f0: b885 7a3d 9ac3 19bd 7969 d5bd 7b68 9b3a
0.047525838 0.12329268 0.087301604 -0.061238103 -0.095035255 -0.09026142 0.029354503 -0.088195905
-0.10060213 0.013049604 -0.10469752 -0.06261482 -0.0036180196 0.030189527 -0.066519625 0.121071994
-0.08251646 -0.02033959 0.043875434 0.11972271 0.013952377 0.028151136 0.020475095 -0.0826892
0.049856033 -0.0872891 -0.08936625 -0.10832083 -0.063482195 -0.014323208 -0.020571612 0.08838887
0.05805045 -0.10031344 0.11696411 -0.0050535942 -0.110152125 -0.103396624 0.045916118 -0.048040926
0.014116665 0.059007253 -0.014920398 0.09731765 0.06236779 0.007130271 -0.10922695 -0.06584976
-0.10507028 -0.08628103 0.025767766 0.042173624 -0.11287301 0.057944596 -0.0745718 -0.03669641
-0.10972124 0.099098444 0.11031658 -0.116059214 0.06116268 -0.037540056 -0.10420508 0.0011856699

policy_model.4.weight f4 [1, 64]
00000000: f821 2ebd 5f70 91bd 7421 7b3b d02b 863d
00000010: 608b ac3d 1fb8 0d3c 65c8 c3bc 8525 e9bd
00000020: 0a60 9abd 4776 973d a918 8e3c 568b 243d
00000030: 4ed9 b9bb 40aa 963d a0b7 de3d 53e3 6bbc
00000040: ef2b a43d 8558 71bd ae14 f6bc bef1 99bd
00000050: 9ec2 ab3d 71e6 5e3d 9f6b 0f3d 9a67 b1bd
00000060: de35 00bd d456 e1bd 22c4 68bc 8acf 943d
00000070: 1d1a f03d f556 953d 96df a83d a249 ea3d
00000080: 6a2a d53c d2d9 4ebd f161 9d3c 2ccd e63d
00000090: 18f6 ddbd 3816 edbd 406d cf3c d695 663d
000000a0: 3238 50bd a6f3 bbbd 7d98 95bd bdb1 5dbd
000000b0: 72f9 933d 5369 fabd 1ea1 53bd b594 cdbd
000000c0: ceb3 5c3d bb80 ce3c 5dac 4d3d 504e 21bd
000000d0: 4071 323d 19f1 ef3d 9d53 28bd eb56 bf3d
000000e0: 604d 43bd 3fdc b9bd 25d7 ecbc dbaf a9bd
000000f0: 9219 9b3d 1c0e fe3c 5d69 ce3b d56b 903d
-0.042512864 -0.07101511 0.00383195 0.06551325 0.08425021 0.008649855 -0.023899266 -0.113841094
-0.07537849 0.073956065 0.017345743 0.040171944 -0.0056716567 0.07356691 0.108748674 -0.01439746
0.08016192 -0.05892231 -0.030039158 -0.07516812 0.0838673 0.054418985 0.035014745 -0.086623386
-0.03130137 -0.11002889 -0.014206918 0.072661474 0.11723731 0.07291976 0.08245771 0.114398256
0.026021201 -0.0505007 0.019211741 0.11269602 -0.10837954 -0.115765035 0.02532065 0.05629524
-0.050834842 -0.091773316 -0.073044755 -0.054124583 0.07225312 -0.1222712 -0.051667325 -0.10038129
0.053882413 0.025207868 0.050213207 -0.039381325 0.043565035 0.117159076 -0.041095365 0.0934275
-0.047681212 -0.09075212 -0.028911183 -0.08285495 0.075732365 0.031012587 0.0062991814 0.07051817

value_model.0.weight f4 [64, 4]
00000000: 4ab2 f2be 9086 0abe 265b a4be dac6 85be
00000010: 4e58 9f3e 5c57 25be 921b f2be 849f 78be
00000020: 2c4a 233e 72a5 c0be 1613 923e ccf1 b3be
00000030: b8e9 25be 56b0 8a3e 2a15 a9be c83a 83be
00000040: 1cd2 37be a8f5 56be 60fd 633d 16e2 d7be
00000050: 984e d4bd d894 ffbd e0ea 953d 1272 b3be
00000060: 4e8b 9b3e b207 e33e 3005 4bbd 2049 083e
00000070: 861d afbe d88b babd 5c1b b63e 34ab 993e
00000080: 7c7a debe 98d6 debe 4cd3 32be 0ce4 ff3e
00000090: 10ba 853d 6c2e 153e d08b 133d deb5 e43e
000000a0: 9849 873d fcb4 acbe dc96 98be a896 0f3e
000000b0: 4aa0 cf3e c063 c5be eeb9 b33e f408 853e
000000c0: e29f 85be 38be 7d3e 283b 4f3e f095 6e3d
000000d0: fcf0 733e 8293 adbe 289b e9bd 5867 363e
000000e0: ae2e ff3e 3853 80bd a016 523d 8cc8 4abe
000000f0: 60cf 9cbc 44b8 43be 6046 2e3e 022b adbe
00000100: 5cec 483e 6667 8abe e4c4 e4be 380c b0bd
00000110: d0d7 fabd bcf3 4bbe bc77 863e a031 acbe
00000120: 604b 5e3e d0b8 a0bd 70e4 553e 002d e83d
00000130: 00b1 54bd b0a3 873d 4cb6 98be a0a0 debc
00000140: 2cd6 cc3e c4c6 02be 3218 afbe c681 b1be
00000150: f8ca c53d 80d0 963b c054 433e 5a72 ffbe
00000160: 1620 c43e baf8 b6be e47e aa3e f41b 83be
00000170: c019 23bd 60b8 89bc 424b de3e 304c 49be
00000180: 6001 73be 5a37 f93e 407c 4d3e 1090 cbbe
00000190: 80c0 80bb f0c4 5cbd f0cf 623e 8cb3 d13e
000001a0: 74c0 0fbe 6cf2 42be bea7 ac3e 486f c73e
000001b0: 50b6 80bd b0f5 74be 509a b8be a849 ab3e
000001c0: e4a7 2fbe b83b e53e 64ab e0be beee d2be
000001d0: 90b9 b23e d0c5 b23e 480d 8e3d 4853 7ebe
000001e0: 12ae 853e bcfd 1c3e d41e 92be 2c4c 21be
000001f0: be2c 943e 74bc 75be f60a d33e 4447 103e
00000200: f83d 3d3e f4c6 68be 325b d63e 0e97 d3be
00000210: c838 89bd b0ce 3dbd 10f9 a03e c01f 3e3d
00000220: a03f 473e 0030 763a 9601 b33e ca89 e7be
00000230: a0d2 a4bc 80cc 0e3d 3a3a c6be a63d e73e
00000240: 7eaf e2be d883 dfbd e837 dcbd 48ba 5b3e
00000250: 6ee2 e93e 003b ddbe 883a 3b3e 0e98 d23e
00000260: 802e 6ebe fada c03e c670 e93e 78b1 d13d
00000270: 0c54 983e 6064 d5bd b034 1ebe f023 28bd
00000280: 342f c03e d017 4ebd 981b fe3d da85 c4be
00000290: 1c9c 34be c486 af3e 3849 a73e c053 30be
000002a0: c81e 6bbe 5853 01be ac68 663e 088a a1bd
000002b0: e089 e83e 1241 c93e 5621 c73e 8041 acbd
000002c0: c8da 233e 3831 693e 8ca2 3a3e ee17 eb3e
000002d0: 4036 603c 5e6a d4be 72b8 dabe c4ff 393e
000002e0: 1858 663e 88e5 debd 52d1 d2be 580e 09be
000002f0: a05a 5a3d 8c63 443e 30eb e43e 18fa d3bd
00000300: f004 f9bd 0064 f9be a0da 493d 583a e9be
00000310: a29e d33e bafc d03e 24f7 c9be e084 6b3e
00000320: 0e24 b9be 500d da3d 540e 11be 6615 d63e
00000330: 948f 50be 8294 aa3e 8024 743d 54bd 593e
00000340: 3e0d adbe 4047 55bd 5a27 8ebe 100a e5be
00000350: 30dd a3bd c4fc 11be ac52 f1be b0ad b93d
00000360: 583e f23e 1c0c 973e b8c6 bbbd b2cd f33e
00000370: a4d0 7a3e da45 803e 300a e9be e875 c93d
00000380: 663c d8be c09c c5be 4cc2 07be ccce 593e
00000390: d8b8 963e 3064 933e 00d6 48bc 5adc da3e
000003a0: d6f3 a0be 48f4 ed3e 503c 083e 6e9c d9be
000003b0: e6aa a83e 84a5 17be ce74 873e a0ec 86bd
000003c0: 20a4 0f3d 6091 b8bd 1649 a33e b015 b1bd
000003d0: 6220 b73e 1464 cc3e ae39 bcbe 18b4 213e
000003e0: 1430 45be 4087 0ebc 445d d43e ba3b d5be
000003f0: 2e58 e8be 2e94 e4be fae0 89be 1060 403e
-0.4740165 -0.13527894 -0.3210079 -0.26128274 0.3112206 -0.16146606 -0.4728666 -0.242796
0.15946263 -0.37626225 0.28530186 -0.35145414 -0.16202438 0.2708766 -0.3302396 -0.25630784
-0.17951244 -0.20992148 0.05566156 -0.42164677 -0.10366553 -0.124795616 0.073201895 -0.35047966
0.3037972 0.4434181 -0.049565494 0.13309145 -0.34202212 -0.09108704 0.3556775 0.3001343
-0.43452823 -0.43523097 -0.17463416 0.49978673 0.06529629 0.1456849 0.036022007 0.44670004
0.06605834 -0.3373183 -0.29802597 0.14022315 0.40551978 -0.38552666 0.3510279 0.25983393
-0.26098543 0.24779594 0.2023741 0.05824846 0.23822397 -0.33901602 -0.11406547 0.1781286
0.498403 -0.06265873 0.051291108 -0.19803065 -0.019141853 -0.1911326 0.17019033 -0.33821875
0.19621414 -0.27032012 -0.44681466 -0.085960805 -0.12248194 -0.19917196 0.26263225 -0.3363161
0.21708441 -0.0784775 0.20887923 0.11336708 -0.051926613 0.06623018 -0.2982658 -0.027176201
0.4000715 -0.12771136 -0.34198147 -0.34669322 0.09657854 0.004602492 0.19075298 -0.4989193
0.3830573 -0.35736638 0.33299935 -0.25607264 -0.03981948 -0.01681155 0.43416792 -0.1965797
-0.23730993 0.48675042 0.20066929 -0.39758348 -0.003929198 -0.05389875 0.22149634 0.40957296
-0.14038259 -0.19037789 0.33721727 0.38952088 -0.06284773 -0.23921847 -0.3605523 0.33454633
-0.17153889 0.44772124 -0.4388076 -0.4119777 0.34907198 0.34916544 0.06936127 -0.24836457
0.26109368 0.15331167 -0.28539145 -0.15751714 0.28940386 -0.2399767 0.412193 0.14089686
0.1848067 -0.22732145 0.41866452 -0.41326183 -0.06700283 -0.04633969 0.3144002 0.046416998
0.19457865 0.0009391308 0.34962147 -0.45222312 -0.020119965 0.034862995 -0.38716298 0.45164222
-0.44274515 -0.10913819 -0.10752851 0.2145778 0.45680565 -0.43209076 0.18284047 0.41131634
-0.23259926 0.37667066 0.45593852 0.102389276 0.29751623 -0.10419536 -0.15449786 -0.041049898
0.37536013 -0.050315678 0.12407607 -0.3838337 -0.17637676 0.34282506 0.3267305 -0.17219448
-0.22960961 -0.1262945 0.22500867 -0.078876555 0.4541769 0.39307457 0.3889262 -0.08410931
0.16001427 0.22772682 0.18226069 0.45916694 0.013684809 -0.41487402 -0.42718846 0.18163973
0.22494543 -0.10883623 -0.41175324 -0.13384378 0.053309083 0.19178599 0.44710684 -0.10350436
-0.12159145 -0.48709106 0.049280763 -0.45552325 0.41331965 0.40817815 -0.39446366 0.22999907
-0.3616032 0.106470704 -0.14165622 0.418132 -0.2036727 0.33316427 0.05960512 0.21263629
-0.33799165 -0.052069902 -0.27764398 -0.4473424 -0.080011725 -0.14256579 -0.47133386 0.090663314
0.4731319 0.29501426 -0.09168762 0.4761787 0.24493653 0.25053293 -0.45515585 0.09836942
-0.4223358 -0.38596153 -0.13257712 0.21270293 0.294379 0.28787374 -0.012258053 0.4274624
-0.31436032 0.46475434 0.13304257 -0.4250216 0.32942885 -0.14809233 0.26456302 -0.065881014
0.03506863 -0.09012103 0.31891698 -0.08646715 0.35766894 0.39920104 -0.36762756 0.15791357
-0.19256622 -0.008699238 0.41477406 -0.4164713 -0.45379776 -0.44644302 -0.26929456 0.18786645

value_model.0.bias f4 [64]
00000000: bcfe dcbe 52d1 d4be 9041 903d 968b 833e
00000010: a00e 3c3d 50d3 543e d489 6f3e c8a9 d3be
00000020: 0c7a 52be 28a6 36be a087 debe dc9c b5be
00000030: 40e5 103e 1ea1 bc3e 88d3 9d3e a87c c2bd
00000040: ca83 bcbe 5cad 6e3e a0d7 03bd 3470 af3e
00000050: 00ac 5abe 40d8 d33c 6c8e ed3e 1c17 6a3e
00000060: b03f 93bd 9a6f a7be b801 a8bd 0047 8dbb
00000070: 88ac e0bd a0bd efbc 646b a2be f226 a93e
00000080: 90d9 283d eec1 f33e cc1d 793e f065 3b3d
00000090: 5839 803e dad9 b1be c88a 973d 6a07 fb3e
000000a0: 907f c5be 2481 c2be e436 5dbe c2b2 a33e
000000b0: 1010 e3be a2a0 c83e e016 473e 7c11 c93e
000000c0: 9e39 d73e b2a4 dfbe 068c b0be ec59 543e
000000d0: 089f e23d a02d 953c 486c f43d 8010 97bb
000000e0: 30d8 423e a685 afbe e2e3 9cbe a0ca ecbd
000000f0: 74d5 afbe 7000 223e 2609 e53e 84e0 49be
-0.43163097 -0.4156595 0.07043755 0.25692433 0.045912385 0.20783734 0.23392421 -0.4134047
-0.2055437 -0.17836821 -0.4346285 -0.35471237 0.14149952 0.36841673 0.30825448 -0.094964325
-0.36819297 0.23308319 -0.032188058 0.34265292 -0.21354675 0.025859952 0.46397722 0.22860378
-0.07189882 -0.32702333 -0.08203453 -0.0043114424 -0.10970408 -0.029265225 -0.31722558 0.33037525
0.04122311 0.47608894 0.24327773 0.045751512 0.2504375 -0.3473652 0.07399517 0.49029094
-0.38573885 -0.3798915 -0.2160297 0.3197232 -0.44348192 0.39185053 0.1944232 0.39271152
0.42036146 -0.4368034 -0.3448183 0.20737427 0.11065489 0.018210232 0.119347155 -0.0046101213
0.19027781 -0.34281653 -0.3064261 -0.11562085 -0.3434254 0.1582048 0.44733542 -0.19714552

value_model.2.weight f4 [64, 64]
00000000: c254 dbbd 14ca 9d3d 04d6 bf3d 7e72 cabd
00000010: b81c c43d f863 e7bd 8cee 763d 3e10 babd
00000020: 7877 1abd 406f b73b f061 e53d 86a9 c7bd
00000030: d0a0 dd3d c8ce db3d 1449 8dbd 6ae6 f5bd
00000040: 7200 a8bd 402e e8bb c8dd d23c 0411 4f3d
00000050: a2fb e33d 5c86 ea3d b45a 1abd 3c0e 77bd
00000060: 3a55 f43d f43b 9d3d 0004 8f3b 60e3 8ebc
00000070: e4c5 52bd 946c 913d e0a9 2d3c 142c dcbd
00000080: 90da 343c 0853 533d 4e16 9dbd 4c61 be3d
00000090: a8eb cb3d 4452 a43d 0cfd fc3d e0ee a83d
000000a0: 1ef3 923d c850 423d 20af 3cbd e007 40bd
000000b0: 3811 cf3d ac8e a83d 5000 37bc ea8a a43d
000000c0: 6c53 a8bd d08e c63d 603e 143d 0090 70b8
000000d0: 3ab1 e63d ced0 ffbd 1cc3 97bd 9e9c c8bd
000000e0: 001a 973b 5c3c d4bd f66f c2bd dacd e4bd
000000f0: 7c35 0ebd 6896 f4bc 3cd7 6fbd d8da 1f3d
00000100: f0ff 8abc e027 1fbd c033 6bbd 7c3d 8abd
00000110: 3e6c f93d c8a6 febc 0408 cb3d 820b cc3d
00000120: 1874 1c3d e2c9 863d a608 edbd 8083 bd3a
00000130: 16cf 84bd ceb1 8ebd 36ad 8b3d d6ca ea3d
00000140: 6067 b43d 8c9c 23bd 1e72 eabd 440f d5bd
00000150: c0dc c73d c6b8 903d 8cb3 42bd 384b fb3c
00000160: ae12 8c3d 7cdf bdbd c4bf db3d c08e f5bd
00000170: 04f3 e43d 78ec e03d 4850 4c3d 94d2 b6bd
00000180: ba7c e43d dac5 9f3d f81e 8fbc 5094 123d
00000190: 20ce febc 488b df3d 40c0 203d c410 5dbd
000001a0: c897 af3c 6874 5abd 842e 20bd 5e70 ab3d
000001b0: 0063 333a 8497 993d e8e9 443d f844 6a3d
000001c0: b88b fb3c 606f 45bc 1202 92bd 585c ca3c
000001d0: 60b4 9c3c a87c 22bd fce5 4cbd b80c 9b3c
000001e0: f0ad b33c a050 6c3d 1839 fe3d d831 85bc
000001f0: b82a df3d 1082 28bd 7c46 cb3d d83d e3bc
00000200: 2036 543d e0a7 5d3d 3419 e8bd 3835 7cbd
00000210: 4088 5c3c 00be ecbd 706e 13bc 5ada 9f3d
00000220: c4ef 3b3d a06b 013d bc3e 5a3d c01b a43b
00000230: e68b 9dbd 66b3 ef3d d00a 5dbd 608d fe3b
00000240: 1231 efbd 8476 493d ca15 e43d e061 9a3d
00000250: d4d3 6fbd 08e3 06bd 4c90 143d 5a49 e7bd
00000260: cc63 8bbd 5440 c7bd 4202 c63d d45e 823d
00000270: d0db f1bc 76a2 903d f6fb fdbd 60f0 a1bb
00000280: d086 b3bd 205e 60bc 08fe 9c3c 98e8 c8bd
00000290: 54ee fcbd f4fd 52bd f835 81bc 4a50 c43d
000002a0: 245f 5b3d 1053 c0bd 1a66 9bbd d8c3 fd3d
000002b0: 2ee4 abbd 00f2 f2bd 78bd d13c 427e be3d
000002c0: 30ee 96bd aa97 debd ecca d53d bac9 cabd
000002d0: c4b3 4cbd 28b4 9b3c 309a 75bd 882c bf3c
000002e0: dcac b8bd 0ec5 bebd d250 983d 66e1 ad3d
000002f0: e09e f73b 0265 993d 00e0 ad3c 3083 aa3c
00000300: 2002 943d bc51 d0bd a42e 9ebd 6053 433d
00000310: 808e 2abd 769a acbd 2255 9b3d 487d a2bc
00000320: ca96 bebd 8487 bd3d 84cd a63d 940c 363d
00000330: 685a 26bd 8aa5 f03d 4e60 8d3d 38f1 69bd
00000340: 90d3 8cbc 4077 b1bb c8d8 b93c e0c7 fd3d
00000350: 9633 e8bd e0d6 a0bc eaff b13d 9071 08bd
00000360: 7251 f6bd ecbf 243d 32b0 8cbd 606e d9bd
00000370: 28b2 8fbc ac24 313d 741d 1cbd c023 f2bc
00000380: 00d0 f1bc b886 db3c 8004 ee3c 10d8 7abc
00000390: d0bf 2bbc ac7d 4d3d a078 5ebc 30c2 e5bc
000003a0: de89 cf3d 3a97 c9bd c8ff 0d3d a0a7 75bd
000003b0: 22e6 bfbd 8071 c23b 9490 13bd 8477 76bd
000003c0: 8cac 2dbd c08b 2bbb 286c b83d 6830 6c3d
000003d0: 80b0 96ba 64ee 733d a401 093d 4049 a53d
000003e0: 6e47 fb3d 787c 763d 24e6 10bd 1003 6d3c
000003f0: f0f6 9fbc b0a3 2bbd 903c 1e3c 7cc9 60bd
-0.10709526 0.07704559 0.09366992 -0.09885119 0.0957579 -0.112983644 0.06028609 -0.09085129
-0.03771159 0.005597979 0.11200321 -0.09749131 0.10821688 0.107328 -0.06898704 -0.120068386
-0.0820321 -0.0070855916 0.02574052 0.050553337 0.111319795 0.11451408 -0.037684157 -0.06031631
0.11930318 0.07677451 0.0043644905 -0.017442405 -0.051458254 0.07100788 0.010599583 -0.10750595
0.0110384375 0.051592857 -0.0767027 0.09295902 0.09957057 0.080235034 0.12352952 0.08248687
0.07175277 0.04744032 -0.04606545 -0.04688251 0.10110706 0.082303375 -0.011169508 0.08034308
-0.082190365 0.09695208 0.036192298 -5.735457e-05 0.11264272 -0.12490998 -0.07410261 -0.09795497
0.0046112537 -0.10363075 -0.09494011 -0.111720756 -0.034718975 -0.029856876 -0.058554873 0.039027065
-0.016967744 -0.038856387 -0.0574224 -0.067500085 0.12178849 -0.031085387 0.09913638 0.099631324
0.038196653 0.06581475 -0.11573915 0.0014458746 -0.06484811 -0.06967507 0.06820147 0.11464469
0.0880878 -0.039944217 -0.114475474 -0.10403302 0.097589016 0.07066493 -0.04753451 0.030675516
0.068395 -0.09271142 0.10729936 -0.11990118 0.11179164 0.10982603 0.04988125 -0.08926883
0.11156602 0.07801409 -0.017470822 0.035785973 -0.031104147 0.10915238 0.039245844 -0.053971067
0.02143468 -0.05333367 -0.03910686 0.08371042 0.000684306 0.074996024 0.048074633 0.05719468
0.030706272 -0.01205048 -0.07129301 0.024702236 0.019128978 -0.039669663 -0.050024018 0.018926963
0.021933526 0.057694077 0.124132335 -0.016259119 0.1089682 -0.041139662 0.09925553 -0.02773945
0.05180943 0.054115176 -0.11332932 -0.06157419 0.013460219 -0.11559677 -0.008998498 0.07805319
0.045882955 0.03159678 0.053282484 0.005008191 -0.07692699 0.117041394 -0.05396539 0.007768318
-0.11679281 0.04918529 0.111369684 0.075381994 -0.058551624 -0.032931358 0.036270425 -0.112932876
-0.06806144 -0.097290665 0.096683994 0.06365743 -0.02952376 0.07062237 -0.12401573 -0.004941985
-0.08765948 -0.013694316 0.0191641 -0.09809989 -0.12350145 -0.05151172 -0.015772805 0.095856264
0.05355753 -0.09390843 -0.07587834 0.1239087 -0.08393131 -0.11862564 0.025603041 0.093014255
-0.073696494 -0.108687714 0.10439095 -0.099017575 -0.049976125 0.019006804 -0.059961498 0.023336664
-0.09017345 -0.09314929 0.0743729 0.08490257 0.007556781 0.07489969 0.021224976 0.020814508
0.07226968 -0.101718396 -0.0772374 0.047686934 -0.041639805 -0.084278986 0.07584597 -0.01983513
-0.093061045 0.09254363 0.08144668 0.04444559 -0.040613562 0.11750324 0.06903134 -0.05711481
-0.017190725 -0.005415827 0.022686377 0.12391639 -0.11337964 -0.01963371 0.0869139 -0.033311427
-0.12027253 0.040222093 -0.06869544 -0.106167555 -0.017541006 0.043247864 -0.038114026 -0.029558063
-0.029518127 0.026797637 0.02905488 -0.015310302 -0.010482743 0.05016868 -0.013578564 -0.028046697
0.10133718 -0.09843297 0.03466776 -0.059974313 -0.09370066 0.0059339404 -0.036026552 -0.060172573
-0.04240088 -0.0026175827 0.09005004 0.05766335 -0.0011496693 0.05955352 0.03344883 0.08070612
0.122694835 0.060177296 -0.03537573 0.014466062 -0.019526929 -0.04190415 0.009657994 -0.05487965

value_model.2.bias f4 [64]
00000000: 60c0 9e3c a4b3 07bd 8083 ed3c a20c af3d
00000010: d053 193d 8059 2b3c 6034 553d b07d 13bd
00000020: d8a1 d9bd d400 253d 6cbe 623d 9a7c da3d
00000030: a4ba 8ebd c2a9 9abd ba5d c2bd f06e 023c
00000040: 46d1 e0bd 2e6a e43d 0c54 613d 4a5e a53d
00000050: 3433 343d b8db 2f3d 6489 bfbd 4e33 d1bd
00000060: 6a03 9bbd 30c7 9bbd aec7 bdbd d0ff 763d
00000070: e830 89bc b05a 603d e870 c2bd 6425 b93d
00000080: 48cf 69bd cc76 78bd f83e bb3c 445c 133d
00000090: e69c bcbd 7af2 f03d 561e 983d ccca 1abd
000000a0: a026 9e3d 5ea5 eb3d a204 99bd 28f3 e5bc
000000b0: 88db d83d d01d 143d 9232 ac3d b2a4 b3bd
000000c0: 606b 6d3c 906c 4bbd 949e dcbd 08cb 45bd
000000d0: 0069 573b 9884 63bd 64c6 4c3d 8eeb 893d
000000e0: 7abc babd 40bb 61bd d865 b5bc f2e2 c13d
000000f0: a827 47bd 3cee 8b3d b8bf 79bd c0dd 30bb
0.01937884 -0.033130303 0.028993368 0.085473314 0.037433445 0.01045835 0.0520519 -0.036008537
-0.10626572 0.040283993 0.05535738 0.10668297 -0.069691926 -0.0755191 -0.09490533 0.00796102
-0.10977416 0.11153065 0.055011794 0.08074625 0.043994144 0.04293415 -0.09352377 -0.10214864
-0.075690106 -0.076063514 -0.092666015 0.060302556 -0.016746953 0.054773986 -0.094941914 0.09040335
-0.057082444 -0.06066017 0.022857174 0.035976663 -0.092096135 0.11764999 0.07427661 -0.03779106
0.07722211 0.11506151 -0.07471587 -0.028070047 0.10588747 0.036161244 0.08408083 -0.087716475
0.014490932 -0.04966408 -0.10772434 -0.04828933 0.0032868981 -0.055546373 0.049993888 0.067343816
-0.0911798 -0.055110216 -0.02214329 0.094671145 -0.048621804 0.06832549 -0.060973853 -0.0026987642

value_model.4.weight f4 [1, 64]
00000000: 046d 8abd eadf b33d fed7 f43d 382b dc3c
00000010: 1480 0f3d 00c4 073a 4e0d d73d 8434 2e3d
00000020: 58b7 a63c c075 5c3d 4413 80bd b884 b73d
00000030: ccbf 3a3d 2684 863d a2b5 ba3d c091 763c
00000040: 1804 8abc 7a56 e83d ac57 d5bd e4d4 2abd
00000050: 7ea1 aa3d 6821 0fbd fc09 403d a0ea b53b
00000060: 8863 e73d 10ae 98bc 6803 98bd f8d2 b5bd
00000070: ac93 b43d 0e70 a63d 9040 19bc 94e9 f23d
00000080: e8f5 ec3c 1849 fabc beb5 9cbd 8efa d9bd
00000090: 761c 90bd 80b0 d0bc b012 303c dc34 57bd
000000a0: a006 dbbd e8ea 6bbd 6883 b93c 666d d73d
000000b0: 3045 a23d de67 ae3d e885 f3bc 30c4 8f3d
000000c0: 20bb 7ebd 4e54 cabd 943c b3bd 50b4 3c3c
000000d0: d619 cfbd d026 c2bc 64a0 4ebd 5e4b f63d
000000e0: ac02 ac3d 98a0 a33c 84c6 50bd 4aa2 a73d
000000f0: 2e4e d53d d0a2 eabc 8eba d43d aceb 783d
-0.06759074 0.087829426 0.1195526 0.026876077 0.035034254 0.00051790476 0.105005845 0.04253055
0.020351097 0.053823233 -0.062536746 0.08960861 0.045593068 0.06568174 0.09116675 0.015049398
-0.016847655 0.11344619 -0.10417113 -0.041706935 0.083315834 -0.034943968 0.04688452 0.005551651
0.11298281 -0.018637687 -0.07422525 -0.0887813 0.08817229 0.081268415 -0.009353772 0.11860958
0.028925851 -0.030552432 -0.07651852 -0.10643493 -0.070366785 -0.025474787 0.010746643 -0.052540645
-0.10694623 -0.05759707 0.022645667 0.10518913 0.07923353 0.08515905 -0.029726937 0.07019842
-0.062190175 -0.09879361 -0.08751789 0.011517599 -0.1011235 -0.023700148 -0.05044593 0.12026094
0.08398947 0.019974038 -0.05097057 0.08185251 0.10415302 -0.028642088 0.10387145 0.06077163
